mlruns/0/b6ab5c998350409ca48247287916d672/artifacts/model/data/model.pth (torch, 14056 bytes, 7 tensors)

weight_ih_l0 f4 [80, 1]
000000 97 71 76 3e 2f 59 a5 3e 2e cb 6d 3e 19 3f 6f 3e
       0.24066769 0.32294604 0.23222038 0.23363914
000010 d8 01 91 3e 05 f4 52 3c c3 71 34 3e 79 90 9a 3e
       0.2832172 0.012875562 0.17621522 0.3018835
000020 ae 04 a2 3d fa 41 9a 3d ed d2 10 3e d1 37 32 3f
       0.07911049 0.07532115 0.14142962 0.6961642
000030 4d 63 5b be ca b3 d4 3d 33 33 bd 3e 69 59 0e 3f
       -0.21424599 0.103858545 0.36953124 0.5560518
000040 d0 87 27 3e 33 c1 92 3e 96 f9 ea 3e 0f c0 a7 bd
       0.16360402 0.28663024 0.45893544 -0.08190929
000050 e3 3c 03 3e fe 84 ac 3e d4 39 8e bc 84 21 67 bd
       0.12816195 0.33695215 -0.017361559 -0.056428447
000060 b4 33 e0 bd ac 6a c7 3e 40 c8 90 3e 4e d3 9e 3e
       -0.109473616 0.38948572 0.2827778 0.31020588
000070 35 c8 8e 3e 9b c4 c1 3e 81 d0 a6 be 70 c5 dd 3e
       0.2788712 0.3784531 -0.3258095 0.43314695
000080 82 98 d0 bc 4c e7 cd 3c 2a a2 68 3e 29 3e b0 3d
       -0.025463346 0.025134705 0.2271811 0.08605606
000090 b5 58 e4 3a c6 f4 f3 3d d0 0a ed 3e 87 c5 11 be
       0.0017421456 0.11911921 0.46297312 -0.14235507
0000a0 b0 50 32 bd 83 80 cc 3e f0 b9 e4 3e f6 6d ea be
       -0.04353398 0.39941797 0.4467311 -0.4578702
0000b0 1e 06 69 3e 61 16 06 be 41 e5 03 bf f7 c1 b5 be
       0.2275624 -0.13094474 -0.5152169 -0.35499546
0000c0 8b d8 a8 be 9f 30 ae 3e db fd a0 3e 88 da 35 3f
       -0.3297771 0.3402147 0.31443676 0.7103658
0000d0 04 82 1f 3e ff 08 0e 3e ce 0a e9 3e 9c ca 8d be
       0.15576941 0.13870619 0.45516056 -0.2769364
0000e0 c8 21 a1 3e 8d dd db be 19 d3 20 bf 33 33 76 3d
       0.31471086 -0.42942467 -0.6282211 0.06010742
0000f0 26 25 2c bd 5a 06 1a 3e 75 4d a5 3e 74 a5 d3 3d
       -0.042027615 0.15041485 0.32285658 0.10334292
000100 09 d3 d8 3e bb 98 9e 3e e4 3c f9 3e 4b 65 c7 3e
       0.42348507 0.309759 0.48679268 0.38944468
000110 b1 b8 e3 3e bf dd bc 3e 02 05 32 3e 23 b4 25 3f
       0.44476846 0.3688793 0.17384723 0.6472799
000120 ab fc 50 be 8f be ce bd ee 63 b1 3e 53 bc ef 3e
       -0.20408885 -0.1009494 0.34646553 0.46823367
000130 4e c1 8e 3e e1 07 87 3e 90 03 07 3f 36 6c d4 bd
       0.27881855 0.263732 0.5273981 -0.10372202

weight_hh_l0 f4 [80, 20]
000000 c8 52 d7 bd 61 21 fa bc 11 5e 35 3d af 12 4b bd
       -0.10513836 -0.030533494 0.04427916 -0.049578365
000010 ca b8 0a bb bc c5 6b 3e 96 fa 1c 3e b5 e7 da bd
       -0.0021167272 0.23024648 0.15329966 -0.10688726
000020 9f 9d 60 3e e0 b4 cc bc aa 61 3a be e2 5e 71 3d
       0.21935128 -0.024988592 -0.18201318 0.058928378
000030 ce 1b 50 bd 56 42 99 3e 54 c9 d5 bd b0 d3 48 3e
       -0.050807767 0.29933423 -0.10438791 0.19612002
000040 28 e5 84 be 71 3b 9a bd 73 76 ab 3d 86 ad b9 3d
       -0.25956082 -0.07530869 0.08372202 0.090663
000050 0e 7c af bb 15 23 35 bd 5a 06 12 3e dc 34 6f bd
       -0.0053553646 -0.04422291 0.14260235 -0.05840002
000060 a2 37 90 bc 19 00 25 3d 4c ff 11 bd aa 10 08 bc
       -0.017604653 0.040283296 -0.03564386 -0.008304754
000070 32 c7 22 3e f2 31 8b bd b2 68 3c bd 27 b5 1f bc
       0.158963 -0.06796636 -0.045998283 -0.00974778
000080 cb 78 04 bd 88 4e 0c be d2 23 7b bd 3d 6e 36 3e
       -0.03234176 -0.13701832 -0.061313458 0.1781549
000090 ed 92 b1 3d 9d 33 dc 3d 14 31 07 be bf 38 70 3e
       0.08670602 0.10752032 -0.13202316 0.23459147
0000a0 71 f0 0f be 46 e4 30 3e 57 3e a4 3e 97 fa 76 3d
       -0.14056565 0.1727458 0.32078812 0.060297575
0000b0 66 8c b1 3e 40 c5 82 bd d7 c6 3a be 74 76 b9 be
       0.34677428 -0.06385279 -0.18239914 -0.36223185
0000c0 7e 4a 26 be e4 eb 1f 3e 7e c1 16 3d 4c 0e 9a 3e
       -0.16239354 0.15617329 0.036805622 0.30089033
0000d0 ad 6a b0 be 61 d2 3d be 5f d3 e2 3e ee bd db be
       -0.34456387 -0.18537284 0.44301888 -0.42918342
0000e0 f4 dd 54 3e ac aa 03 bc 43 10 4c be 54 98 60 3e
       0.20787793 -0.008036297 -0.19928078 0.21933109
0000f0 c7 6a 13 3e 7f b8 60 3e 72 0c 0e be ee a1 41 3e
       0.14396201 0.2194538 -0.13871935 0.18909428
000100 a5 ff 3c 3d aa d4 e3 bd 7b be c3 bd 52 3c 25 3d
       0.04614224 -0.11124547 -0.09557816 0.04034073
000110 d5 03 f0 3d fe 4b 3a bd 3f ae a5 3d f9 17 1f 3e
       0.11719481 -0.045482628 0.080898754 0.15536489
000120 b0 3c 79 be bf d1 66 be 61 7f ae bd ee c6 45 bd
       -0.24339557 -0.2254095 -0.08520389 -0.048285417
000130 90 e7 39 bd 6e 0e 0f be 89 8f a8 be df b7 85 bb
       -0.04538685 -0.13970348 -0.3292201 -0.004080757
000140 09 50 09 be fb 41 8b 3c 6b c2 02 3c 7d 6f 49 bd
       -0.13409437 0.016999235 0.007980923 -0.04917859
000150 0d 1e 0e be dc 0a 92 bd f3 e1 0c be b5 7c cd 3d
       -0.13878651 -0.071309775 -0.13758068 0.100335516
000160 63 1e c0 ba ff 3b b6 3e 99 d7 85 be b5 5b 8b 3d
       -0.0014657493 0.35592648 -0.2614105 0.06804601
000170 fc 52 85 be f3 82 0f bd 38 22 22 3d 6e 02 bd 3d
       -0.26039875 -0.035036992 0.039583415 0.09228979
000180 2b 47 10 3e f5 f0 87 3e 79 9a 01 be a4 0a 3e bd
       0.14089648 0.26551023 -0.12656583 -0.046396866
000190 1b 5b 0f 3e 11 eb e5 bd 4d 26 4b 3e 43 cb 66 3e
       0.13999598 -0.11226476 0.1983883 0.22538476
0001a0 d7 55 b4 3d d2 eb c9 3c 2a 33 1d bd c0 0a 80 3e
       0.08805435 0.02464858 -0.038378872 0.25008202
0001b0 c9 20 17 3e a5 c7 9b bb 37 25 ca bd f5 a5 08 3e
       0.147586 -0.004754024 -0.098703794 0.13344558
0001c0 26 49 52 be ce 40 09 3e 54 06 4c be c7 63 1a be
       -0.20535716 0.13403627 -0.19924289 -0.15077125
0001d0 35 5c 96 bd b2 61 21 3e ad 3c b1 bd 1a 64 e3 bc
       -0.07341806 0.15759924 -0.08654151 -0.027757693
0001e0 a4 1e 23 3e fb 9f 4f 3e f7 e1 3b 3d c7 42 5b be
       0.15929657 0.20275871 0.045869794 -0.21412192
0001f0 51 1a 84 bd cb 06 a8 bc bc 7b 92 3c 5f d8 72 3d
       -0.06450332 -0.020511052 0.017881267 0.05928838
000200 63 cb 5e 3d 37 42 c3 3b 88 bd 3e 3e 26 f3 7d 3e
       0.054393183 0.005958821 0.18626988 0.24799785
000210 f8 2a f5 bd 77 e6 5d be fa 55 94 3e 3a 28 9d bb
       -0.11971086 -0.21669947 0.28971845 -0.004796055
000220 fc d9 d5 3c 5c d4 53 3c 6e c7 30 be c6 07 79 be
       0.02610492 0.012929048 -0.17263576 -0.24319372
000230 ed 9d 5a be 1b 58 fe 3d 11 ae 46 3e ef 01 55 3e
       -0.21349306 0.124191485 0.19402339 0.20801519
000240 ad 40 9c 3d c8 42 fb bd da 29 53 be 09 db 4a 3d
       0.076295234 -0.12268597 -0.20621434 0.049525294
000250 c0 e6 ef bc 05 1a e4 3d af 1d 10 bd 64 f2 f0 bb
       -0.029284835 0.11137775 -0.03518456 -0.007353114
000260 a0 4d 7f be 46 55 69 be d2 10 ff bd f5 3d 88 be
       -0.24931955 -0.22786435 -0.1245438 -0.2660977
000270 00 b6 76 bd e7 8f cb bb 39 2a 04 3e eb 6d 83 3e
       -0.060232162 -0.006212223 0.12906732 0.25669798
000280 54 6b 7a bc 0e 6e 48 3e 7f 57 37 3d 36 89 01 3e
       -0.015284378 0.19573233 0.044761177 0.12649998
000290 ff 77 13 3c eb 72 88 3d a4 c6 47 be 40 8a de 3d
       0.009000777 0.06662544 -0.19509369 0.10866213
0002a0 3b 0c e4 bc 9a bc 26 3d 8a 0d 0f bd ea f6 52 3d
       -0.027837863 0.04070721 -0.03492502 0.051505007
0002b0 0c 1f f8 3c 20 da b6 bd 9f e2 a7 be bb 04 ae 3c
       0.030288242 -0.08928323 -0.32790086 0.02124249
0002c0 9b ab 36 be c6 f2 41 bd e4 11 4b 3e f1 55 f1 3c
       -0.178389 -0.047350667 0.19831043 0.029459925
0002d0 3a df 88 3d 58 38 7c 3e 77 49 2e 3d f5 87 e4 3d
       0.06683202 0.24630868 0.04255053 0.11158744
0002e0 f2 fe d1 bd dd 80 66 be 08 76 9e 3d c4 35 5d be
       -0.10253705 -0.22510095 0.077373564 -0.21602541
0002f0 46 4a 23 3e 04 6d f1 bd 9c e9 e2 3d 77 d0 96 bd
       0.15946302 -0.11788371 0.11079714 -0.0736398
000300 d3 95 45 bd f3 69 24 3c 0b a7 fe bc d9 10 13 3e
       -0.048238587 0.010035026 -0.031085512 0.14361896
000310 6a d8 35 3e 85 23 1b 3e 09 5b d1 bc e7 a4 3f 3e
       0.17758337 0.15150268 -0.025556104 0.18715249
000320 48 ce 11 3e 1e 96 07 be 1e ef 20 be 35 c5 26 be
       0.14238846 -0.13240859 -0.15716216 -0.16286166
000330 95 cf 8d be 0e 0a 45 3e be b1 2b 3e 8f 80 56 3e
       -0.27697435 0.19242117 0.16767022 0.20947479
000340 92 0d 09 3e 7a dc 55 be cb ea 32 3d 88 43 df 3c
       0.13384083 -0.20884886 0.043680947 0.027253881
000350 31 7f dc bc 97 81 53 bd b0 2d 8a be e4 91 5d 3e
       -0.026916118 -0.05163726 -0.26987982 0.21637684
000360 05 3d 0b be e6 1a 74 3e 5c cc a3 bc 17 ba 99 3d
       -0.13597496 0.23838386 -0.019994907 0.07506197
000370 09 36 7e be b4 14 b1 3e b9 b7 ab bd 66 11 9f bb
       -0.248253 0.34586108 -0.08384652 -0.004854369
000380 69 d7 41 3e d2 00 fb be 11 1a f7 bd 52 82 d7 bd
       0.18929829 -0.49024063 -0.12065519 -0.105229035
000390 27 35 b3 be d8 cb 5f 3e 70 87 5a 3e c3 5b 5c 3e
       -0.3500149 0.21855104 0.21340728 0.2151938
0003a0 59 c2 2e be b1 4c a4 be d8 68 b8 3c 65 8f c5 be
       -0.17066325 -0.3208976 0.02251093 -0.38585964
0003b0 08 77 5c 3d 59 c4 b7 be 22 fd 9c be e0 67 38 3e
       0.053824455 -0.3589199 -0.30661875 0.18008375
0003c0 e6 5c 75 3d 7f 78 5b be 44 c1 21 3e 9a 96 3e 3c
       0.059903048 -0.21432684 0.15796381 0.011632586
0003d0 f8 8e 36 be ee bc 3f 3e 50 4d 1a be 89 4c 09 be
       -0.17827976 0.18724415 -0.15068555 -0.13408102
0003e0 c1 ad 8e 3e 36 9b 0d 3d 8d a1 0e 3e 07 8a 83 3c
       0.2786694 0.03457185 0.13928814 0.016057028
0003f0 c1 5e 1e 3d 7d 01 ac 3e 8c b0 47 be 6d ac 8e 3d
       0.038664583 0.33594885 -0.19500941 0.06966481

bias_ih_l0 f4 [80]
000000 65 33 3c bd c5 aa 29 bd 9d 79 c1 3e 81 47 fc bc
       -0.04594745 -0.041422624 0.37788096 -0.030795814
000010 a1 d1 6b 3d 27 19 f0 bc e6 8e 67 3e 74 b0 d7 3d
       0.057572965 -0.029308869 0.22613105 0.10531703
000020 ff 9f ab 3d ea 69 3e 3e 24 3f 38 3e cc c2 11 3f
       0.08380126 0.1859509 0.17992836 0.5693786
000030 e2 a6 85 bc 82 34 58 be f4 36 9c 3e 8c 20 37 3d
       -0.016314927 -0.2111378 0.30510676 0.044708773
000040 4f d9 1f bd 5d 23 28 3e 69 b3 86 3e fc df 7e be
       -0.0390256 0.1641974 0.26308754 -0.24890131
000050 5f ac d2 3d bb 2e e7 bd 9f 22 c7 bc 65 bb 17 3e
       0.102867834 -0.1128821 -0.0243085 0.14817579
000060 22 ec 27 be 42 61 96 bc b6 7b 0f 3d cf c1 ee 3c
       -0.16398671 -0.018356923 0.03503009 0.02914515
000070 63 d1 79 bc 13 1d 12 be 8d 5f 5f be 63 a9 31 3e
       -0.015247676 -0.14268903 -0.21813793 0.17349772
000080 7c a1 74 be c1 57 03 bd 68 42 b0 be 9f 48 16 bd
       -0.23889726 -0.03206611 -0.34425664 -0.03669035
000090 18 88 15 3d 73 8c db bd 32 90 9e 3e e2 c8 57 bc
       0.036506742 -0.10720148 0.30969387 -0.013170453
0000a0 49 0c 4a 3c 44 81 df bd 1e 14 62 bd ae 81 0c 3e
       0.012332031 -0.10913327 -0.055194966 0.13721344
0000b0 5f b2 29 3e 0a 60 a3 bd 83 47 c6 3b 88 f6 2e 3e
       0.1657195 -0.07977302 0.0060510053 0.17086232
0000c0 68 ce cc bd 7a d5 5d 3d 52 35 18 be a7 f8 21 be
       -0.10000306 0.054158665 -0.1486409 -0.1581751
0000d0 73 a2 be bd 2c ff da 3d 8b a9 43 3c ad aa 84 3d
       -0.093083285 0.106932014 0.011942278 0.06477866
0000e0 9d f8 d9 3d f8 30 b6 bb 88 65 5d 3e e1 da 2a be
       0.10643122 -0.0055600367 0.21620762 -0.16685058
0000f0 31 67 4f bb 31 0e a3 bb fa 9e d5 3e 90 e1 14 be
       -0.00316472 -0.004976057 0.41722852 -0.1453917
000100 10 7b a5 bb 05 69 74 bd 4f 6c 42 3e 6c a0 7d 3e
       -0.0050500706 -0.059670467 0.18986629 0.24768227
000110 50 96 a2 bd 3c e6 79 3e c3 90 f8 3c e6 7c dd 3e
       -0.07938826 0.24404234 0.030342465 0.43259352
000120 15 0a 4a be 53 72 db bc 05 9a 8a 3e 03 d3 09 3e
       -0.19730408 -0.026787912 0.27070633 0.13459401
000130 e3 c4 61 3e 8a 82 a1 3e 96 42 0c 3e 8a f0 91 be
       0.22047763 0.31544906 0.13697276 -0.2850383

bias_hh_l0 f4 [80]
000000 05 f2 b4 3d ec d3 05 3e 6c ff c2 3e 4a 08 16 3e
       0.08835224 0.13069123 0.38085496 0.146516
000010 2f 0f 91 3e 77 d8 19 bd 9a a9 96 3e f5 ba 55 3c
       0.28331897 -0.037559953 0.2942627 0.013045062
000020 a4 f0 88 bb 82 86 f3 3c 71 ae 9f 3c 5a 7f 07 3f
       -0.004179077 0.029727224 0.01949236 0.529287
000030 01 dc 93 be d2 6c 86 3c ad d8 b6 3e 36 66 43 3e
       -0.28878787 0.016409311 0.35712186 0.19081959
000040 94 70 69 3d 3a 40 e1 3e 9b 06 73 3e 14 62 7d be
       0.05699213 0.43994313 0.23732989 -0.24744445
000050 22 44 17 be 99 5c e4 bd 81 95 01 3e 53 d8 75 3d
       -0.14772084 -0.11150474 0.12654687 0.060020756
000060 41 cf 12 be 7d 78 37 be 67 62 a0 be f2 0e 69 bc
       -0.14336874 -0.17917056 -0.31325075 -0.014224755
000070 ba 34 a6 bd 59 3b 50 be 78 4d df be 11 70 a9 3d
       -0.081155255 -0.2033514 -0.4361379 0.08273328
000080 8e ff 74 be 22 a5 b7 3d 45 c3 7c be a1 63 99 bd
       -0.23925611 0.089670435 -0.24683864 -0.07489706
000090 b4 9f e3 3d 0a 78 6d be c3 7a bf 3c 31 07 78 be
       0.11114445 -0.23190323 0.023373967 -0.24221493
0000a0 c9 ea 25 be 7f fd 35 3e 4a 61 cb bd 12 72 dc 3d
       -0.16202845 0.17772482 -0.09930666 0.10763945
0000b0 7a 21 0e be e9 95 08 be 26 20 1d 3d d8 b8 cf bd
       -0.13879958 -0.13338436 0.038360737 -0.10142678
0000c0 8c 42 85 bd ea b0 03 3e fc 5d a8 3d 32 a0 bb bd
       -0.065068334 0.12860456 0.08221051 -0.09161414
0000d0 e5 ab 0f be e2 3d 30 be 55 25 8d bd 6b bc 35 be
       -0.14030416 -0.17211106 -0.06891886 -0.17747657
0000e0 bf 37 14 be 75 f2 bc 3d ce 96 2c 3d eb 0a 1a 3e
       -0.1447439 0.092259325 0.042136006 0.15043227
0000f0 61 5b db bc 56 df 86 3e d4 ae 9b 3e 2b ad 6b bd
       -0.026776971 0.26342267 0.3040682 -0.057538193
000100 a0 0e ce 3d 74 dd 70 be a2 9c b8 3d 7b 7c ec 3d
       0.10061383 -0.23521978 0.0901425 0.1154718
000110 2c 05 4c 3e 24 95 ad 3c d8 ae ae bc e7 8d 0f 3e
       0.19923848 0.02118928 -0.021323606 0.14018975
000120 85 af 2b be 08 4e 80 3c 9a 74 72 3e e0 12 90 3c
       -0.16766174 0.015662208 0.23677292 0.017587125
000130 e6 6c 4f bc 71 e2 89 3e 0e ea 8a 3e ae 0a c3 3c
       -0.012660241 0.26930574 0.27131695 0.023808803

weight f4 [1, 20]
000000 f7 8c 04 bd 40 fa 42 3e f8 7f cb 3e ad 1e 05 be
       -0.032360997 0.19040775 0.3974607 -0.12999983
000010 4f fe 4a 3e f5 43 38 be 59 39 1d be 2c e7 7d be
       0.19823574 -0.17994674 -0.15353908 -0.24795216
000020 92 c8 1c be 65 af 91 3e 40 06 0d 3e 72 2b 7d 3e
       -0.15310887 0.28454128 0.13771915 0.24723604
000030 0d 93 be bb 12 21 0c bd 49 2b c6 3e 40 9b 34 be
       -0.0058158697 -0.034211226 0.387049 -0.17637348
000040 74 d7 8d 3e 8d 2f 9a be e1 2e 68 be c8 94 a3 bd
       0.2770344 -0.30114403 -0.22674133 -0.07987362

hidden_cell f4 [1, 1, 20]
000000 a1 15 3a bd e8 c4 d9 3d 91 cf 75 3d 44 b0 d6 3d
       -0.045430783 0.1063326 0.060012404 0.10482839
000010 fc 38 71 bc 2a 9d b5 bd 0e 25 e8 bb a9 97 d4 bd
       -0.014723059 -0.08867867 -0.0070844954 -0.103804894
000020 a5 56 35 be 10 77 13 3e 42 47 90 ba b9 90 8c be
       -0.17708834 0.14400887 -0.0011007565 -0.27454165
000030 a8 ba c8 bc 63 dd a3 bc a3 13 11 bc 48 33 de bd
       -0.024503067 -0.020003026 -0.008854779 -0.10849625
000040 c7 7c 23 3d 64 ee 19 3d eb 1c 78 3e 4d ff 25 3c
       0.03991392 0.037580863 0.24229781 0.010131669

hidden_cell f4 [1, 1, 20]
000000 a5 89 d4 bd de af 44 3e be 9c aa 3d d4 53 5a 3e
       -0.10377816 0.19207713 0.083306774 0.2132104
000010 8b 89 d8 bc 63 62 46 be 99 97 39 bc 22 91 30 be
       -0.026432773 -0.19373469 -0.011327648 -0.17242864
000020 56 e2 ad be b4 8b 80 3e 6c 91 11 bb 1b a9 d0 be
       -0.33961743 0.25106585 -0.0022211922 -0.40754017
000030 a6 3d 82 bd 84 39 2c bd 7e d8 51 bc 7e f9 44 be
       -0.06359415 -0.04204704 -0.012807963 -0.19235799
000040 ce 3b 94 3d 34 f8 62 3d 26 3b c2 3e e4 60 ca 3c
       0.07237969 0.055412486 0.37935752 0.024704404
