mlruns/0/4b5b7cf82daf44efba7d73cec249e032/artifacts/model/data/model.pth (torch, 14120 bytes, 7 tensors)

weight_ih_l0 f4 [80, 1]
0	0x3d2c2b79	0.042033646
1	0xbcaf89d2	-0.021428023
2	0xbda11102	-0.07864572
3	0xbd4916ef	-0.049094137
4	0xbdd3b8c0	-0.10337973
5	0x3e293f97	0.16528164
6	0x3e53fb64	0.20701367
7	0xbe218a80	-0.1577549
8	0x3d1f74ba	0.03892968
9	0xbcd65584	-0.026163824
10	0xbdadfc64	-0.08495405
11	0xbdbddd5a	-0.09270735
12	0xbd8f1e87	-0.069882445
13	0x3e81a178	0.25318503
14	0xbe8362ae	-0.25661224
15	0xbddd8399	-0.10816116
16	0x3d5dfa3a	0.054193713
17	0x3eeaec38	0.45883346
18	0x3cf34dde	0.029700216
19	0xbe6e0a8f	-0.23246215
20	0xbdd7e52e	-0.105417594
21	0x3c09dc37	0.00841432
22	0x3bcca1d2	0.0062448764
23	0xbddeda69	-0.10881502
24	0xbd49ac58	-0.049236625
25	0x3b2c07bb	0.0026249725
26	0xbb25107e	-0.0025186832
27	0xbd444cfd	-0.047924984
28	0x3d3bf0d2	0.04588396
29	0xbbd16f0a	-0.0063914107
30	0xbe2bee59	-0.16790141
31	0x3e3ae1ac	0.1825015
32	0x3d75be8c	0.059996173
33	0x3e7ac41f	0.24488877
34	0xbe47a511	-0.19496562
35	0xbe1f2fa4	-0.15545517
36	0x3e3752f1	0.17902733
37	0x3e0ac313	0.13550977
38	0x3e18d75b	0.14925902
39	0xbe5171d1	-0.20453574
40	0x3e559b89	0.20860113
41	0x3dd7cb4c	0.10536823
42	0xbdc547d3	-0.0963284
43	0xbe3632e1	-0.17792846
44	0x3e458782	0.19289973
45	0xbe6f8695	-0.23391183
46	0x3dd36976	0.103228495
47	0xbcbd3a0b	-0.023098966
48	0xbd433e2e	-0.04766672
49	0x3e010646	0.1260005
50	0x3c8785f3	0.016543364
51	0x3e96b99a	0.29438478
52	0xbe11aa46	-0.1422511
53	0x3df29a14	0.11845794
54	0xbe16ed3c	-0.14738935
55	0x3e0b4224	0.1359945
56	0xbe187c41	-0.14891149
57	0x3ee5a7bc	0.44854534
58	0xbdcfd737	-0.10148471
59	0x3e0f378b	0.13986032
60	0x3e1caa91	0.15299441
61	0x3e2029f6	0.15641007
62	0x3ea67262	0.32509142
63	0x3c04924b	0.00809152
64	0x3b77b0e7	0.003779465
65	0x3e07bd95	0.13255914
66	0x3eb7b861	0.35882857
67	0x3e698fe9	0.22808804
68	0x3e8cbebc	0.2748927
69	0xbe7780c3	-0.24170212
70	0x3e45ac20	0.19303942
71	0x3e4f57ef	0.20248388
72	0x3e7e5bb2	0.24839666
73	0xbbd649f1	-0.006539576
74	0x3d78a4e6	0.060704134
75	0x3e97ed8d	0.29673424
76	0x3e5829ab	0.21109645
77	0x3ede7bc2	0.43453795
78	0xbdc07686	-0.093976066
79	0xbe3fa994	-0.18717033

weight_hh_l0 f4 [80, 20]
0	0x3c909c7f	0.017652748
1	0xbdd5286a	-0.10408099
2	0xbcd5d16f	-0.026100842
3	0x3d8523b6	0.06500952
4	0xbe32151f	-0.1739087
5	0xbe0a966f	-0.13533948
6	0x3db5bc9f	0.08873867
7	0x3de62893	0.11238208
8	0xbe5fbdf0	-0.21849799
9	0x3cda9624	0.02668292
10	0xbe276763	-0.16348033
11	0x3e2cd8d7	0.16879593
12	0xbe37bbc8	-0.17942727
13	0x3ddedc5f	0.10881876
14	0x3de504ad	0.111825325
15	0x3d28b4db	0.041188102
16	0xbe0a5b70	-0.13511443
17	0xbe26bf38	-0.16283882
18	0x3e4276e4	0.18990666
19	0x3e05f729	0.13082565
20	0x3e167e68	0.14696658
21	0x3e01bb82	0.12669185
22	0x3e2203b0	0.15821719
23	0x3db9fe0a	0.09081657
24	0xbe69e1a0	-0.22839975
25	0x3d615180	0.055009365
26	0xbe4b70c0	-0.1986723
27	0x3e2b5943	0.1673327
28	0xbd9e9742	-0.07743694
29	0x3d4ea42d	0.05044954
30	0x3e0e0224	0.13868004
31	0x3e0fa2e2	0.14026979
32	0xbc3e0cfd	-0.011599776
33	0x3db2456e	0.08704649
34	0x3e2ff115	0.17181809
35	0x3e4d31c4	0.20038515
36	0x3e13b56a	0.14424673
37	0xbe286f7c	-0.16448778
38	0x3dd9d01a	0.10635395
39	0xbe335d71	-0.17516114
40	0xba43322f	-0.00074461376
41	0x3c7fb743	0.015607658
42	0x3c299856	0.010351261
43	0xbcd0714c	-0.02544465
44	0x3ddf5df4	0.10906592
45	0xbe33430a	-0.17506042
46	0x3e29015d	0.16504426
47	0x3e02b953	0.12766008
48	0xbc2b2219	-0.010445141
49	0xbe3367b6	-0.17520031
50	0xbe48d50e	-0.19612524
51	0xbde27e2a	-0.1105922
52	0x3d9a2b91	0.07527841
53	0x3e6f7fb2	0.23388556
54	0xbe8c7dbb	-0.27439675
55	0x3dc6b43f	0.09702348
56	0xbe3f3a14	-0.18674499
57	0xbe737c7a	-0.23777953
58	0xbe1a5310	-0.15070748
59	0xbd84a452	-0.06476654
60	0x3e2ad65f	0.16683339
61	0xbe13e47f	-0.14442633
62	0x3e616a4e	0.22013208
63	0x3d37184c	0.044700906
64	0x3e1fb63a	0.15596858
65	0x3e364643	0.1780024
66	0xbe58274c	-0.2110874
67	0xbe4ab15a	-0.19794217
68	0x3e04dda2	0.12975171
69	0x3cef1df3	0.029189086
70	0xbe4b0056	-0.19824347
71	0x3e5b2441	0.21400549
72	0xbdc2143c	-0.09476516
73	0xbe000e2f	-0.1250541
74	0x3da01755	0.0781695
75	0xbd6644af	-0.056217846
76	0x3e19388d	0.14962979
77	0xbe0bde43	-0.13659005
78	0xbddc9f50	-0.10772574
79	0x3e048b21	0.12943698
80	0x3de5151d	0.11185668
81	0xbd689fa4	-0.05679287
82	0x3dcf8a97	0.10133856
83	0x3e0bc58e	0.1364958
84	0x3e2c5eb8	0.16833007
85	0xbdc248ac	-0.09486517
86	0x3c8d2d54	0.017233528
87	0x3d2fa1fe	0.042879097
88	0x3db47ccd	0.08812866
89	0x3e568a7e	0.20951268
90	0xbea06163	-0.313243
91	0x3e36bd34	0.17845613
92	0xbe32b506	-0.17451867
93	0xbe4691f6	-0.19391617
94	0x3d5b7e4c	0.053587243
95	0xbda4c8ff	-0.080461495
96	0x3d88c24d	0.06677685
97	0xbe001d68	-0.12511218
98	0x3e039298	0.1284889
99	0x3deaed78	0.11471075
100	0xbdee57af	-0.11637818
101	0x3df0d513	0.11759391
102	0xbe1f6bd2	-0.15568474
103	0x3cec3f22	0.028838698
104	0xbe711d21	-0.23546268
105	0x3e1cff2f	0.1533172
106	0xbdeac882	-0.11464025
107	0xbe3fb76a	-0.1872231
108	0xbdeb7208	-0.11496359
109	0xbe0fb40e	-0.14033529
110	0xbbd579ef	-0.0065147798
111	0x3e0f5ac8	0.13999474
112	0xbd0f8ea0	-0.035048127
113	0xbe5907df	-0.21194409
114	0xbe60b751	-0.2194493
115	0x3e091fe9	0.13391079
116	0xbe0b0023	-0.13574271
117	0xbe0a93f3	-0.13533
118	0xbe0e646c	-0.13905495
119	0xbe008c75	-0.1255358
120	0x3e63638c	0.22205943
121	0xbb907e80	-0.004409611
122	0x3d7ac2a6	0.061220787
123	0xbdc889fb	-0.09791943
124	0x3cb5173e	0.02210581
125	0xbdf4f725	-0.119612016
126	0x3e207591	0.15669848
127	0x3e22fe88	0.15917408
128	0xbe373233	-0.17890243
129	0xbe0ecce3	-0.13945346
130	0xbe15f1cd	-0.14643021
131	0xbe11ffa3	-0.14257674
132	0xbd7446e6	-0.059637927
133	0x3e3601e4	0.17774159
134	0xbd013a4c	-0.031549737
135	0xbe1b6032	-0.15173414
136	0x3d354f3e	0.044265024
137	0xbe3b3f4c	-0.18285865
138	0x3d16d190	0.036820948
139	0x3d85e31d	0.06537459
140	0x3e193a5c	0.14963669
141	0xbd8c35b8	-0.068461835
142	0xbe222ac1	-0.15836622
143	0xbe1217d4	-0.14266902
144	0xbd98a10a	-0.07452591
145	0xbc1230dc	-0.008922782
146	0xbcff73d1	-0.031183155
147	0x3e0e1bdd	0.13877816
148	0x3de04612	0.10950865
149	0x3e939c7f	0.28830335
150	0xbda83584	-0.08213332
151	0x3d703c2b	0.05865113
152	0x3e14d823	0.14535575
153	0xbd6e57b2	-0.0581891
154	0xbe7b712c	-0.2455489
155	0xbddbc012	-0.10729994
156	0x3e19f5ab	0.15035121
157	0x3b5629d1	0.0032678733
158	0x3da5a4db	0.08088084
159	0xbd5d3923	-0.054009568
160	0x3e0556a3	0.1302133
161	0xbe014ef1	-0.1262777
162	0xbe13fbbd	-0.144515
163	0x3dcbaeb8	0.09945434
164	0x3e4fd0cc	0.20294493
165	0x3c9a2364	0.018815704
166	0xbe3dd8e0	-0.18539762
167	0x3ddc00f2	0.10742368
168	0xbdcdf371	-0.100561984
169	0x3da65ab8	0.08122772
170	0xbe936335	-0.28786626
171	0xbe2f9496	-0.17146525
172	0xbe14b4f5	-0.14522155
173	0x3de3b53a	0.111185506
174	0xbe8e9dd2	-0.27854782
175	0x3e1488b5	0.14505275
176	0xbe47eefd	-0.1952476
177	0xbcfaf91d	-0.030636365
178	0xbe329425	-0.17439325
179	0xbd8ed376	-0.06973927
180	0xbe3edbbc	-0.1863851
181	0xbe4699f8	-0.19394672
182	0xbe95c4c0	-0.2925167
183	0x3e8a1826	0.2697155
184	0x3d1686ab	0.036749523
185	0xbd8ca5ca	-0.06867559
186	0x3b5b5831	0.0033469314
187	0xbe342364	-0.17591625
188	0x3d9d0f3b	0.076689206
189	0x3deaf5a8	0.114726365
190	0x3d08872f	0.033332046
191	0xbe7a5610	-0.24446893
192	0x3d2272ea	0.03966037
193	0xbe89eb62	-0.26937395
194	0xbb84bee3	-0.004051076
195	0x3df62518	0.12018794
196	0x3e31b110	0.173527
197	0xbdbb4930	-0.09144819
198	0x3e8ee3e9	0.27908257
199	0xbe7bed3d	-0.24602218
200	0xbd600221	-0.05468953
201	0xbe206e03	-0.15666966
202	0xbe8636e7	-0.26213762
203	0xbd822903	-0.063554786
204	0x3d586848	0.052833825
205	0x3cbbddf1	0.022932978
206	0xbd69f85f	-0.05712163
207	0xbe6df298	-0.23237073
208	0x3dcd9424	0.10038021
209	0xbbe7402b	-0.00705721
210	0x3e68677d	0.22695728
211	0x3c95a2f4	0.018266179
212	0xbd71c39d	-0.059024442
213	0x3e00a1c0	0.12561703
214	0x3e1ab331	0.15107419
215	0x3de49823	0.1116183
216	0xbd892285	-0.06696037
217	0xbe1e4022	-0.15454152
218	0x3e376b51	0.17912032
219	0xbe5fb3a8	-0.21845877
220	0x3df23a00	0.11827469
221	0x3e2cf86c	0.1689164
222	0xbd04f359	-0.032458637
223	0x3d141d13	0.03616054
224	0x3e34091e	0.17581603
225	0xbd3de53e	-0.0463612
226	0x3d75ca0c	0.06000714
227	0x3e5cf857	0.21579109
228	0x3df14d9d	0.11782382
229	0x3d14c0e6	0.036316775
230	0xbe927c2e	-0.28610367
231	0x3e4221f0	0.18958259
232	0x3c31e6c6	0.010858243
233	0x3e50b37f	0.20380972
234	0xbdf80cc0	-0.12111807
235	0x3e18c5c5	0.14919193
236	0xbdf90c8e	-0.12160598
237	0xbdb26924	-0.0871146
238	0xbe05582c	-0.13021916
239	0x3dcdfaba	0.10057588
240	0x3c8da009	0.017288225
241	0x3d780c29	0.06055847
242	0x3d39d56d	0.045369554
243	0x3e075032	0.13214186
244	0xbdff2db1	-0.12459887
245	0xbd1d6215	-0.038423616
246	0x3d1c5b89	0.038173232
247	0x3e7c4940	0.24637318
248	0xbda94eb8	-0.082669675
249	0x3d3869a3	0.045022618
250	0xbd350ee3	-0.04420365
251	0xbe0c7384	-0.1371594
252	0xbe4dac88	-0.20085347
253	0xbdc96f08	-0.09835631
254	0x3d0c894e	0.03431063
255	0x3dd36da5	0.103236474

bias_ih_l0 f4 [80]
0	0xbdf0ac62	-0.117516294
1	0x3e366daa	0.17815271
2	0xbe2294f2	-0.1587713
3	0x3c95830c	0.018250965
4	0xbe1acb9d	-0.15116735
5	0xbe699e1a	-0.22814217
6	0xbd9b11e3	-0.07571771
7	0xbdbdd7c5	-0.092696704
8	0x3e878ac4	0.26473057
9	0xbe765f39	-0.24059762
10	0x3df435ec	0.11924347
11	0xbe090de7	-0.1338421
12	0xbdeb283f	-0.11482286
13	0x3c6f6e98	0.01461377
14	0xbdf2f82b	-0.118637405
15	0x3d4d11c8	0.050065786
16	0x3e8d0199	0.2754028
17	0x3e844324	0.25832474
18	0x3e32ee45	0.17473705
19	0xbdd2a146	-0.10284667
20	0x3e437e08	0.19091046
21	0x3b97336c	0.0046142843
22	0x3d13ace3	0.03605355
23	0x3e80da18	0.25166392
24	0xbdb05f2b	-0.08611902
25	0xbe2f1e10	-0.17101312
26	0x3cfb2d28	0.03066118
27	0xbdda3338	-0.106543005
28	0xbd475601	-0.048666004
29	0xbe398d1e	-0.18120238
30	0x3e30ae1f	0.17253922
31	0x3d350b7e	0.044200413
32	0x3e0e4b3b	0.13895886
33	0xbd5a54ad	-0.05330341
34	0xbe106b9d	-0.14103551
35	0x3e4d6907	0.20059596
36	0xbe186f5d	-0.14886232
37	0x3dae63a8	0.08515102
38	0x3dd77e28	0.10522109
39	0xbe4491ca	-0.19196239
40	0x3d8a7f15	0.0676252
41	0x3e3ae670	0.18251967
42	0x3e92b68b	0.28654894
43	0x3d29218a	0.04129175
44	0xbd0555ce	-0.032552533
45	0xbd814499	-0.06311912
46	0x3e68b0c5	0.22723682
47	0x3e653ec5	0.22387226
48	0xba5ea6be	-0.00084934745
49	0xbe6f2401	-0.23353578
50	0xbdcd730e	-0.100317106
51	0xbd78e05e	-0.06076085
52	0xbe8d1d4e	-0.2756142
53	0x3e65f11c	0.22455257
54	0xbcd73f0e	-0.026275184
55	0xbe5d8cfb	-0.21635811
56	0xbe16abe1	-0.14714004
57	0xbe4f1903	-0.20224385
58	0xbdfdffa5	-0.12402276
59	0x3e041226	0.12897548
60	0x3e161001	0.14654543
61	0x3c3c0cdf	0.011477678
62	0xbdc2e1fe	-0.09515761
63	0x3e1dc206	0.15406045
64	0xbd368fa5	-0.044570584
65	0xbe32e614	-0.1747058
66	0x3da7e8d1	0.08198703
67	0xbe529198	-0.20563352
68	0xbd9a2978	-0.07527441
69	0xbe29e2cf	-0.16590427
70	0xbe78ed7d	-0.24309345
71	0xbc92e496	-0.017931264
72	0xbd0602ef	-0.03271764
73	0x3e40446d	0.18776102
74	0xbd6d0bf9	-0.057872746
75	0x3aa52a04	0.0012601023
76	0x3e1b6388	0.15174687
77	0x3d440e14	0.04786499
78	0xbe5672cc	-0.20942229
79	0xbd7eec8c	-0.062237307

bias_hh_l0 f4 [80]
0	0x3e37b5f0	0.17940497
1	0x3d787d11	0.060666148
2	0xbe136dee	-0.14397404
3	0x3e199384	0.14997679
4	0xbe07b1c1	-0.13251401
5	0x3e30b54c	0.1725666
6	0xbd307052	-0.043075867
7	0x3d8601cd	0.06543312
8	0x3cb997bd	0.022655362
9	0x3dade0ac	0.084901184
10	0x3d4a35d1	0.04936773
11	0xbc900d83	-0.017584568
12	0xbd09e7d9	-0.033668373
13	0x3e4fe62c	0.20302647
14	0xbe66d83d	-0.22543426
15	0x3d54f5ef	0.051992353
16	0x3e512909	0.2042581
17	0x3e87940a	0.26480132
18	0x3d992daf	0.074794166
19	0xbe7c4fa5	-0.24639757
20	0x3da3a6a5	0.07990769
21	0x3e0c4472	0.13697985
22	0x3ce12dc8	0.02748765
23	0x3e7d9b91	0.24766375
24	0x3e5d3041	0.21600439
25	0xbe2efa24	-0.17087609
26	0x3d9a750a	0.07541855
27	0xbe1a1265	-0.1504608
28	0x3e812095	0.2522017
29	0xbd68e2ba	-0.05685685
30	0x3de5f7be	0.11228894
31	0xbdd62ce0	-0.10457778
32	0xbdc4b3b4	-0.09604588
33	0xbe06cb12	-0.13163403
34	0xbe5c837f	-0.21534537
35	0x3d291d91	0.041287962
36	0xbdf3cf5b	-0.11904784
37	0x3b97a281	0.0046275263
38	0xbd9174c5	-0.0710235
39	0xbe20cbbc	-0.15702718
40	0x3e1728a0	0.14761591
41	0x3e329394	0.17439109
42	0x3e56d070	0.2097795
43	0xbe4debb7	-0.2010945
44	0x3e00a6d3	0.12563638
45	0x3de6ae85	0.11263756
46	0xbc413396	-0.011792084
47	0xbbd242da	-0.0064166607
48	0xbe7907dd	-0.24319406
49	0x3e1f0420	0.15528917
50	0x3d0cd965	0.03438701
51	0x3da152e9	0.07877142
52	0xbe90bb24	-0.28267777
53	0x3dc49249	0.09598214
54	0xbd54b0d8	-0.051926464
55	0xbe4fff27	-0.20312177
56	0x3d985f9f	0.07440113
57	0x3d8d8c71	0.06911553
58	0xbd87a171	-0.066225894
59	0xbe4946ad	-0.19655867
60	0x3e3de1a2	0.18543103
61	0x3db36aa6	0.08760576
62	0x3d04fac8	0.032465726
63	0x3e726074	0.23669606
64	0x3e1135ae	0.14180633
65	0x3e25975e	0.16171023
66	0xbd6f4967	-0.05841961
67	0x3df13c1c	0.11779043
68	0xbdc653bb	-0.09683939
69	0xbd39ff0b	-0.045409244
70	0x3dbec7d9	0.09315462
71	0x3d3d7d91	0.046262328
72	0x3c615cd6	0.013755044
73	0x3e819b67	0.25313875
74	0xbd7b80e4	-0.061402217
75	0xbe37cca6	-0.17949161
76	0x3dc227e8	0.09480268
77	0x3ee1c8a1	0.4409838
78	0x3e3b3ae4	0.18284184
79	0x3cb7fc11	0.022459062

weight f4 [1, 20]
0	0x3e18cd7b	0.14922135
1	0xbbe2f03d	-0.0069256113
2	0x3e807908	0.2509234
3	0xbe3c0774	-0.18362218
4	0x3de7411b	0.11291715
5	0xbd9f8bc0	-0.07790327
6	0x3e6f29db	0.2335581
7	0x3dd674f1	0.104715236
8	0xbe64632b	-0.22303455
9	0xbc6a12b9	-0.01428669
10	0x3de88781	0.1135397
11	0x3e50a8bd	0.20376869
12	0xbe3c878a	-0.18411079
13	0x3de5a0bd	0.11212299
14	0x3d12a9f8	0.035806626
15	0xbd35621e	-0.044283025
16	0xbe4068e6	-0.18790016
17	0x3e148984	0.14505583
18	0xbbd4fb5c	-0.006499691
19	0xba5138bd	-0.0007981172

hidden_cell f4 [1, 1, 20]
0	0x3e5ce75c	0.21572632
1	0x3d3df3ff	0.04637527
2	0x3e90bbdf	0.28268334
3	0xbe875a28	-0.2643597
4	0x3df399fe	0.11894606
5	0xbdc42c58	-0.095787704
6	0x3e51020b	0.20410936
7	0x3dab0f63	0.08352544
8	0xbe6a7c0f	-0.22898887
9	0xbc077e01	-0.008269788
10	0x3d39d4ec	0.045369074
11	0x3dfd185f	0.12358164
12	0xbea266d9	-0.31719092
13	0x3e83fb1a	0.25777513
14	0x3c3e6db2	0.011622833
15	0xbe44c500	-0.19215775
16	0xbea18897	-0.31549522
17	0x3e423530	0.18965602
18	0xbe0288ac	-0.12747449
19	0x3b4d874e	0.0031361165

hidden_cell f4 [1, 1, 20]
0	0x3ec7aff0	0.39001417
1	0x3db9ba81	0.09068776
2	0x3f0c84e3	0.5489027
3	0xbee95e74	-0.45579875
4	0x3e69a164	0.22815472
5	0xbe5e02ac	-0.21680707
6	0x3ece66db	0.40312847
7	0x3e2c0c94	0.16801673
8	0xbee86a49	-0.4539359
9	0xbcbb3e05	-0.022856722
10	0x3dd44ff3	0.103668116
11	0x3e6379b7	0.222144
12	0xbf2b361e	-0.6687945
13	0x3eda7921	0.4267054
14	0x3cd75c0d	0.02628901
15	0xbee59d8a	-0.44846755
16	0xbf1c4394	-0.61040616
17	0x3e7d733a	0.24750987
18	0xbea2165a	-0.31657678
19	0x3bff692d	0.0077945204
