mlruns/0/7dcf7c9328f248439f0f956ee76029d6/artifacts/model/data/model.pth (torch, 14120 bytes, 7 tensors)

weight_ih_l0 f4 [80, 1]
000000 7e 56 1b 3e b0 26 c2 3d 10 94 1b 3e 2e d3 2b 3e
       0.15169713 0.09480035 0.151932 0.16779777
000010 38 49 63 3e ac d2 57 bd 39 21 f2 3d 28 ad 2d be
       0.221959 -0.052691147 0.11822743 -0.16960585
000020 d9 5f 6b bc e8 a9 cc 3d 66 02 b7 bc 37 ec 4d 3e
       -0.014366114 0.099933445 -0.02234001 0.2010964
000030 52 05 8b 3e c3 37 fd 3d 71 7e 7e be 0e 1f f6 3d
       0.27152497 0.12364151 -0.24852921 0.12017642
000040 bf e9 19 3e 4b 90 22 3e 17 d3 d8 bd e9 fc 65 3e
       0.15030573 0.15875356 -0.10587137 0.22459759
000050 5d d4 3c bd ad f6 cb 3d 6a 35 77 3e 3e fc 8e 3b
       -0.046100963 0.09959159 0.2414147 0.0043635657
000060 e6 90 87 3d 9c 8c bf bd 8a c0 04 3e 67 cb 84 bd
       0.06619434 -0.09352991 0.12964073 -0.064841084
000070 85 c3 a5 3d e6 57 20 3e c0 ea 23 3e a2 f1 1a be
       0.08093933 0.1565853 0.16007519 -0.15131238
000080 b6 ef b0 3d 38 b9 b2 3d be 90 2b 3e 96 23 9e bd
       0.08639471 0.08726734 0.16754434 -0.07721631
000090 ae 1a c4 3d 1d 6e 29 3e d1 f7 b2 bd 03 d3 57 3e
       0.09575401 0.16545911 -0.087386735 0.21076588
0000a0 58 2f 6d bd 60 5e 23 bd b6 16 56 3e 63 0a f9 3c
       -0.05790648 -0.039884925 0.20907101 0.03040046
0000b0 9f 8b 49 3e 2c c0 9e 3e d2 d9 82 be 47 b9 e7 3d
       0.19682167 0.3100599 -0.2555681 0.11314636
0000c0 83 17 a5 be d1 54 b7 bd df 05 77 be e4 7e 1e 3e
       -0.322445 -0.08951724 -0.24123333 0.15478092
0000d0 ee cd 02 3e 51 e6 2e be 71 05 13 3e a9 51 0b be
       0.12773868 -0.17080046 0.14357544 -0.1360537
0000e0 6b 2c c0 3e 99 0a 8f be e5 f1 2f be ee 8f 64 be
       0.37533888 -0.27937773 -0.17182119 -0.2232053
0000f0 a6 fa 0f 3b 77 0c 61 3e 8d 3d 38 3e 88 55 14 3e
       0.0021969466 0.21977411 0.1799223 0.14485753
000100 a5 29 5a 3e fd 86 a0 3e 9b 8d bb 3d 3e ac d3 3d
       0.21304949 0.31352988 0.091578685 0.10335587
000110 2d 34 eb 3d 6d ef 76 bc dc ae 07 bc 1e d5 61 be
       0.11484561 -0.015071732 -0.008281436 -0.22053954
000120 2d 93 a3 bc 01 b5 54 bc 04 98 2b 3e 6b 24 61 be
       -0.01996764 -0.012982608 0.16757208 -0.21986549
000130 91 82 82 3e 7d 5f 66 3e e1 98 c6 3c c1 13 46 3e
       0.2549024 0.22497363 0.02424282 0.19343473

weight_hh_l0 f4 [80, 20]
000000 e6 50 1f 3e ce e7 e6 3c 73 2e c3 3d 36 26 0c be
       0.15558204 0.028186705 0.09530344 -0.13686451
000010 02 4a 4a bd 5f c2 23 be ea fb a9 3d f6 a2 f8 3b
       -0.049386986 -0.15992115 0.08300002 0.007587786
000020 95 6a 3a 3e c1 74 86 bd 6d 3d 45 3e 96 77 4e 3d
       0.1820472 -0.06565238 0.19261713 0.050407015
000030 ff b8 25 bc 9c 5d 5d bc 13 d9 1d bd dd 0e a6 bd
       -0.010114907 -0.013511088 -0.038537096 -0.08108304
000040 04 70 37 3e 58 11 36 bc 55 6a b6 bd 87 61 3d 3e
       0.17913824 -0.0111125335 -0.08907 0.18494235
000050 21 ef 04 be 89 7f 7e 3c bd bd 21 3b d1 a1 85 3d
       -0.12981845 0.015533336 0.0024679743 0.06525005
000060 21 31 ab bd 79 24 1c 3d ad d3 fb bd ae de d6 3d
       -0.0835898 0.03812072 -0.12296233 0.104916915
000070 0e f5 4b 3d 19 26 38 3e 8e 90 74 be 99 23 41 3e
       0.04979425 0.17983283 -0.23883268 0.18861236
000080 bb 22 11 bd b2 64 28 3e 60 62 19 3c 3e 24 2e be
       -0.035433512 0.16444662 0.009361833 -0.17006013
000090 ce 4d 82 bd ab f6 bb 3d bd f7 88 3c 61 5d 62 3d
       -0.06362496 0.091779076 0.016719693 0.055264834
0000a0 f6 a7 f8 bc 9b 12 9e 3c 29 9c 11 3e 7d b2 59 be
       -0.030353528 0.019295981 0.14219727 -0.21259494
0000b0 d9 26 02 be 02 fb c4 3a b8 e2 ee 3c 84 40 f9 bd
       -0.12710132 0.001502842 0.029160842 -0.121705085
0000c0 96 62 06 3d c5 4a e6 bd 23 7c 27 be ce 9a 39 be
       0.032808863 -0.1124473 -0.16355948 -0.1812546
0000d0 b7 e6 24 be 62 1c 64 3e e2 8e 0b 3d 10 84 bc bd
       -0.16103636 0.22276452 0.03407181 -0.092048764
0000e0 a9 d5 a8 bc e1 96 59 bd 81 a4 ba bd bc d5 6e bd
       -0.020609694 -0.053122405 -0.09113408 -0.0583093
0000f0 24 f6 c9 3d 06 c4 80 bd 71 2c 32 be 6b f0 25 bc
       0.09861401 -0.062873885 -0.17399766 -0.010128121
000100 23 97 4b 3e 23 e2 07 be c5 8e fc 3c 1b e6 3f 3e
       0.19881873 -0.13269858 0.030829797 0.18740122
000110 27 a8 fc 3c 0c ad 37 3e 17 8e da bd 81 dc 49 be
       0.0308419 0.17937106 -0.10671633 -0.19713022
000120 c5 51 5e bd 8f 43 2e be 05 b8 27 3e b0 5b 4e 3e
       -0.0542772 -0.17017959 0.16378792 0.20152164
000130 0c 01 fe 3c 98 2a 14 38 50 93 cd bd 07 2d 20 3e
       0.031006359 3.532562e-05 -0.10037863 0.15642177
000140 8e 15 bc bd a3 2e d8 bd dd 60 11 be 2c 3d fc bd
       -0.09183799 -0.1055577 -0.14197107 -0.12316355
000150 22 10 e9 bd ba 31 d5 bd 37 54 ca 3d 41 d7 35 3e
       -0.1138003 -0.10409875 0.09879344 0.17757894
000160 39 44 41 bd ea 1c 31 be 88 50 48 3e f6 49 8b 3d
       -0.047184203 -0.17296186 0.1956197 0.06801216
000170 fd d7 b4 bd ca 2c 1a 3d 7d bd 3c be d9 fd 74 be
       -0.08830259 0.03764037 -0.18431659 -0.2392496
000180 d7 21 bf 3d 8a e1 40 be 29 6a 8a bd c8 67 0b 3e
       0.09332626 -0.18836036 -0.0675853 0.13613808
000190 fe ac f3 3d 76 c1 04 bd 9a f6 60 3d 14 72 58 be
       0.1189823 -0.03241106 0.054922678 -0.21137267
0001a0 fc d3 5a 3d 9e 8a 04 3d 13 08 08 be db 37 be bd
       0.05342482 0.03235876 -0.1328433 -0.09287997
0001b0 4a 11 05 ba da 82 c8 bd dd ba d7 bd 9d ee 12 3e
       -0.00050761236 -0.09790583 -0.10533688 0.14348836
0001c0 30 24 6d ba f9 71 00 3b 02 f8 38 be 65 99 09 bc
       -0.0009046225 0.0019599183 -0.18063357 -0.0083983885
0001d0 0b 3b aa bc fe 79 68 be f6 67 4d 3e 93 81 fc bd
       -0.020780107 -0.22702786 0.20059189 -0.12329402
0001e0 93 0a ae bd a6 bd 22 3d a8 8d 1b be 23 07 38 3e
       -0.084981106 0.039731644 -0.15190756 0.17971472
0001f0 ee a7 36 bd 13 a0 41 be 96 fe c1 bd e2 86 87 3e
       -0.044593744 -0.1890872 -0.094723865 0.26470095
000200 c9 50 d3 3d 8e ab 2f 3e d9 71 41 bd c4 4d 0a 3e
       0.10318143 0.17155287 -0.047227714 0.13506228
000210 c0 a2 32 bc b9 db 08 3d 43 3f 95 3d 86 72 9c 3d
       -0.01090306 0.03341267 0.07287457 0.07639031
000220 a6 fe 5a 3e 42 d1 63 be 3a b0 44 be 59 18 1b be
       0.21386203 -0.22247794 -0.1920785 -0.15146007
000230 1c 1a d2 3c a6 78 45 3d 04 4c 67 bd 84 a4 4c bd
       0.025647216 0.048210762 -0.05646898 -0.04996158
000240 23 96 c2 bd 0f bd a5 3d 4d e7 a5 3d 16 56 f3 3c
       -0.095012926 0.08092701 0.08100758 0.029704135
000250 57 ed c5 bd e9 e1 28 3c 41 f6 43 3e 43 c0 24 be
       -0.096644096 0.010307767 0.19136907 -0.16088967
000260 ad e7 8d be 4c 4e e1 3d 05 be 00 be 08 d3 fb bd
       -0.27715817 0.11001262 -0.12572487 -0.122961104
000270 2a f1 b0 3d 18 a0 2a 3e 79 09 46 3d ea 5f 6f bc
       0.086397484 0.16662633 0.048348878 -0.01461027
000280 a1 2c b4 bc 50 e9 38 3e 74 d4 e8 bd 55 54 fd 3d
       -0.021993937 0.18057752 -0.11368647 0.12369601
000290 84 0b 2b bd 03 f3 bd bd 3e 86 2b be 54 bf 5b bd
       -0.04175903 -0.092748664 -0.16750428 -0.05364926
0002a0 c4 ed d7 3d d1 74 26 3d 09 f6 b8 bd 77 2a da bd
       0.10543397 0.04063875 -0.090313025 -0.10652631
0002b0 9f 9b 31 bd 66 d8 5d 3e 24 3b 5f 3c 36 17 1a 3d
       -0.043361302 0.2166458 0.01362494 0.037619792
0002c0 d0 86 ec bc 15 63 59 be 2c 4e 27 be 98 5d 43 bd
       -0.028872877 -0.21229203 -0.16338414 -0.04769668
0002d0 76 d8 d0 bd cd d0 6d 3e da d8 30 be 62 86 01 be
       -0.10197537 0.23224182 -0.17270222 -0.12648919
0002e0 05 13 82 3c 82 d5 5a bd 6c b8 59 3e 74 0f a4 3e
       0.01587821 -0.053426273 0.21261758 0.3204304
0002f0 ff e3 c9 3d dd 1c ec 3d 49 4b 78 bd ff 92 56 3e
       0.0985794 0.11528943 -0.060618673 0.20954512
000300 5a a5 56 3b 15 bc 19 be ca 45 57 3d 4e 09 5c be
       0.0032752366 -0.15013154 0.05255679 -0.21487924
000310 52 87 37 bd 81 46 b9 3d 83 61 3f be 72 94 e9 bd
       -0.044806786 0.09046651 -0.18689542 -0.11405267
000320 a9 f1 82 3d c4 cb 0c bd f5 f0 59 3d 68 d2 8d 3d
       0.06393749 -0.034374014 0.05320831 0.069248974
000330 2f 80 5f be 26 c4 06 3e 8b 93 29 3d 3e 55 73 be
       -0.21826242 0.13160762 0.041400474 -0.23762986
000340 4a a4 ac 3d 01 35 b3 3a ed 14 09 3e 07 8c 92 be
       0.08429773 0.0013672413 0.13386889 -0.28622457
000350 80 f3 30 be 26 6f 86 3e 9a c3 4e be 13 73 81 3e
       -0.17280388 0.26256675 -0.20191804 0.25283107
000360 90 6b 88 be 09 a1 f8 3d bf 69 0e be 9c 7d de 3d
       -0.26644564 0.1214009 -0.13907526 0.10863802
000370 72 ee 8c 3c d0 d6 b6 3d 6d e7 10 3e c7 50 38 be
       0.017203543 0.08927691 0.14150782 -0.17999564
000380 da 43 68 bd 02 4d 3b 3d 57 d0 cb bc 1c 6e ed 3d
       -0.056705333 0.045727737 -0.024879618 0.11593267
000390 d5 19 f1 3d 68 28 e8 3d 98 f9 76 bd df 64 ff 3b
       0.11772505 0.11335832 -0.060296625 0.007794007
0003a0 fd 24 15 be 5f f2 fa 3d 83 9e 95 3d e9 a7 14 be
       -0.14564891 0.1225326 0.07305624 -0.14517178
0003b0 06 07 5d be 0c 64 17 bd c6 a0 80 3e 35 d0 99 bd
       -0.2158471 -0.036960647 0.2512266 -0.075104155
0003c0 1b bf a8 3d 96 15 48 3e 53 ca 1e bc a5 3a 5e be
       0.082395755 0.19539484 -0.009691793 -0.21702059
0003d0 f3 36 b9 bd cb 71 84 be 08 9f 45 be b6 50 95 3d
       -0.09043684 -0.25868067 -0.19298947 0.07290785
0003e0 f0 28 43 be 3c c9 2e 3e 1d fa 26 be f1 ba 1e be
       -0.19058585 0.17068952 -0.16306348 -0.15501
0003f0 82 8d 20 bd 23 00 8c 3d 8f 63 a7 3d 04 e9 5e be
       -0.039197452 0.068359636 0.08173286 -0.21768576

bias_ih_l0 f4 [80]
000000 cb d2 a0 bd e8 8d 1d 3e fc 23 08 3d 63 6e ce 3c
       -0.078527056 0.15386164 0.033237442 0.02519912
000010 bc c5 84 3d 6c 69 5a 3c 24 30 83 3e f3 1f 83 bd
       0.06483027 0.013330799 0.25622666 -0.06402578
000020 1f 92 70 bd f3 10 e4 bd b1 5d 35 3e 34 85 ae bd
       -0.058733102 -0.11136045 0.17711522 -0.085215
000030 1b 0d 95 3c 10 d3 b1 bd 60 fd 2a 3e 6c 5b 3f 3d
       0.018194726 -0.08682835 0.16698217 0.046718046
000040 78 01 95 3d 8d f6 e8 bb 63 28 51 be 84 b5 05 be
       0.07275671 -0.0071094693 -0.20425563 -0.13057524
000050 2c 0a d1 bc fa a4 e1 bd 8c 35 1c 3e ab aa 57 be
       -0.025517546 -0.11017795 0.15254802 -0.21061198
000060 92 a7 28 3e 40 83 52 3e 69 2d 1a be e7 ca 80 bd
       0.16470173 0.2055788 -0.15056385 -0.062887006
000070 8a 14 4a bd a4 a0 32 bd d6 24 be bc 0f c1 19 3d
       -0.049335994 -0.04361023 -0.023210924 0.03753763
000080 92 c5 f9 3d 59 ab df bd ef 1b 83 3d d6 96 15 3d
       0.12195887 -0.10921354 0.06401812 0.0365208
000090 08 51 06 bd e8 b7 40 bd 04 07 f2 3d 90 ac 3f 3e
       -0.03279212 -0.047050387 0.118177444 0.18718171
0000a0 49 07 5b 3e 3d 12 d5 bd 9f 4d e4 bd 82 68 48 bd
       0.21389498 -0.10403869 -0.111476175 -0.04892779
0000b0 3f 9d ab 3d a8 49 2e be 6d 19 26 bd 74 00 01 3c
       0.08379602 -0.17020285 -0.04055159 0.007873643
0000c0 83 a4 09 be e8 bf 8a 3d fc 7b d8 bd e1 a7 92 bd
       -0.13441662 0.067748845 -0.10570523 -0.071609266
0000d0 5e ee b2 3d e8 1a 08 3d e3 9e 07 3e 54 86 47 bd
       0.08736871 0.033228785 0.13244204 -0.04871209
0000e0 4f 9b e6 bd f4 e8 47 be fa 96 4a be d4 25 4c be
       -0.112600915 -0.19522458 -0.19784155 -0.19936305
0000f0 3d b1 85 3d c3 ee 38 bc ba cc 97 3d 3e 4a 9b bd
       0.06527946 -0.011287394 0.07412095 -0.0758252
000100 4c 4d 25 be ad 4a 89 3e 98 04 bf bd ed eb ba 3c
       -0.16142768 0.26814786 -0.09327048 0.022817576
000110 bb 3f 1c be 4e 7a 50 3e ae 0b d3 3d 0c 09 3d 3d
       -0.15258686 0.20359156 0.10304962 0.046151206
000120 24 e7 69 3e 3f ec 52 be 3e 2b 5c be b1 9f b7 bd
       0.2284208 -0.20597933 -0.2150087 -0.089660056
000130 a4 dc 34 3e 2f 98 79 bd 43 3f be 3d 5c eb 6b 3e
       0.17662293 -0.06093615 0.0928941 0.23039001

bias_hh_l0 f4 [80]
000000 9d b9 e8 bd 18 ab 12 3e 19 30 91 bb a9 82 e7 3d
       -0.11363528 0.1432308 -0.0044307825 0.11304218
000010 c3 4c 4a 3e b7 21 b1 3d 09 3e 3f 3e a3 9d 8e be
       0.19755845 0.08649009 0.18676008 -0.27854642
000020 d8 31 ef ba e2 5a 30 3e 91 49 40 be 60 f1 75 be
       -0.0018249108 0.17222169 -0.18778063 -0.24017859
000030 39 5d 09 bc e6 16 0c bc 46 57 79 be e5 9f 2e 3b
       -0.008384042 -0.008550381 -0.24349698 0.0026645598
000040 0e 2a 57 3e 69 8c ae 3d a6 82 41 3e 7d 2a 28 be
       0.21012136 0.08522875 0.18897495 -0.16422458
000050 c7 1b 45 3d 18 10 e8 bd c9 6d 93 3d b3 d5 30 3e
       0.048122194 -0.11331195 0.07198674 0.1726902
000060 8c 61 c3 bd 20 dd 4e be 7f 53 be 3d f3 2a fe bd
       -0.0954009 -0.2020154 0.09293269 -0.12410536
000070 f5 cf 1b bd 0c 42 49 be 1d 41 39 be c0 72 91 bd
       -0.03804012 -0.19654101 -0.18091245 -0.07101965
000080 69 21 c4 3c 49 96 59 be 61 3f 6d 3c e7 df 15 bb
       0.023941712 -0.21248735 0.014480443 -0.0022869052
000090 ab cc e6 bc 20 e8 85 3d 88 e8 0e 3e a7 b9 9f 3d
       -0.028173765 0.06538415 0.13955891 0.07799082
0000a0 87 2a 52 be a3 b2 94 bd a3 90 b8 3d 19 4f 28 be
       -0.20524035 -0.07260635 0.09011962 -0.16436423
0000b0 1f 47 9c ba f2 c1 aa 3c de dc 19 be 3e d2 ba bd
       -0.0011923051 0.020844433 -0.1502566 -0.09122132
0000c0 b5 3c 38 3e 49 09 50 3e 8f 72 30 3e f0 a9 91 3d
       0.17991908 0.20316042 0.172312 0.07112491
0000d0 fb 2c 15 3e d3 6d d7 3c 93 95 41 be 69 49 84 bd
       0.1456794 0.026297485 -0.18904714 -0.064593144
0000e0 c9 82 dd 3d 22 23 4b be 43 64 26 3e 90 0e 4a be
       0.10815961 -0.19837621 0.16249184 -0.19732118
0000f0 2a df 8e bc cd 88 09 3d 2b aa 95 bc bc 67 a8 bd
       -0.017440397 0.03357773 -0.018269619 -0.08222911
000100 5e f7 32 be 9d 3e 0a 3e 6c 66 00 3e f8 12 d8 bb
       -0.17477176 0.13500448 0.12539071 -0.006594058
000110 1d 9e 14 3e ad 17 5b 3d 64 14 49 3e 49 76 8d bd
       0.1451344 0.053489376 0.19636685 -0.06907327
000120 36 75 19 3e a7 b1 f9 bd fa 44 22 be ad 9c ec bd
       0.14986119 -0.121920876 -0.15846625 -0.11553321
000130 e2 25 5e 3e c3 6e 35 bb e9 68 24 be 0c 4b 0e be
       0.21694139 -0.0027684427 -0.16055645 -0.13895816

weight f4 [1, 20]
000000 d6 3f c8 3c de 41 ef bd 77 3e c8 3d f0 ef 13 3d
       0.024444502 -0.11682485 0.09777539 0.036117494
000010 3d 03 40 3d de bd 76 3e f1 c2 65 be b6 38 6e bd
       0.04687809 0.24095866 -0.22437645 -0.058159553
000020 dc b8 18 be 74 c5 3c 3c 05 e7 9d bd 58 58 cb 3c
       -0.14914268 0.011521686 -0.07710079 0.024822399
000030 84 d1 09 3e 30 89 1e bd 1e d0 1d bd 63 b5 60 3c
       0.1345883 -0.03870505 -0.038528554 0.013715121
000040 78 0c 19 3e 1c 1b 6d be c0 de 96 bd 2d f7 44 be
       0.14946163 -0.23154873 -0.07366705 -0.19234915

hidden_cell f4 [1, 1, 20]
000000 33 ab b6 3c d5 07 8e bd e7 dc 81 3d cb 2c b7 bd
       0.022298431 -0.069350876 0.06340962 -0.089440905
000010 29 db fe 3b 52 75 4a bd 8e 74 fe bd 97 7c 0c bd
       0.007777591 -0.04942829 -0.12424575 -0.034298506
000020 57 6f a1 bb f7 1b 2c 3e 75 4a 50 3d b9 b4 d8 bc
       -0.004926603 0.16807543 0.050852258 -0.026453363
000030 3a fd 50 3e c2 78 eb 3c 35 70 ad bc 44 7c 72 3c
       0.20409098 0.028744105 -0.021171669 0.014800135
000040 60 eb fd 3c a3 54 38 be 7a ea fd bc 61 ff 65 be
       0.030996025 -0.18001036 -0.030995596 -0.224607

hidden_cell f4 [1, 1, 20]
000000 51 72 3c 3d 9f 45 0e be 7d a5 f8 3d 9c 38 47 be
       0.046007458 -0.13893746 0.121409394 -0.19455189
000010 7a ad 94 3c f1 68 a5 bd 8d cd 6d be 52 25 8f bd
       0.018149126 -0.080766566 -0.23222943 -0.0698954
000020 24 0e 1c bc f8 df 9c 3e 81 c3 c1 3d 32 a7 65 bd
       -0.009524856 0.30639625 0.094611175 -0.056067653
000030 a3 67 b6 3e 51 28 9d 3d 6d b4 52 bd 2a a4 04 3d
       0.35625944 0.07673705 -0.0514416 0.03238312
000040 2b 7e 4d 3d b0 48 c6 be 3d 5d 85 bd 92 7d ef be
       0.05016915 -0.3872733 -0.065119244 -0.4677549
