mlruns/0/a598af97b6bd498eb7f2bf30d19001f0/artifacts/model/data/model.pth (torch, 14120 bytes, 7 tensors)

weight_ih_l0 f4 [80, 1]
0.10684566 0.40144613 0.22497997 0.0908018 0.14648421 0.3300177 0.39906248 0.08852223
0.4766427 0.119767115 -0.06883955 0.36357373 -0.018172516 0.13355215 0.35633397 -0.039059628
0.49204755 0.38818207 0.088033825 0.5423356 0.32708213 0.50532144 0.45873195 0.1576356
0.23818779 0.24245311 0.32082686 0.27317995 0.43959513 0.17998835 0.11204894 0.47591347
-0.34987223 0.0598836 0.100451894 0.09764352 0.46968058 0.17162918 0.43301255 0.6011954
0.3805812 -0.28142625 -0.38482493 -0.1672228 0.6114132 0.24633048 -0.44088885 0.108240776
-0.24700655 0.5027749 -0.35668078 0.2631718 0.52145946 0.0042300187 0.037089497 -0.057580832
-0.3472978 -0.3111511 0.5312129 -0.26820245 0.45899427 0.2793581 0.39656648 0.46124372
0.28795692 0.5728303 0.517235 0.11058924 0.3757914 0.17979589 -0.13867237 0.46812865
-0.032876395 -0.068455435 0.08006887 0.15387721 0.5333187 0.3257757 0.24247672 0.39865425
00000000: e6d1 da3d 598a cd3e 2661 663e 4bf6 b93d
00000010: f5ff 153e 14f8 a83e eb51 cc3e 254b b53d
00000020: 830a f43e 7648 f53d c0fb 8cbd 5626 ba3e
00000030: 87de 94bc e5c1 083e 6871 b63e fdfc 1fbd
00000040: a8ed fb3e cdbf c63e 144b b43d 82d6 0a3f
00000050: 4f77 a73e bf5c 013f eade ea3e 3a6b 213e
00000060: 80e7 733e a145 783e 6b43 a43e 3ede 8b3e
00000070: 9d12 e13e de4e 383e ea79 e53d eeaa f33e
00000080: 7422 b3be 8148 753d b9b9 cd3d 53f9 c73d
00000090: f979 f03e 8fbf 2f3e d2b3 dd3e f1e7 193f
000000a0: 8adb c23e 1a17 90be c607 c5be 743c 2bbe
000000b0: 9385 1c3f 0f3e 7c3e 2fbc e1be 57ad dd3d
000000c0: 49ef 7cbe dbb5 003f dd9e b6be 74be 863e
000000d0: 5e7e 053f f89b 8a3b 28eb 173d e1d9 6bbd
000000e0: 04d1 b1be 324f 9fbe 92fd 073f d551 89be
000000f0: 4c01 eb3e 0608 8f3e c30a cb3e 2328 ec3e
00000100: 176f 933e 02a5 123f 8369 043f 9d7c e23d
00000110: bb67 c03e 6a1c 383e 2100 0ebe 8fae ef3e
00000120: 66a9 06bd 5d32 8cbd 26fb a33d fd91 1d3e
00000130: 9387 083f 13cc a63e d14b 783e 691c cc3e

weight_hh_l0 f4 [80, 20]
-0.18255612 -0.052581 -0.033659663 -0.104471244 -0.08142667 0.161765 0.12778245 0.067415334
-0.09332616 0.14974701 -0.14379115 0.047770426 -0.010821734 -0.13334781 -0.020074124 -0.13592793
-0.009419237 -0.10149627 0.09563597 -0.050536115 -0.008190048 0.12925757 -0.15360574 0.019325253
0.23929913 -0.110954866 -0.14813766 0.0050824755 0.12885812 -0.036931973 -0.31102633 0.20862675
0.28133202 -0.025536587 -0.010262002 -0.09730466 0.18222722 0.12114456 0.21918961 -0.054501753
-0.0502219 0.02085198 -0.11539564 -0.055109017 0.18636572 0.056504328 0.035507165 0.02757612
-0.23874085 -0.1005806 -0.20840713 0.15858208 0.23886222 -0.28650698 0.17841002 0.08010308
-0.08323502 0.089166544 0.209346 0.102522336 -0.14063628 0.060853783 0.037743647 -0.19954875
0.12553759 -0.15435062 0.14521489 0.029104635 -0.017840095 0.24481833 0.11789663 0.09464366
0.03814181 -0.06882796 0.044749 0.1622529 -0.08974467 -0.105488084 -0.16077235 -0.17489295
0.16152973 0.101931654 -0.05961145 -0.06448981 0.19660555 0.11185618 -0.2959587 0.15124877
0.06278039 -0.13747562 0.08655529 0.21104285 0.25532758 -0.031503893 0.05180479 0.16658245
-0.026188038 0.12078054 -0.061103035 -0.063742444 -0.078117594 -0.20742059 0.09009221 -0.033989366
0.14770883 -0.15029599 -0.07881898 -0.03468847 0.13742916 0.24458122 -0.15238185 0.21026298
0.15701692 0.05286739 -0.10805671 -0.009974826 -0.2454141 -0.24755529 -0.15512972 -0.26882428
0.15435353 -0.31357524 -0.2073007 0.05174778 0.30026853 -0.019020466 0.03234324 -0.09272465
0.0018869763 0.1526284 -0.19037803 0.15691672 0.14166704 -0.16804022 -0.04989508 -0.020229805
-0.13840494 -0.28104028 0.24125119 -0.12574264 -0.057196613 0.08854009 -0.099814035 -0.1322593
0.04259175 -0.012383056 0.17027065 0.08846391 0.22950731 -0.11557528 -0.26852986 0.13164984
-0.034618642 0.009499046 0.116129614 0.1233423 0.034184624 0.03281654 0.1492185 0.04641867
-0.12730613 -0.036957994 0.2579401 0.19827126 -0.12091707 -0.28628084 0.041995622 -0.038811967
0.20889638 -0.0026377037 -0.19063263 -0.008487185 0.28540692 -0.31958812 -0.058941822 0.13446619
0.057318833 -0.01166473 -0.05666526 0.13321574 -0.02879179 -0.15342352 0.060598314 -0.103117175
0.17565697 -0.0747156 -0.2307949 0.16905913 -0.03716624 0.02985822 -0.15541708 -0.065043345
0.38179275 -0.12613001 0.13729587 -0.09362789 0.14985068 -0.16093443 0.14832343 -0.19097102
-0.10915279 -0.123558454 -0.15513045 -0.03203713 0.21617362 0.063921034 -0.0962601 0.114082105
0.113258086 0.103074916 0.2737697 0.27316988 -0.21825358 0.06436517 -0.13334043 -0.057700034
0.11588438 0.0872905 0.0624626 -0.12236834 0.021863176 -0.28508675 -0.11027689 -0.20384102
-0.03361192 0.35142353 -0.025029384 0.16651158 -0.07822489 0.40224433 -0.15135665 0.17273937
-0.13836016 -0.08172104 0.25511464 -0.12916228 -0.01909515 -0.3592197 0.065862775 -0.30840352
0.4625811 -0.24735273 -0.3750696 -0.5506907 0.30018982 0.5811079 -0.49095398 0.2096494
-0.6726803 0.55575067 -0.081006296 0.2337941 -0.03733138 -0.08190782 0.5985822 -0.42270982
00000000: feef 3abe 2d5f 57bd b7de 09bd 05f5 d5bd
00000010: 07c3 a6bd b9a5 253e 67d9 023e 0d11 8a3d
00000020: c921 bfbd 4857 193e fd3d 13be ecaa 433d
00000030: a44d 31bc 548c 08be 7d72 a4bc b130 0bbe
00000040: 2553 1abc 47dd cfbd cbdc c33d f5fe 4ebd
00000050: 8d2f 06bc 195c 043e d34a 1dbe fe4f 9e3c
00000060: d50a 753e 4e3c e3bd 66b1 17be e58a a63b
00000070: 62f3 033e fb45 17bd d83e 9fbe 40a2 553e
00000080: c00a 903e 1b32 d1bc f521 28bc aa47 c7bd
00000090: c699 3a3e a41a f83d 3e73 603e 3b3d 5fbd
000000a0: 7bb5 4dbd c6d1 aa3c 8d54 ecbd feb9 61bd
000000b0: a8d6 3e3e 1571 673d f66f 113d 51e7 e13c
000000c0: 7b78 74be 34fd cdbd ae68 55be 5763 223e
000000d0: 4c98 743e 0bb1 92be 1eb1 363e 150d a43d
000000e0: 1f77 aabd f39c b63d cc5e 563e 3bf7 d13d
000000f0: f502 10be d141 793d 1599 1a3d 8256 4cbe
00000100: ed8c 003e 170e 1ebe 36b3 143e d86c ee3c
00000110: 6425 92bc a8b1 7a3e ca73 f13d 89d4 c13d
00000120: 963a 1c3d acf5 8cbd ba4a 373d a025 263e
00000130: 0ecc b7bd 230a d8bd 82a1 24be 2317 33be
00000140: 0d68 253e 8bc1 d03d 232b 74bd 3c13 84bd
00000150: f752 493e da14 e53d e687 97be f5e0 1a3e
00000160: 0193 803d 69c6 0cbe e643 b13d 9e1b 583e
00000170: 4cba 823e 3a0a 01bd 4231 543d 9794 2a3e
00000180: 4c88 d6bc ca5b f73d 2d47 7abd 668b 82bd
00000190: 1efc 9fbd 1066 54be 4482 b83d 6f38 0bbd
000001a0: fc40 173e 31e7 19be d86b a1bd 7f15 0ebd
000001b0: 3bba 0c3e 8073 7a3e fd09 1cbe 2e4f 573e
000001c0: 0bc9 203e 7a8b 583d d64c ddbd 746d 23bc
000001d0: d54d 7bbe 227f 7dbe 53da 1ebe 56a3 89be
000001e0: da0e 1e3e ef8c a0be a246 54be 7bf5 533d
000001f0: ccbc 993e cfd0 9bbc 587a 043d 6ce6 bdbd
00000200: 6b54 f73a 9f4a 1c3e 75f2 42be c7ae 203e
00000210: 2a11 113e bc12 2cbe c95e 4cbd fab8 a5bc
00000220: 06ba 0dbe 83e4 8fbe 8d0a 773e aec2 00be
00000230: ff46 6abd 8254 b53d 4d6b ccbd fb6e 07be
00000240: b074 2e3d 4de2 4abc 6e5b 2e3e 912c b53d
00000250: f703 6b3e bbb2 ecbd bf7c 89be 37cf 063e
00000260: 47cc 0dbd e3a1 1b3c 5dd5 ed3d e39a fc3d
00000270: 2d05 0c3d a36a 063d bccc 183e 8121 3e3d
00000280: 8a5c 02be 4461 17bd ba10 843e 9f07 4b3e
00000290: 5ea3 f7bd 6793 92be 9a03 2c3d 4cf9 1ebd
000002a0: efe8 553e 53dd 2cbb 3335 43be d60d 0bbc
000002b0: db20 923e 0ea1 a3be fb6c 71bd 81b1 093e
000002c0: 27c7 6a3d 6c1d 3fbc d519 68bd b569 083e
000002d0: c3dc ebbc 0e1b 1dbe f035 783d 192f d3bd
000002e0: 6cdf 333e 7e04 99bd 8055 6cbe d61d 2d3e
000002f0: a13b 18bd 3a99 f43c a825 1fbe 7235 85bd
00000300: 577a c33e 3a28 01be 4a97 0c3e fbbf bfbd
00000310: 7572 193e ffcb 24be 19e2 173e e88d 43be
00000320: 7f8b dfbd 370c fdbd 84da 1ebe 5e39 03bd
00000330: 9e5c 5d3e 08e9 823d 0424 c5bd e1a3 e93d
00000340: dbf3 e73d f118 d33d 8b2b 8c3e ecdc 8b3e
00000350: de7d 5fbe e3d1 833d 658a 08be df56 6cbd
00000360: ca54 ed3d 5dc5 b23d c9d8 7f3d 419c fabd
00000370: 671a b33c e4f6 91be dad8 e1bd b3bb 50be
00000380: a7ac 09bd c9ed b33e 6c0a cdbc 0382 2a3e
00000390: 5f34 a0bd f8f2 cd3e 3dfd 1abe 97e2 303e
000003a0: 49ae 0dbe 5c5d a7bd 639e 823e 1e43 04be
000003b0: 6f6d 9cbc a5eb b7be 10e3 863d 11e7 9dbe
000003c0: 6ed7 ec3e 094a 7dbe 1f09 c0be 11fa 0cbf
000003d0: 7bb2 993e 7dc3 143f 525e fbbe 55ae 563e
000003e0: c734 2cbf ad45 0e3f a1e6 a5bd b867 6f3e
000003f0: cae8 18bd 4abf a7bd af3c 193f 6c6d d8be

bias_ih_l0 f4 [80]
-0.042006057 0.17625903 0.07276943 0.28849542 0.15153271 0.26602164 0.10563449 -0.04629222
0.16206273 -0.05420245 0.18319798 0.27028054 0.5194884 -0.080178 -0.1650119 0.010881582
0.30678657 -0.09891327 0.11319782 0.120723866 0.09891584 0.16088201 -0.060339224 0.2616048
-0.002333436 -0.116228774 0.16146062 -0.14266255 -0.09894849 -0.036943268 0.024913572 0.07782438
-0.09058299 0.041615855 -0.11562994 -0.05107139 0.24471909 -0.020709645 0.14937897 0.027339816
0.11991114 0.01173576 -0.14739372 -0.27535793 0.09602757 -0.07624498 -0.16680585 0.20920138
0.067484215 0.028103502 0.05669485 0.12699568 -0.009273489 -0.16292645 0.14683554 0.11672307
-0.17309724 -0.0067740255 0.0005451887 -0.0029144 -0.14203623 -0.16915058 -0.015922774 0.04956246
0.22496507 -0.09549763 0.2717751 -0.15632698 0.19362976 0.020168064 0.022776661 0.1176515
0.25747603 -0.109919645 -0.12580183 -0.10704938 -0.11501147 0.13368797 0.10883273 0.02156271
00000000: 8b0e 2cbd 3f7d 343e 2408 953d acb5 933e
00000010: 642b 1b3e fd33 883e e556 d83d e99c 3dbd
00000020: c6f3 253e 6303 5ebd 4098 3b3e 3662 8a3e
00000030: 31fd 043f 5d34 a4bd e1f8 28be aa48 323c
00000040: 2113 9d3e 0a93 cabd 42d4 e73d 133e f73d
00000050: 6394 ca3d 41be 243e 4326 77bd 10f1 853e
00000060: 8fec 18bb 5a09 eebd ef55 253e 2216 12be
00000070: 82a5 cabd d351 17bd 8c17 cc3c 6362 9f3d
00000080: 9383 b9bd 6375 2a3d 64cf ecbd 3c30 51bd
00000090: a497 7a3e 46a7 a9bc cdf6 183e c0f7 df3c
000000a0: f993 f53d 5847 403c 61ee 16be b7fb 8cbe
000000b0: 1aaa c43d 5426 9cbd 27cf 2abe e338 563e
000000c0: 2a35 8a3d 5139 e63c dc38 683d 280b 023e
000000d0: d5ef 17bc 31d6 26be 0e5c 163e 810c ef3d
000000e0: 6740 31be a5f8 ddbb ffea 0e3a 85ff 3ebb
000000f0: f271 11be cf35 2dbe 7a70 82bc 0202 4b3d
00000100: 3e5d 663e 4394 c3bd 1b26 8b3e 2e14 20be
00000110: e146 463e 7f37 a53c 1f96 ba3c 45f3 f03d
00000120: e6d3 833e 8d1d e1bd 32d2 00be b53c dbbd
00000130: 228b ebbd 80e5 083e b2e3 de3d 48a4 b03c

bias_hh_l0 f4 [80]
0.08517507 0.13369317 0.3045437 0.23902868 0.30876136 -0.08745589 0.06394284 0.2113525
-0.21183428 0.17551719 -0.09565416 0.09935438 0.46953973 0.068742625 0.0067310836 0.18890639
-0.01344807 -0.062132485 0.07901201 0.1376723 0.03589815 -0.032795724 -0.12726837 0.13820063
0.16568716 -0.13170089 -0.18264575 -0.012596696 -0.22765194 0.19113684 -0.10963467 -0.03755616
-0.022979291 0.10991999 -0.18693137 0.13016461 -0.16575076 -0.2247878 0.09519333 0.032152366
0.04160665 -0.15811288 0.0030476423 -0.20116532 0.10324384 0.22888155 0.088657096 0.15112807
-0.13628928 0.012580919 0.07059172 -0.13042092 0.18049073 -0.04471185 0.08176824 -0.21555276
0.124918036 -0.09424293 0.01421682 -0.082086936 0.066758536 0.21543191 0.05116719 -0.11835774
0.05339502 0.2079485 0.2521814 -0.0892111 -0.037806112 0.21976979 -0.025087906 -0.022172369
0.3352116 0.02468438 -0.1753532 -0.16688477 -0.087799154 0.27982086 0.00032231098 0.2995131
00000000: 4470 ae3d dde6 083e 27ed 9b3e efc3 743e
00000010: f815 9e3e 131c b3bd 77f4 823d ca6c 583e
00000020: 16eb 58be c7ba 333e 54e6 c3bd 4f7a cb3d
00000030: 8367 f03e efc8 8c3d 6c90 dc3b ad70 413e
00000040: 4b55 5cbc a27e 7ebd 0cd1 a13d f8f9 0c3e
00000050: f009 133d cf54 06bd a452 02be 7784 0d3e
00000060: e5a9 293e 99dc 06be 7d07 3bbe 5f62 4ebc
00000070: 971d 69be 60b9 433e 2488 e0bd 7dd4 19bd
00000080: 113f bcbc bb1d e13d f06a 3fbe df49 053e
00000090: 91ba 29be c62e 66be b8f4 c23d 33b2 033d
000000a0: bc6b 2a3d 58e8 21be f4ba 473b 48fe 4dbe
000000b0: 8271 d33d ed5f 6a3e da91 b53d 51c1 1a3e
000000c0: 6b8f 0bbe 3320 4e3c 6492 903d 108d 05be
000000d0: 90d2 383e c623 37bd 1b76 a73d ddb9 5cbe
000000e0: 07d5 ff3d 7002 c1bd aaed 683c 321d a8bd
000000f0: b3b8 883d 2f9a 5c3e b094 513d 8b65 f2bd
00000100: bdb4 5a3d 74f0 543e ec1d 813e 4fb4 b6bd
00000110: 95da 1abd 550b 613e 2785 cdbc d4a2 b5bc
00000120: dba0 ab3e e636 ca3c ca8f 33be d7e3 2abe
00000130: 0bd0 b3bd ae44 8f3e d9fb a839 c859 993e

weight f4 [1, 20]
0.18110953 -0.1746691 -0.1889995 -0.24252683 0.1371974 0.29959252 -0.19020122 0.21331567
-0.14722021 0.21502149 -0.124967925 0.12883897 0.31708556 0.074261844 0.14885011 -0.049256034
-0.13268967 -0.17027768 0.14316152 -0.16209252
00000000: c774 393e 75dc 32be 1689 41be f458 78be
00000010: 7a7d 0c3e 3164 993e 1cc4 42be 6c6f 5a3e
00000020: e5c0 16be 982e 5c3e 2fef ffbd 5dee 033e
00000030: 0a59 a23e 9816 983d 2a6c 183e b2c0 49bd
00000040: cddf 07be 465d 2ebe ef98 123e 95fb 25be

hidden_cell f4 [1, 1, 20]
0.05938761 -0.12503113 -0.03553219 -0.33358702 0.023161445 0.081564136 -0.045243446 0.089632004
-0.027731866 5.9340662e-05 0.015865397 0.11575351 -0.07030916 -0.006872562 0.055977 -0.001878588
-0.07592709 -0.0023350115 0.023065208 -0.14743493
00000000: 6c40 733d 2908 00be 348a 11bd ebcb aabe
00000010: 12bd bd3c 190b a73d 3151 39bd fc90 b73d
00000020: f02d e3bc 8de4 7838 26f8 813c 2d10 ed3d
00000030: 40fe 8fbd 3b33 e1bb 2448 653d f43a f6ba
00000040: aa7f 9bbd fe06 19bb 3ff3 bc3c 2ff9 16be

hidden_cell f4 [1, 1, 20]
0.1192117 -0.24691291 -0.06513479 -0.89847237 0.04145635 0.15093829 -0.06843815 0.21300511
-0.05192933 0.000106700725 0.032043297 0.21101971 -0.09435388 -0.013936016 0.14810014 -0.0045760176
-0.16611381 -0.0039282423 0.04082489 -0.23884508
00000000: 4425 f43d bdd6 7cbe 6465 85bd 4902 66bf
00000010: 22ce 293d 918f 1a3e 4d29 8cbd 031e 5a3e
00000020: d9b3 54bd 84c4 df38 d53f 033d 8d15 583e
00000030: 9b3c c1bd e353 64bc 90a7 173e 6bf2 95bb
00000040: bd19 2abe 7cb8 80bb 0038 273d ce93 74be
