mlruns/0/cc5b94fc936048deabecb3796e3557d9/artifacts/model/data/model.pth (torch, 14120 bytes, 7 tensors)

weight_ih_l0 f4 [80, 1]
0	0x3e1577bb	0.14596455
1	0xbdc427f8	-0.09577936
2	0x3eb2dda6	0.3493473
3	0x3d3e284f	0.04642516
4	0x3d85ddab	0.065364204
5	0x3e7925f9	0.24330892
6	0x3eddab20	0.4329462
7	0x3e20a3e1	0.15687515
8	0x3e1eddfc	0.15514368
9	0x3ebb499c	0.36579597
10	0x3d04321e	0.032274358
11	0x3ca44f06	0.020057213
12	0x3e46d143	0.19415765
13	0x3ea2d666	0.31804198
14	0x3d98f689	0.07468898
15	0x3e197864	0.14987332
16	0x3b9fc562	0.004875825
17	0x3f2db3fa	0.6785275
18	0x3e919125	0.2843105
19	0x3e28cdb5	0.16484721
20	0xbdeebcd8	-0.11657113
21	0xbe58ec83	-0.21183972
22	0x3e39e981	0.18155481
23	0x3ae44725	0.0017416222
24	0xbca97fc2	-0.020690802
25	0x3e14ef6b	0.14544456
26	0x3e3de426	0.18544063
27	0x3af13a99	0.0018404304
28	0xbf099727	-0.53746265
29	0x3e9bb36b	0.30410323
30	0xbe19f68d	-0.15035458
31	0xbe3d97c9	-0.18514933
32	0xbe96a7e5	-0.29424968
33	0x3eb7c970	0.35895872
34	0x3e008975	0.12552436
35	0x3e687b83	0.22703366
36	0xbec25f27	-0.3796322
37	0x3efa2b22	0.48861033
38	0x3eba85c7	0.3643019
39	0x3d219f52	0.03945858
40	0x3e4e3e75	0.20141013
41	0x3efddd9b	0.49583134
42	0xbe5a665a	-0.21328107
43	0xbeec3d5e	-0.4614057
44	0xbe3ebb15	-0.18626054
45	0x3ed7d0dd	0.42151538
46	0x3efee677	0.49785206
47	0xbe041743	-0.12899499
48	0x3ede08c7	0.43366072
49	0xbed3867a	-0.41313535
50	0x3e3d2908	0.18472683
51	0xbe956c5f	-0.29184243
52	0x3f229735	0.63511974
53	0x3f07072b	0.5274531
54	0x3cb2b1a2	0.021813218
55	0xbda58582	-0.08082105
56	0x3ef48220	0.47755527
57	0xbec8fca7	-0.39255258
58	0x3e163ceb	0.14671676
59	0xbe327533	-0.1742752
60	0x3e01fbd0	0.12693715
61	0xbe8acdb7	-0.27110073
62	0x3e1bd579	0.15218152
63	0x3e426da3	0.18987136
64	0x3e58bb2a	0.21165147
65	0x3f0065e5	0.5015548
66	0x3ef838bd	0.48480788
67	0x3cfb119a	0.030648042
68	0xbdd94bdc	-0.10610172
69	0x3e15c2de	0.14625117
70	0xbd0d3bed	-0.034480978
71	0x3da987bc	0.082778424
72	0x3e5f2a10	0.2179339
73	0x3f24927c	0.6428602
74	0x3dc47e44	0.09594396
75	0x3cb44acc	0.022008322
76	0x3c4ffd3a	0.012694651
77	0x3eda4609	0.42631558
78	0x3e3d4fcc	0.18487471
79	0x3e81dae1	0.25362304

weight_hh_l0 f4 [80, 20]
0	0xbe873037	-0.26403973
1	0x3e031186	0.12799653
2	0xbd05ff76	-0.03271433
3	0x3cc74f81	0.024329903
4	0x3dfdf9c0	0.12401152
5	0xbe3458d6	-0.17612013
6	0x3e4399a4	0.19101578
7	0x3c08f52d	0.008359236
8	0xbdced020	-0.100982904
9	0xbd024cec	-0.03181164
10	0xbdfa2892	-0.122147694
11	0x3a6c0dc2	0.00090047356
12	0x3e681375	0.22663672
13	0x3e693909	0.22775663
14	0xbdf2b985	-0.11851791
15	0xbdf51f67	-0.1196888
16	0xbd9576f0	-0.07298076
17	0xbcf0291f	-0.029316483
18	0xbe48c44c	-0.19606131
19	0xbe06aa5e	-0.13150927
20	0xbc8d699f	-0.017262278
21	0xbe6a041e	-0.22853133
22	0xbea188af	-0.31549594
23	0xbea0804d	-0.31347886
24	0xbd6b747a	-0.057484128
25	0xbbcf8df2	-0.00633406
26	0x3e5ab8fb	0.21359627
27	0xbe734ca1	-0.237597
28	0xbeb3a61d	-0.35087672
29	0xbdcfa61f	-0.10139107
30	0xbea132d7	-0.314841
31	0xbde1c112	-0.11023153
32	0xbe452733	-0.19253235
33	0x3e7001ab	0.23438136
34	0xbeb8f0a7	-0.36121103
35	0xbdbb670a	-0.091505125
36	0x3e1bdcc1	0.1522093
37	0xbe67d4e3	-0.22639804
38	0x3e5dab84	0.2164746
39	0xbe634f26	-0.22198161
40	0x3da7078d	0.08155737
41	0xbc3de075	-0.011589159
42	0xbe4ff13b	-0.20306866
43	0x3ccbf891	0.0248988
44	0x3dfa2f44	0.122160465
45	0xbc6c4f42	-0.014423193
46	0xbd464e99	-0.0484148
47	0xbe41ed16	-0.18938097
48	0x3e05d15e	0.13068148
49	0xbe3e28d6	-0.18570265
50	0x3d1edce9	0.038784895
51	0xbc83b421	-0.016077103
52	0x3d67aa37	0.056558814
53	0xbe88fc48	-0.26754975
54	0xbdaa9e71	-0.083310015
55	0x3df9425b	0.121708594
56	0xbc56c651	-0.013108806
57	0x3e3dbccb	0.1852905
58	0xbdabcca2	-0.0838864
59	0x3e43addc	0.19109291
60	0xbda65289	-0.08121211
61	0xbe6100da	-0.21972981
62	0x3d253ef4	0.04034324
63	0x3de9ab03	0.11409571
64	0x3d9ad075	0.07559291
65	0x3ccc0521	0.02490479
66	0x3e27b3e2	0.16377214
67	0xbe316f9d	-0.17327733
68	0xbec0c425	-0.37649646
69	0x3d5c2f03	0.05375577
70	0xbda33e0d	-0.079708196
71	0x3cee1ac7	0.029065503
72	0xbe8a749f	-0.270421
73	0xbe5e5568	-0.21712267
74	0x3daa3129	0.08310158
75	0xbdbbc23c	-0.09167907
76	0xbdc9eeaa	-0.09859975
77	0x3cd538b0	0.026028007
78	0xbc8d6df4	-0.017264344
79	0x3dc9ca49	0.09853036
80	0xbe2a3b83	-0.16624264
81	0xbe7e21c7	-0.24817573
82	0x3e662099	0.22473373
83	0x3e4932f0	0.19648337
84	0x3dbf33c4	0.093360454
85	0xbe72ce43	-0.23711495
86	0x3d8d1782	0.068892494
87	0xbdf4d23e	-0.11954163
88	0xbdd344af	-0.10315835
89	0x3e4db814	0.20089751
90	0x3c789e39	0.015174442
91	0x3db04a80	0.0860796
92	0xbe355e68	-0.17711794
93	0xbdab66c3	-0.083692096
94	0xbe18bf26	-0.14916667
95	0x3cc41bdf	0.023939071
96	0x3c031fdd	0.008003202
97	0xbcc04932	-0.023472402
98	0x3ddfcb37	0.10927432
99	0x3e8389dc	0.25691116
100	0xbd8b2247	-0.06793647
101	0xbe4a8c62	-0.19780114
102	0x3c20ccae	0.009814424
103	0x3d34bdb6	0.044126235
104	0xbbb59edd	-0.0055426196
105	0x3df00f50	0.11721671
106	0x3e331d1d	0.17491575
107	0x3d5e8ece	0.054335408
108	0xbe7f388b	-0.24923913
109	0x3db9c41a	0.090706065
110	0x3daa9941	0.08330012
111	0xbc5fca9a	-0.013659144
112	0xbd1a5038	-0.03767416
113	0xbd700071	-0.05859417
114	0xbddd19c4	-0.1079593
115	0xbda2aa03	-0.079425834
116	0xbe56d27d	-0.20978732
117	0xbdc79011	-0.09744275
118	0x3c589504	0.013219122
119	0xbe84e675	-0.25957075
120	0x3dff6d6f	0.12472045
121	0xbedccf17	-0.43126747
122	0xbedc4864	-0.4302398
123	0xbec56c04	-0.38558972
124	0xbec5c053	-0.38623294
125	0xbcac117d	-0.021004433
126	0xbd3f46a8	-0.046698242
127	0xbcd4801e	-0.025939997
128	0xbf3f57e3	-0.7474348
129	0xbe722518	-0.23646963
130	0xbe51798b	-0.20456521
131	0x3debc8ae	0.11512886
132	0xbc3882a1	-0.011261613
133	0x3c083eea	0.008315781
134	0xbc9d2c54	-0.019186176
135	0xbef6e457	-0.48221084
136	0x3d0f3469	0.03496209
137	0xbec00902	-0.37506872
138	0x3e42f659	0.19039287
139	0xbe4cbd66	-0.19994125
140	0xbe0ca8e0	-0.13736296
141	0xbd183ad1	-0.037165467
142	0xbd3886a3	-0.045050275
143	0xbe19d7ff	-0.15023802
144	0x3da0be3e	0.07848786
145	0xbddefb6d	-0.108877994
146	0xbe7ae392	-0.24500874
147	0x3d410ddb	0.047132354
148	0xbc1dd673	-0.009633648
149	0xbe126b57	-0.1429876
150	0x3e85ae5e	0.26109594
151	0x3d2b9aa0	0.04189551
152	0x3c5df0e0	0.013546199
153	0xbd833276	-0.06406109
154	0x3e803062	0.25036913
155	0x3e070b91	0.13188006
156	0xbe8145ba	-0.2524851
157	0x3e0f6d21	0.14006473
158	0xbe7b0306	-0.24512872
159	0x3e350727	0.1767851
160	0xbdf9db8b	-0.122000776
161	0xbe827a0d	-0.25483742
162	0xbe801197	-0.2501342
163	0xbecf67ae	-0.4050879
164	0xbeb65839	-0.35614184
165	0x3e20ddc2	0.15709594
166	0x3e51a25d	0.20472093
167	0xbe6bd4ba	-0.23030367
168	0xbe6ac333	-0.22926025
169	0xbdbe591b	-0.09294339
170	0xbe078ae5	-0.13236578
171	0x3da8a932	0.082353964
172	0x3de9decd	0.11419449
173	0x3ef2b231	0.47401574
174	0xbe7112d1	-0.23542334
175	0xbe8284b5	-0.25491872
176	0x3e2f30e1	0.1710849
177	0xbeee0d43	-0.46494493
178	0x3e9fb556	0.31193036
179	0xbe26c6ae	-0.16286728
180	0x3d9e2b6c	0.07723126
181	0xbc2e2e2e	-0.010631127
182	0xbe8c4ab5	-0.27400747
183	0x3dd2f8b0	0.103013396
184	0xbe8f4ab1	-0.27986673
185	0xbd8074a7	-0.0627225
186	0x3c622d0f	0.013804688
187	0xbd960060	-0.0732429
188	0xbed65d42	-0.41868025
189	0xbe174a59	-0.14774455
190	0xbe55bd5d	-0.20873018
191	0x3e894e3c	0.268175
192	0xbeb62596	-0.3557555
193	0x3d8dcf90	0.06924355
194	0x3dbaf369	0.09128458
195	0x3da5d9b8	0.08098167
196	0xbe3f27ab	-0.18667476
197	0xbbd50c0c	-0.0065016802
198	0x3e442be0	0.19157362
199	0x3e039886	0.12851152
200	0x3dbf0756	0.09327571
201	0xbe248177	-0.16065012
202	0xbd5ed2d9	-0.0544003
203	0x3e3c6ce6	0.18400916
204	0xbe27c94e	-0.16385385
205	0xbe465fcc	-0.19372481
206	0xbd39300c	-0.045211837
207	0xbe08c555	-0.13356526
208	0xbe2c673a	-0.16836253
209	0xbd160862	-0.03662909
210	0x3d1ff0ce	0.03904801
211	0x3e182460	0.14857626
212	0xbe0ead49	-0.1393329
213	0xbe9f29a6	-0.31086463
214	0x3e72ae21	0.23699237
215	0x3e2f9310	0.17145944
216	0x3c1a05cd	0.009400797
217	0xbcd98b94	-0.026555814
218	0x3e2cf836	0.1689156
219	0x3e8103eb	0.25198302
220	0xbc7fbe5e	-0.015609352
221	0xbe2297a7	-0.15878163
222	0xbcc82c9f	-0.02443534
223	0x3d2ebb9d	0.04265939
224	0x3dd95042	0.10611011
225	0xbdd90e1a	-0.10598393
226	0xbe07b8e2	-0.13254121
227	0xbd86bfec	-0.06579575
228	0xbdaee90e	-0.085405454
229	0x3e01a5fc	0.12660974
230	0xbd3421e5	-0.043977637
231	0x3e303f9b	0.17211764
232	0xbd824266	-0.06360321
233	0x3afae75d	0.0019142438
234	0x3d66eba7	0.05637708
235	0x3dc513a1	0.096228845
236	0xbe8081fb	-0.25099167
237	0x3ded32d5	0.11581961
238	0x3d8ab0cd	0.06772003
239	0x3e3cb13c	0.18426985
240	0xbc99fb34	-0.01879654
241	0xbf2ed924	-0.6830008
242	0xbea5ae20	-0.3235941
243	0xbed11128	-0.40833402
244	0xbf02c814	-0.51086545
245	0x3ddcc6a5	0.10780076
246	0x3e945747	0.28972837
247	0xbddef936	-0.10887377
248	0xbeecd0c0	-0.46253014
249	0xbe9e0deb	-0.30869994
250	0xbf2ed9fe	-0.6830138
251	0x3ebf251b	0.37332997
252	0xbdc4afb2	-0.09603824
253	0x3e20af8a	0.15691963
254	0xbf0814dd	-0.53156835
255	0xbf0a1f98	-0.5395446

bias_ih_l0 f4 [80]
0	0x3e828807	0.25494406
1	0x3dac8a9a	0.08424874
2	0xbd61cc71	-0.05512661
3	0xbce3895b	-0.027775457
4	0xbde3b456	-0.11118381
5	0x3e605fc5	0.21911533
6	0x3f00e8c4	0.5035517
7	0xbdf748a9	-0.12074406
8	0x3e9ca68e	0.3059582
9	0x3e7b8908	0.24563992
10	0xbcde1d49	-0.027113574
11	0xbdba8a1c	-0.091083735
12	0x3f2f9414	0.68585324
13	0x3f0ce58c	0.5503776
14	0xbdf38b25	-0.11891774
15	0xbe67dcba	-0.22642794
16	0x3ee36b1b	0.44417652
17	0x3e8ede1f	0.2790384
18	0xbe3c26b4	-0.18374139
19	0x3e2a63a6	0.16639575
20	0xbdfebf22	-0.124387994
21	0xbdddeaae	-0.10835777
22	0xbe602d6e	-0.2189233
23	0xbd20f818	-0.0392991
24	0x3e164b4d	0.14677162
25	0xbe02ab13	-0.12760572
26	0xbe53172e	-0.20614311
27	0x3d332625	0.04373755
28	0xbdd249dd	-0.102679946
29	0x3e13552e	0.14387962
30	0xbdcf0b66	-0.10109596
31	0xbd822b98	-0.06355971
32	0xbd661f38	-0.056182116
33	0xbe78c765	-0.24294813
34	0xbdd9985c	-0.10624763
35	0xbe5c5f33	-0.2152069
36	0xbed049d8	-0.40681338
37	0xbdcf01dc	-0.101077765
38	0xbe3dd143	-0.18536858
39	0xbe6c49b0	-0.23074985
40	0x3d86f2b7	0.06589263
41	0xbe0de043	-0.1385508
42	0xbdacf081	-0.0844431
43	0xbdbfb5d0	-0.0936085
44	0xbe2aa4a3	-0.16664366
45	0x3dea3660	0.114361525
46	0x3d07c189	0.033143554
47	0xbe023c75	-0.12718375
48	0xbcbc5453	-0.022989428
49	0xbdd87e4e	-0.10570966
50	0xbdb5bc03	-0.08873751
51	0x3c703eb6	0.014663389
52	0xbdcd986f	-0.1003884
53	0xbe1ef839	-0.15524377
54	0xbe25bae0	-0.16184568
55	0xbe54d97b	-0.20786087
56	0xbe5e776a	-0.2172524
57	0x3defacc6	0.11702876
58	0x3e160fe9	0.14654507
59	0xbe335829	-0.17514099
60	0x3e1162e6	0.14197883
61	0x3ebbe233	0.36696014
62	0x3cb17e3c	0.021666639
63	0x3e1a40f9	0.15063848
64	0xbe362818	-0.17788732
65	0x3cb034cd	0.021509552
66	0x3ebd0b63	0.3692275
67	0x3df66371	0.12030686
68	0x3e7f5927	0.24936353
69	0x3d8af776	0.06785481
70	0xbcfd8100	-0.030945301
71	0xbe0bbdd4	-0.13646632
72	0x3f19407d	0.59864026
73	0x3ec1efd0	0.37878275
74	0x3d8c889d	0.068619944
75	0xbe2b2525	-0.16713388
76	0x3e8e5563	0.2779952
77	0x3e1129ba	0.14176074
78	0xbe5c37c9	-0.21505655
79	0xbdf9a64d	-0.121899225

bias_hh_l0 f4 [80]
0	0x3dc77b43	0.09740307
1	0x3e45e1a5	0.19324358
2	0x3ddb286d	0.1070107
3	0x3e8bc7c9	0.2730086
4	0xbe3913bf	-0.18073939
5	0x3ead2407	0.3381655
6	0x3eea27a5	0.4573337
7	0x3dfbd9cf	0.12297403
8	0x3ed54678	0.41655326
9	0x3e95b416	0.29238957
10	0xbd24da50	-0.04024726
11	0x3e644039	0.22290124
12	0x3f25531e	0.6457995
13	0x3f1dd28a	0.6164938
14	0xbe93b5ef	-0.28849742
15	0xbda8400c	-0.08215341
16	0x3e345e7f	0.17614172
17	0x3eaa9059	0.33313254
18	0xbe14e9c6	-0.14542302
19	0xbda76760	-0.08174014
20	0x3d45c5dc	0.048284397
21	0xbe46bf5a	-0.19408932
22	0x3d855430	0.06510198
23	0xbe3b745a	-0.18306103
24	0xbcdca483	-0.026933914
25	0x3de7fb3c	0.11327216
26	0x3da69962	0.08134724
27	0xbe7d5296	-0.24738535
28	0xbdd5ed75	-0.10445682
29	0x3dc03aae	0.09386192
30	0x3dd5a514	0.10431877
31	0x3d5e574c	0.05428247
32	0xbdd6c483	-0.104867004
33	0xbec2e5e8	-0.3806603
34	0xbe8ce0e7	-0.27515337
35	0xbe40efc9	-0.18841471
36	0xbed60fb4	-0.41808856
37	0xbe51dae0	-0.2049365
38	0xbe1ad947	-0.15121947
39	0x3e00c73c	0.12576002
40	0xbe0f4cc0	-0.13994122
41	0xbcb7c006	-0.022430431
42	0xbdd423a7	-0.10358363
43	0xbd2dde5f	-0.042448398
44	0xbd2f5f89	-0.04281572
45	0xbd8bf5e4	-0.06834009
46	0xbd11d9fb	-0.035608273
47	0xbd6c0ed1	-0.057631318
48	0xbdfe20a9	-0.12408573
49	0x3b1270f5	0.002234516
50	0xbdf9b7d6	-0.12193267
51	0x3ce3730b	0.027764818
52	0xbcca7406	-0.024713527
53	0x3dfb9c19	0.12285633
54	0x3dd39cde	0.103326544
55	0xbcaa4799	-0.020786094
56	0x3ddc58a5	0.10759095
57	0xbe7d6047	-0.24743758
58	0x3e58376b	0.2111489
59	0xbe5c5cb5	-0.2151974
60	0x3e67867d	0.22609897
61	0x3ed58957	0.41706344
62	0x3e5654be	0.20930764
63	0x3e8b665f	0.2722654
64	0xbc97372e	-0.018458929
65	0x3e61fc13	0.22068815
66	0x3ea15f4d	0.3151802
67	0x3d86a44d	0.06574307
68	0x3e67f785	0.22653015
69	0x3e53ca91	0.20682742
70	0x3d9d23c5	0.07672838
71	0x3e12c816	0.14334139
72	0x3f0ace61	0.5422116
73	0x3e847718	0.2587211
74	0x3cb3e6d6	0.021960657
75	0x3d14d598	0.03633651
76	0x3ecd2bbf	0.40072438
77	0x3e39aca3	0.18132262
78	0x3d884570	0.06653869
79	0xbe51b195	-0.20477898

weight f4 [1, 20]
0	0x3d7575a2	0.059926637
1	0x3e7cd532	0.24690703
2	0xbe276246	-0.16346082
3	0xbe8b732d	-0.2723631
4	0xbd80ef75	-0.06295673
5	0x3e5fe6da	0.21865407
6	0x3e8921c7	0.26783583
7	0xbd0eeba7	-0.034892704
8	0x3ecac96a	0.39606792
9	0xbe9c6746	-0.3054754
10	0x3d16e262	0.03683699
11	0xbe08e0d4	-0.13367015
12	0x3f00da17	0.5033278
13	0x3e83fae0	0.2577734
14	0xbd49cf98	-0.049270242
15	0xbde82a0e	-0.11336146
16	0x3e913480	0.28360367
17	0xbe43fb2a	-0.1913878
18	0x3e066e20	0.13127947
19	0xbe143d9d	-0.14476629

hidden_cell f4 [1, 1, 20]
0	0xbc47afbc	-0.012187894
1	0xbdce3b50	-0.10069907
2	0xbdae471d	-0.085096575
3	0xbd6267ff	-0.05527496
4	0xbd745868	-0.059654623
5	0x3cb67323	0.022271698
6	0x3ceff39b	0.029290965
7	0xbc76624a	-0.015038082
8	0xbdc7328e	-0.097264394
9	0xbd20a83b	-0.039222937
10	0xbd9923f2	-0.07477559
11	0x3c69dd4b	0.014273952
12	0xbdcb9307	-0.099401526
13	0x3c8803a8	0.016603306
14	0xbc2a75b2	-0.010404037
15	0xbd8cf5b8	-0.06882805
16	0xbcda5809	-0.026653307
17	0xbe099938	-0.13437355
18	0x3dbc8e59	0.09206838
19	0xbe12fb9f	-0.14353798

hidden_cell f4 [1, 1, 20]
0	0xbca3fa7d	-0.020016903
1	0xbe0eb692	-0.13936833
2	0xbe20d4d9	-0.15706195
3	0xbdb4d976	-0.0883054
4	0xbe10a31a	-0.14124718
5	0x3d1a7ee0	0.037718654
6	0x3d26909b	0.04066525
7	0xbce6507b	-0.028114548
8	0xbe123727	-0.14278851
9	0xbd85a57d	-0.06525705
10	0xbe1dc9b0	-0.15408969
11	0x3ce84091	0.0283511
12	0xbdf2b5ae	-0.11851059
13	0x3cb6eae0	0.022328794
14	0xbcb08b4c	-0.021550797
15	0xbe172c66	-0.1476303
16	0xbd188667	-0.03723755
17	0xbe6608c0	-0.22464275
18	0x3e5306e3	0.20608096
19	0xbebdc7b5	-0.37066427
