mlruns/0/ebaf5693c4da45ebbc96c8dbee9ee4d1/artifacts/model/data/model.pth (torch, 14120 bytes, 7 tensors)

weight_ih_l0 f4 [80, 1]
0	0x3dbe5ebb	0.09295412
1	0x3df2c3af	0.1185373
2	0x3dfa4775	0.122206606
3	0x3ee20cc1	0.44150355
4	0xbe18002d	-0.14843817
5	0xbcadeb6e	-0.021230426
6	0x3d0f35e3	0.0349635
7	0x3df11af5	0.1177272
8	0x3e0dc6c6	0.13845357
9	0x3e916d72	0.28403813
10	0x3ea83d35	0.32859197
11	0x3e699242	0.22809699
12	0xbcd40f7e	-0.025886294
13	0xbe213aa8	-0.15745032
14	0x3a86bdc9	0.0010279949
15	0x3df0f2cd	0.117650606
16	0x3e920e67	0.28526613
17	0xbda466de	-0.08027433
18	0x3e83f58b	0.25773272
19	0x3e30bfe6	0.17260703
20	0x3e98b322	0.29824167
21	0x3e4665a7	0.19374715
22	0x3e3a215b	0.18176787
23	0x3e8141e6	0.2524559
24	0xbe3c3c6d	-0.18382426
25	0xbda2f136	-0.079561636
26	0x3db4450d	0.08802233
27	0x3e027288	0.12739003
28	0xbcb0584b	-0.021526476
29	0x3ddd3de6	0.10802822
30	0x3e9f68bd	0.31134596
31	0x3ec6dbc6	0.3883955
32	0xbe6389d2	-0.22220543
33	0xbd8aefb2	-0.067839995
34	0x3e7770e1	0.24164154
35	0x3e482e0c	0.19548815
36	0x3ea3b970	0.31977415
37	0xbe0eb505	-0.13936241
38	0x3e6d7b76	0.23191628
39	0x3dfa8e61	0.12234188
40	0x3f0eecd1	0.55830103
41	0x3dfe2929	0.124101944
42	0xbec462ac	-0.3835653
43	0x3ecbf360	0.39834118
44	0x3e0d5317	0.13801228
45	0xbe606761	-0.21914436
46	0xbe9a6ed8	-0.30162692
47	0x3f32a220	0.69778633
48	0x3e873a46	0.26411647
49	0xbf09cfd5	-0.5383275
50	0x3ef57517	0.47940895
51	0x3eadd812	0.3395391
52	0x3ead57f6	0.3385617
53	0x3e4e288d	0.20132656
54	0xbc6f22f3	-0.014595735
55	0x3ee22bc9	0.4417403
56	0xbed222b7	-0.4104211
57	0x3ee4bcb5	0.44675222
58	0xbe06b07f	-0.13153265
59	0x3e0fbd73	0.14037113
60	0x3e34c6e3	0.17653994
61	0xbd5e726c	-0.05430834
62	0x3db07b82	0.08617307
63	0x3ed6fb9d	0.4198884
64	0x3e44074e	0.19143412
65	0x3dd8c687	0.10584741
66	0x3e94215e	0.28931707
67	0x3eb65da2	0.3561831
68	0xbc1da72c	-0.009622376
69	0x3e713590	0.23555589
70	0x3d8ea9c0	0.06965971
71	0x3d737d53	0.05944569
72	0x3e5a7081	0.2133198
73	0xbca38913	-0.019962823
74	0x3ebb963c	0.36638057
75	0x3ebf439f	0.37356278
76	0x3ec3dbcd	0.38253632
77	0xbe2ced49	-0.16887392
78	0x3e46fb3d	0.19431777
79	0xbe784573	-0.24245243

weight_hh_l0 f4 [80, 20]
0	0x3c926e10	0.017874748
1	0x3e838fc0	0.2569561
2	0xbeba2b16	-0.36360997
3	0x3edba8f9	0.42902353
4	0x3e980e2e	0.29698318
5	0xbe8c35c9	-0.27384785
6	0xbe6ffeeb	-0.23437087
7	0xbc4ed02c	-0.012622874
8	0x3dcf951d	0.10135863
9	0xbea353c2	-0.3189984
10	0x3eb680e9	0.35645226
11	0x3da5ed15	0.081018604
12	0x3da2ca2a	0.07948716
13	0xbd5dc8ee	-0.0541467
14	0xbdc671f9	-0.09689707
15	0x3e0bc449	0.13649096
16	0xbce3d90a	-0.027813453
17	0x3e0cd5d6	0.13753447
18	0xbe38b719	-0.18038596
19	0xbd574d99	-0.052564237
20	0x3e00c4c2	0.12575057
21	0xbc630498	-0.013856076
22	0xbcb1186c	-0.02161809
23	0x3e031efd	0.1280479
24	0xbe4d4230	-0.2004478
25	0x3e001fde	0.12512156
26	0x3dcbd2b9	0.099523015
27	0x3e8f0b6b	0.279384
28	0x3e4029a0	0.18765879
29	0x3c01aa48	0.007914133
30	0x3df29122	0.11844088
31	0x3e2dbf24	0.16967446
32	0x3e8ea3c1	0.2785931
33	0x3e1de580	0.15419579
34	0xbe32011c	-0.17383236
35	0x3e050cc5	0.12993152
36	0xbe4e361a	-0.20137826
37	0x3de0ed92	0.10982813
38	0xbdc63589	-0.0967818
39	0x3e4c6812	0.19961575
40	0x3d26f6ea	0.04076282
41	0xbe987adc	-0.29781234
42	0xbe34a364	-0.17640454
43	0x3e101839	0.1407174
44	0xbe45bdb1	-0.19310643
45	0xbe32a281	-0.17444803
46	0x3e0b4580	0.13600731
47	0xbe40a199	-0.18811645
48	0x3db861c2	0.09003021
49	0xbdf45cb9	-0.11931748
50	0x3d2cf09b	0.042221647
51	0xbd79139e	-0.060809724
52	0x3e000770	0.12502837
53	0x3e6edbb1	0.23325993
54	0xbe1e01f6	-0.15430436
55	0xbdce98ae	-0.10087715
56	0xbd901217	-0.070347
57	0xbd630377	-0.055423226
58	0xbc79a863	-0.0152379
59	0x3dcdada9	0.10042889
60	0xbe5e2f3b	-0.21697704
61	0xbdccf73f	-0.10008096
62	0xbe3c94bd	-0.18416114
63	0x3db88550	0.09009802
64	0x3e4948a9	0.19656624
65	0xbe0e5899	-0.13900985
66	0x3dfa9eac	0.122372955
67	0xbdc589ec	-0.09645447
68	0x3d03fa60	0.032221198
69	0xbe123784	-0.1427899
70	0xbe18f332	-0.14936522
71	0xbccfa653	-0.025347864
72	0x3dc04c3d	0.09389541
73	0x3dc769cc	0.09736976
74	0x3d5e913b	0.05433772
75	0x3e3cce01	0.18437959
76	0x3e24383b	0.16037075
77	0xbe1bb5fb	-0.15206139
78	0xbd6b4c17	-0.05744561
79	0xbe1aa6b2	-0.15102652
80	0xbd33325c	-0.0437492
81	0xbe2c4c8e	-0.16826078
82	0x3e5cb54a	0.21553531
83	0x3dac29cf	0.08406412
84	0x3da4064b	0.08009013
85	0xbe23bda7	-0.15990315
86	0xbde04d73	-0.10952272
87	0xbbf76668	-0.0075500496
88	0x3cd35a52	0.025799904
89	0xbdfb9c7a	-0.12285705
90	0xbe4951d7	-0.19660126
91	0xbd5a274b	-0.05326013
92	0x3d0c27be	0.03421759
93	0x3cf0237a	0.029313792
94	0xb98d4e9d	-0.00026952187
95	0xbe428c33	-0.18998794
96	0x3e32491c	0.17410702
97	0x3de69a30	0.11259878
98	0x3ddafe8d	0.10693083
99	0x3b1d76da	0.002402714
100	0xbc8ae771	-0.016956063
101	0xbe9fb69e	-0.31194013
102	0xbdb723d8	-0.089423835
103	0x3e196ada	0.14982167
104	0x3e4fa05a	0.20276013
105	0x3e5c0b45	0.21488674
106	0xbe274eff	-0.16338728
107	0xbc28dd5d	-0.010306683
108	0x3e60d812	0.21957424
109	0xbd1519d0	-0.03640157
110	0xbc618d16	-0.013766548
111	0xbda5e6e4	-0.081006795
112	0xbe5dc642	-0.2165766
113	0x3ea45f40	0.3210392
114	0x3e3e8a86	0.1860753
115	0xbde31919	-0.110887714
116	0xbdffc4d0	-0.12488711
117	0xbdb1a82a	-0.08674653
118	0xbe154a72	-0.1457918
119	0x3e106bf1	0.14103676
120	0xbea52403	-0.32254037
121	0xbe8cf60c	-0.2753147
122	0x3e5bf349	0.21479525
123	0xbdf7c871	-0.12098778
124	0x3ac556bd	0.0015055757
125	0x3dc702ef	0.097173564
126	0x3e2540c7	0.16137992
127	0xbe5ee1ef	-0.21765874
128	0x3e0d35b2	0.13790014
129	0x3d877450	0.06613982
130	0xbe4a55dd	-0.19759317
131	0x3d72f122	0.059311993
132	0x3c895394	0.016763486
133	0x3d6713fb	0.05641554
134	0x3e43ffa1	0.19140483
135	0x3b661e9e	0.0035113464
136	0xbe134d17	-0.14384876
137	0x3dbcfba3	0.092276834
138	0x3e6f7e5d	0.23388048
139	0xbdc0745b	-0.09397193
140	0x3d3d2964	0.04618205
141	0x3e4ebebb	0.20189945
142	0x3d925336	0.071447775
143	0x3bfd5ee7	0.0077322605
144	0x3e4f7b02	0.20261768
145	0x3dc35c82	0.09539129
146	0xbdafbb1f	-0.085806124
147	0x3d3354ac	0.04378192
148	0xbdb7157c	-0.08939645
149	0xbcb6cd29	-0.022314625
150	0xbdae0da6	-0.08498697
151	0x3e64a290	0.22327638
152	0x3d26f230	0.04075831
153	0x3d6a2d15	0.0571719
154	0xbe48b8fe	-0.19601819
155	0x3e77b6a3	0.24190764
156	0x3e1ed253	0.1550992
157	0xbf029ee7	-0.51023716
158	0xbe1da5f2	-0.15395334
159	0xbe56f065	-0.2099014
160	0xbe00eec7	-0.12591086
161	0xbd414dd9	-0.047193382
162	0xbe6c487f	-0.2307453
163	0xbdddd86f	-0.10832297
164	0x3d267d91	0.040647093
165	0xbd8fe021	-0.07025171
166	0x3cd1b38f	0.025598316
167	0x3dd3ff07	0.10351377
168	0xbd880da9	-0.066432305
169	0xbe06eb5e	-0.13175723
170	0x3df73372	0.12070359
171	0x3df2d53f	0.1185708
172	0xba499258	-0.00076893484
173	0x3d244a75	0.04011007
174	0xbe231b21	-0.15928318
175	0x3df40bc0	0.11916304
176	0xbe00f964	-0.12595135
177	0xbe37f455	-0.17964299
178	0x3d5c9def	0.053861555
179	0xbe14da83	-0.1453648
180	0xbe46ba71	-0.19407059
181	0xbe11e668	-0.1424805
182	0xbe83e10f	-0.25757644
183	0x3d9f3ce0	0.07775283
184	0xbd90d1bd	-0.070712544
185	0x3c89b9a9	0.016812162
186	0xbeae6b74	-0.34066355
187	0xbe310cfc	-0.1729011
188	0xbe014aed	-0.12626238
189	0x3e637305	0.22211845
190	0x3ce43fc5	0.027862439
191	0x3e63e36a	0.2225472
192	0xbde46e3c	-0.11153838
193	0xbe1620f3	-0.14661007
194	0xbe21c449	-0.15797533
195	0xbe3af900	-0.18259048
196	0x3b9903f1	0.0046696593
197	0xbe9194fa	-0.28433973
198	0xbd9362e8	-0.07196599
199	0xbe81ed6d	-0.25376454
200	0xbce994b7	-0.028513296
201	0xbe69c119	-0.22827567
202	0x3d15dee9	0.036589537
203	0xbd83c09e	-0.06433223
204	0x3cb3b232	0.021935556
205	0xbe061054	-0.13092166
206	0x3c1ab1c9	0.009441801
207	0x3d804e93	0.06264987
208	0xbe564902	-0.20926288
209	0xbe800d45	-0.25010124
210	0xbb74c4f5	-0.003734884
211	0xbe70204c	-0.2344982
212	0xbe4d4aec	-0.20048112
213	0xbdecb1c0	-0.115573406
214	0xbe7f6697	-0.24941479
215	0x3d2de4d1	0.042454544
216	0xbdb08af1	-0.08620251
217	0xbd9ce9c6	-0.07661776
218	0x3dd1f0ed	0.10251031
219	0x3db93df1	0.090450175
220	0x3e983c6c	0.29733598
221	0x3db94bab	0.09047636
222	0x3d85f8e4	0.06541613
223	0x3e0455eb	0.129234
224	0xbdcd1dd6	-0.100154564
225	0x3b3f6609	0.0029205105
226	0xbea79873	-0.32733497
227	0x3ce507d0	0.027957827
228	0x3d3c9915	0.046044428
229	0xbea20030	-0.31640768
230	0x3e45696b	0.19278495
231	0x3ec25e6d	0.37962666
232	0xbd3ea0fe	-0.046540253
233	0xbc57c82e	-0.013170285
234	0x3bda38fe	0.006659626
235	0x3d50a56c	0.05093901
236	0xbd15f3df	-0.036609527
237	0x3cd9aee5	0.026572654
238	0xbe1b330b	-0.1515619
239	0xbe023672	-0.12716082
240	0xbe23a20c	-0.15979785
241	0xbde0368b	-0.10947903
242	0x3d9c0501	0.07618142
243	0x3dbafd13	0.09130301
244	0xbe0eb57c	-0.13936418
245	0xbe42e972	-0.19034365
246	0x3d4f3329	0.0505859
247	0xbdccc3ca	-0.09998281
248	0xbe5b36ca	-0.21407619
249	0xbda62aa0	-0.08113599
250	0x3c36a2ee	0.011147244
251	0x3d90762b	0.07053789
252	0xbcc1078b	-0.023563167
253	0xbbfc99e3	-0.0077087744
254	0x3e29b73f	0.16573809
255	0x3e1cd7bd	0.15316673

bias_ih_l0 f4 [80]
0	0x3ea883ab	0.32912955
1	0x3da2c2ac	0.07947287
2	0xbdd2fe4e	-0.10302411
3	0xbe4d2933	-0.20035248
4	0xbe711177	-0.23541819
5	0xbe03ea9a	-0.12882462
6	0xbe524019	-0.20532264
7	0x3dae9e14	0.08526245
8	0xbdcba589	-0.09943683
9	0x3e7f89a0	0.24954844
10	0x3e3aa87a	0.18228331
11	0x3e8d9e23	0.2765971
12	0xbe1244e3	-0.1428409
13	0xbea62e36	-0.3245713
14	0x3dab10dc	0.08352825
15	0x3e82e592	0.25565773
16	0xbdc1f97f	-0.09471416
17	0x3e099995	0.13437493
18	0xbe09310d	-0.13397618
19	0xbe40f5e8	-0.18843806
20	0x3e87b653	0.2650629
21	0xbddcf533	-0.107889555
22	0xbd21d361	-0.039508227
23	0xbe339e04	-0.17540747
24	0xbe0b055a	-0.1357626
25	0x3a84e3b2	0.0010138659
26	0xbd84a5de	-0.06476949
27	0xbdbb8e8a	-0.091580465
28	0x3e5d85e5	0.21633108
29	0xbe743f51	-0.23852278
30	0x3c92bf49	0.017913477
31	0xbdace2b1	-0.084416755
32	0x3e0d81a2	0.13818982
33	0x3da78f7f	0.081816666
34	0xbe5782c7	-0.21045981
35	0x3e2f7edb	0.17138235
36	0x3e034522	0.12819341
37	0xbe10ad3f	-0.14128588
38	0x3de6559a	0.11246796
39	0xbe242744	-0.16030604
40	0xbe0610c8	-0.13092339
41	0xbc59f69e	-0.013303427
42	0xbe22362d	-0.15840979
43	0x3de6f789	0.11277682
44	0x3e379564	0.17928082
45	0xbe4a7138	-0.19769752
46	0xbe27eff9	-0.16400136
47	0x3dd11c30	0.102104545
48	0x3e261bec	0.16221589
49	0xbd24809b	-0.04016171
50	0xbd5195f8	-0.051168412
51	0xbe341155	-0.17584737
52	0x3caf2dc5	0.02138413
53	0x3e151ff0	0.14562964
54	0x3be62dba	0.007024494
55	0x3e1036c9	0.14083399
56	0xbdf98d9d	-0.12185214
57	0xbdf0616f	-0.11737334
58	0xbd242caf	-0.040081676
59	0xbcf7bff7	-0.030242903
60	0x3f038950	0.513814
61	0x3e0246d7	0.12722336
62	0xbe2ed6ff	-0.17074202
63	0xbbe4882b	-0.0069742403
64	0x3df32ac9	0.11873395
65	0x3e58f51c	0.21187252
66	0xbd505212	-0.05085952
67	0x3edbdce8	0.42941976
68	0xbe0dc3d4	-0.13844234
69	0x3daae75f	0.08344912
70	0x3d7b8dc5	0.0614145
71	0x3e9e1ac2	0.3087979
72	0xbdcc16f0	-0.099653125
73	0xbdc57fbd	-0.09643505
74	0xbe525367	-0.20539628
75	0xbe0776dc	-0.13228935
76	0x3e7cbac1	0.24680616
77	0xbe3ede89	-0.18639578
78	0xbe448b3f	-0.19193743
79	0xbe765659	-0.24056377

bias_hh_l0 f4 [80]
0	0x3e379e5d	0.17931505
1	0x3d61e741	0.05515218
2	0x3e0aec50	0.13566709
3	0x3e45365f	0.19259022
4	0xbe52ceb1	-0.20586659
5	0x3d7bfe51	0.061521832
6	0x3d96ffbe	0.07372998
7	0x3e050b8a	0.12992683
8	0xbc0261e8	-0.007957913
9	0x3db27e00	0.08715439
10	0xbd9c832a	-0.07642205
11	0x3e4f0a99	0.20218886
12	0xbde143f6	-0.10999291
13	0x3dce6067	0.10076981
14	0xbde98ffc	-0.11404416
15	0xbc9ad5b9	-0.018900739
16	0x3e27e417	0.16395603
17	0x3db17f30	0.08666837
18	0x3b2a8a2f	0.0026022305
19	0x3d26096d	0.040536333
20	0x3e18d947	0.14926635
21	0xbe37b4d0	-0.17940068
22	0xbcf0d65d	-0.029399091
23	0x3e2a0c88	0.16606343
24	0xbdd044fd	-0.101694085
25	0xbe015f87	-0.12634097
26	0xbe499ec2	-0.19689468
27	0x3cc95308	0.024575725
28	0x3d9880ae	0.07446419
29	0xbe225ee3	-0.15856509
30	0x3d799017	0.06092843
31	0x3db8e9a3	0.09028938
32	0xbe053e5c	-0.1301207
33	0x3dc6521f	0.09683632
34	0x3e235959	0.15952052
35	0xbe56f96b	-0.20993583
36	0xbce71a8c	-0.0282109
37	0xbe4da2d2	-0.20081642
38	0x3e226704	0.1585961
39	0xbdb6f6a6	-0.08933763
40	0x3bb4be0c	0.0055158194
41	0xbd9592be	-0.073033795
42	0x3d3551fa	0.044267632
43	0x3e001578	0.1250819
44	0xbe3ec6d0	-0.18630528
45	0x3e20cbdc	0.15702766
46	0xbe48bec5	-0.19604023
47	0xbe40be3a	-0.18822566
48	0xbe1a32d6	-0.15058455
49	0x3d4e71cd	0.050401498
50	0x3cb958a2	0.022625271
51	0x3e434e67	0.19072877
52	0xbda5339d	-0.08066485
53	0xbd4da0df	-0.050202247
54	0xbe3bd795	-0.18343957
55	0xbe16690d	-0.14688511
56	0x3da2e3cc	0.07953605
57	0xbd8d871b	-0.06910535
58	0xbd6b7d95	-0.05749281
59	0xbd7c450f	-0.061589297
60	0x3e3dbd50	0.18529248
61	0xbdb98d10	-0.09060109
62	0x3e4f2f5b	0.20232908
63	0x3aeff216	0.00183064
64	0xbdd83229	-0.10556442
65	0xbd9c36e3	-0.07627656
66	0xbd3f08ee	-0.046639375
67	0x3ede80d4	0.43457663
68	0x3e2dd922	0.16977361
69	0x3ddc18f7	0.10746949
70	0x3e816f99	0.25280455
71	0x3ebb74bd	0.36612502
72	0xbd21afde	-0.03947436
73	0xbe19eb2e	-0.1503112
74	0xbda72ba4	-0.08162621
75	0x3e5807da	0.21096745
76	0x3e449c09	0.19200148
77	0xbd41b4ef	-0.047291692
78	0xbd98d6c5	-0.07462839
79	0xbe74e21e	-0.23914382

weight f4 [1, 20]
0	0x3e88282f	0.26593158
1	0x3e0d2851	0.1378491
2	0xbe9c0972	-0.30475956
3	0x3dd26214	0.10272613
4	0x3de93b00	0.113882065
5	0xbe258826	-0.16165218
6	0xbe524c44	-0.20536906
7	0x3e9ffabc	0.31245983
8	0x3e087478	0.1332568
9	0xbe885c89	-0.266331
10	0x3e6a0296	0.22852549
11	0x3e81d76b	0.25359663
12	0x3dff2ca4	0.124596864
13	0xbd9fd203	-0.078037284
14	0xbe15b36a	-0.14619222
15	0x3e87eecc	0.26549375
16	0xbe3fef4d	-0.1874363
17	0x3e565fbf	0.20934962
18	0xbddaa534	-0.10676041
19	0xbb80a84e	-0.0039263135

hidden_cell f4 [1, 1, 20]
0	0x3c8f3e21	0.01748568
1	0xbba32a93	-0.0049794405
2	0xbd807c94	-0.062737614
3	0x3e0f964b	0.14022176
4	0x3c0cf99f	0.008604436
5	0xbd60d31e	-0.054888837
6	0xbe15eb47	-0.14640532
7	0x3896b22d	7.185745e-05
8	0x3c4fae5f	0.012675851
9	0xbc1d8f68	-0.00961671
10	0x3d14f482	0.036365993
11	0x3d4cb905	0.049981136
12	0xbc01fdb5	-0.007934024
13	0x3c094ae6	0.008379674
14	0xbd9debc3	-0.077109836
15	0x3d2b0c53	0.0417598
16	0xbd3da81b	-0.046302896
17	0xbcf7fa5d	-0.03027075
18	0xbd417046	-0.047226213
19	0xbc120685	-0.008912687

hidden_cell f4 [1, 1, 20]
0	0x3cc944a3	0.024568861
1	0xbc1daefd	-0.00962424
2	0xbdf59508	-0.11991316
3	0x3e90410b	0.28174624
4	0x3c8abc91	0.016935619
5	0xbdce0a17	-0.10060518
6	0xbe9fbbc9	-0.31197956
7	0x38cb2ec4	9.688505e-05
8	0x3ccb565c	0.024821453
9	0xbc877ec1	-0.016539933
10	0x3d7a8514	0.06116207
11	0x3d9558cf	0.072923295
12	0xbc84670b	-0.016162416
13	0x3ca18807	0.019718183
14	0xbe377c3a	-0.17918482
15	0x3d9fcfa8	0.07803279
16	0xbd98317a	-0.07431312
17	0xbd8d5495	-0.06900898
18	0xbddfcc09	-0.109275885
19	0xbcc7d90c	-0.024395488
