mlruns/0/41b8c91a1fd2453eac1013b55165308a/artifacts/model/data/model.pth (torch, 14120 bytes, 7 tensors)

weight_ih_l0 f4 [80, 1]
000000 a5 44 b8 3d 23 d4 71 3e 28 19 15 3e 8d 1a 8c 3d
       0.08997468 0.2361608 0.14560378 0.06841002
000010 5e 11 0e 3d 80 27 78 3e cd c0 f3 3e 14 68 a8 3e
       0.03468453 0.24233818 0.47608033 0.32891905
000020 dd 27 7a 3e 2b ee 98 3d 9e 91 0a 3e 9f e8 b3 3c
       0.24429269 0.07467302 0.13532111 0.021961508
000030 b4 9f 88 3c 1a 2e 74 3e 4b 68 69 3e b1 80 86 3e
       0.016677715 0.23845711 0.22793691 0.2627006
000040 fa 36 6c bd a5 86 b4 3e a9 ed 1d 3e fb 92 c2 3e
       -0.057669617 0.35258976 0.15422691 0.38002762
000050 8b f1 0d be 8f 0a 8f be 3e 18 b5 3d f1 25 f1 bd
       -0.13861673 -0.27937743 0.088425145 -0.11774815
000060 e6 d3 f8 3a b4 38 1d bc 0a e8 af b9 07 47 16 be
       0.0018984049 -0.009596039 -0.00033551484 -0.14675532
000070 65 4c 87 3e d0 df 90 3e cf 9d d0 be 28 44 c1 3e
       0.26425472 0.28295755 -0.40745398 0.37747312
000080 06 04 d8 bd 91 27 a3 3e 67 98 1e b9 7c 42 e4 bc
       -0.105476424 0.31866124 -0.00015124828 -0.027863733
000090 d6 f0 b9 bd 19 49 56 3d cc ec e6 3d bc 9e 11 3e
       -0.09079139 0.052315805 0.11275634 0.14220709
0000a0 89 76 a6 3e c9 e5 19 3f 5d b7 9c 3e db 9f 48 be
       0.3251231 0.6011625 0.30608645 -0.1959223
0000b0 c5 25 de be 6c 04 e1 3e 91 4b 00 bf 65 cc 0c bf
       -0.4338819 0.43948686 -0.50115305 -0.5499938
0000c0 0a 62 cf be f6 d3 17 3f 4a 0e 02 bf 10 aa 0e be
       -0.40504485 0.593078 -0.50803053 -0.13932061
0000d0 f8 08 01 3e 22 e9 80 be ea 8a 0d ba ea 05 ee 3e
       0.12601078 -0.25177866 -0.0005399423 0.46488887
0000e0 70 d1 b8 be 93 55 05 3f 80 db 08 bf 6a 80 06 3f
       -0.36097288 0.520837 -0.5345993 0.52539694
0000f0 2d e1 06 3e 87 a4 c8 3e d1 c7 d5 bc af 32 a3 bd
       0.13171835 0.39188024 -0.026096256 -0.079686515
000100 dc c2 dd 3d 64 e7 64 3e 87 5d ac 3e 74 2b 2c 3e
       0.10828182 0.22353894 0.33665106 0.16813451
000110 9e 2a a3 3e 31 6d 89 3e f7 55 04 be 59 0f e4 3e
       0.31868452 0.2684112 -0.12923418 0.4454296
000120 72 a8 5a bc 45 53 a8 3e 0c 67 ee 3e 10 ff e8 bd
       -0.013345825 0.3287603 0.46562994 -0.11376774
000130 82 e7 8d 3e ee d0 8c 3e 99 dd 02 3f e6 1d 72 3e
       0.2771569 0.2750315 0.5111938 0.23644218

weight_hh_l0 f4 [80, 20]
000000 9f 0b f3 3d 2a 69 44 3c 1e 5d 1f 3e ce 3f 6f 3e
       0.11867451 0.011987964 0.15562865 0.23364183
000010 9a b6 2e 3e 00 5c 0f be dd 52 71 bd 87 7c 84 3e
       0.17061844 -0.13999939 -0.058916915 0.25876257
000020 80 8d 7d 3e a6 d3 08 3d 25 45 63 bb cd b6 9e bd
       0.24761009 0.03340497 -0.0034678665 -0.0774971
000030 c1 2b 41 be a8 2b 16 3e 0f 7b 93 bd 50 fc 83 3d
       -0.18864347 0.14665091 -0.07201206 0.06444609
000040 28 dc ec 3d 4a cf 20 be 2c b0 ba 3d d0 0c ab be
       0.11565429 -0.15704075 0.09115633 -0.33408213
000050 9d f0 86 3d e8 3d ba bd d9 05 38 be 61 0c ca 3d
       0.06588862 -0.09093839 -0.1797098 0.09865642
000060 de 77 0b be 76 f3 52 bc 67 82 6c be f2 52 8c 3d
       -0.13619944 -0.012875428 -0.2309662 0.06851758
000070 5a c0 8f be 1b ee a8 3d 21 aa 09 3c 3c 4a 89 be
       -0.2807644 0.0824854 0.008402378 -0.2681445
000080 67 36 95 bc 5a c7 0a be 81 4b 84 be 1a 7c 0c be
       -0.018214418 -0.13552609 -0.25838855 -0.13719216
000090 c5 8a 73 3e e1 47 aa bd be 98 91 be bf 5c a9 3d
       0.23783405 -0.08314491 -0.28436846 0.08269643
0000a0 14 02 28 3d 2e f1 de 3d 8f 3d 02 be a0 8f 4b 3d
       0.041017607 0.10885845 -0.12718795 0.04969752
0000b0 4d 40 5d 3e 22 2f 7f be 7e 8e 26 3b cf 98 f4 3d
       0.2160656 -0.24920323 0.0025414522 0.119432084
0000c0 f3 3c 85 3e 80 0b 99 bc 82 32 5f bd e5 4a 8c bc
       0.26023063 -0.018682241 -0.054491527 -0.017125556
0000d0 2f 0e 53 3e 41 0c f1 bd b2 3a dc 3d 40 9b 5d be
       0.2061088 -0.11769915 0.10753383 -0.21641254
0000e0 3a 93 21 bd 0d 7e 80 be 01 f3 a8 3e 66 bd 5b be
       -0.039447047 -0.2509617 0.32997897 -0.21458969
0000f0 5a 21 91 bb 44 0d cd bd d7 e0 46 be bf 0a 8a bd
       -0.0044290246 -0.10012296 -0.19421707 -0.06740331
000100 7f c4 c8 3d 9f c7 09 be 8d f5 5e bd 1f d9 54 3e
       0.09803104 -0.13455056 -0.054433394 0.2078595
000110 63 22 ab bd 82 95 0c bd 90 cd 1a 3e 10 a0 79 bc
       -0.08356168 -0.03432227 0.15117478 -0.015235916
000120 5b ca 9d bd f7 0e 2a 3e 66 ab 2d 3e 4a 95 79 3a
       -0.07704612 0.16607271 0.16959915 0.0009520842
000130 6f 33 00 be c5 ac 1a 3e 1d a9 96 bd 15 5c f8 3d
       -0.1251962 0.15104969 -0.073564745 0.12126938
000140 04 7a 02 be 61 ed 56 be ff fa 8b 3d e0 1c c8 3d
       -0.12741858 -0.2098899 0.06834983 0.097711325
000150 d8 a4 17 3e 06 cd 0d be 3a a9 47 be 3f 48 5d bd
       0.14808977 -0.13847741 -0.19498149 -0.054023977
000160 2d a5 b7 bd 66 59 21 3d 3c 31 c1 3e 21 65 3c be
       -0.08967052 0.039391898 0.37732875 -0.18397953
000170 59 38 b3 bd ce 81 98 bc 83 cf 0e bc a0 70 8a 3c
       -0.08750982 -0.018616583 -0.008716467 0.016899407
000180 c3 4e 0d 3e 1c ff 94 be d4 63 b2 3d 2e bf 76 be
       0.13799576 -0.29100883 0.08710447 -0.24096367
000190 5d ce 0f be f6 a6 21 bd 6e 89 d8 bd ab 4c ba 3d
       -0.14043565 -0.039465867 -0.10573088 0.090966545
0001a0 13 de 45 3e a2 fc 1f bd db 67 88 be d3 34 4e 3e
       0.19322996 -0.03905929 -0.26641735 0.20137338
0001b0 52 48 ec bd 62 7b bb 3d 8b 7d b3 bd 64 2d dc bd
       -0.115372315 0.09154393 -0.0876418 -0.10750845
0001c0 f2 13 0f be 97 44 16 be cb 66 33 bd 7b 19 ae bd
       -0.13972452 -0.14674602 -0.043799203 -0.08500954
0001d0 dd 08 fd 3c 49 17 08 3e a5 e9 44 bd 43 07 3b be
       0.030888015 0.13290133 -0.048074383 -0.18264489
0001e0 48 fa 89 bc 3b b4 2f be 93 3d 42 bc b3 c4 4d bd
       -0.016842976 -0.17158596 -0.011855501 -0.050236415
0001f0 f1 43 b6 bd 89 bd 37 bd 75 f9 76 3d 00 2e 2d 3e
       -0.088996775 -0.04485849 0.060296495 0.16912079
000200 3a 01 77 bd db 23 9f 3d 2b 06 81 3e b4 33 2a be
       -0.060303904 0.07770511 0.25200018 -0.16621286
000210 aa 5a 12 be 73 3f 98 3d 66 99 ed bd ec 44 73 bd
       -0.14292398 0.07433977 -0.11601524 -0.0593919
000220 65 23 8e 3c 1d 78 7d bd 4b 69 1d be 89 61 68 3b
       0.017350862 -0.061882127 -0.15372197 0.0035458526
000230 a7 c5 99 3e 07 a4 2a 3c 3b 2e 9b 3c 65 68 1f 3e
       0.3003361 0.010415084 0.018942943 0.15567167
000240 74 27 73 be 44 61 e0 bd 66 1d 57 be f8 65 b8 3d
       -0.23745519 -0.10956052 -0.21007308 0.09003824
000250 5c 73 91 be 72 d9 8f 3b 5d 56 14 3d 1a 0a 28 3b
       -0.28408325 0.004389935 0.036215175 0.0025640787
000260 ae 66 95 3d a3 ef 5c be 46 c2 51 bd 0e dc 91 3d
       0.07294975 -0.21575789 -0.051210664 0.0712205
000270 3d ae 30 3e 84 0e 1e be 0d 34 a0 be 0c 74 26 3d
       0.17253967 -0.15435225 -0.31289712 0.040638015
000280 00 8a 93 be f3 0f 05 be 58 0f 09 3e 9a 05 04 3d
       -0.28816223 -0.12994365 0.1338476 0.032231905
000290 3b 4d 8e 3d 3d a2 84 3d 71 2a 36 be b2 3a b7 bb
       0.06948324 0.06476257 -0.17789628 -0.005591714
0002a0 e5 82 b9 bd e2 7b c0 3c 20 f8 0d bc f5 e3 c6 3d
       -0.09058169 0.023496572 -0.008665115 0.09711448
0002b0 7a 0b 1e bd c1 3b 65 bd c0 52 c7 bd 3c 53 4c bd
       -0.038585164 -0.05596519 -0.0973258 -0.049884066
0002c0 db 57 18 bd ba 32 58 3d 99 fb ea 3d 1b 86 9d 3d
       -0.03719316 0.05278275 0.1147377 0.07691594
0002d0 25 48 cd ba 9f 63 23 be 53 21 a4 3b a6 a1 41 be
       -0.001566176 -0.15955971 0.0050088554 -0.1890932
0002e0 f2 a8 eb bd 1f da ce 3d 71 ce a5 bd b3 c7 42 3e
       -0.11506833 0.10100197 -0.08096016 0.19021492
0002f0 fc c1 53 be ef da 4c 3b 89 20 16 3e 80 32 03 bf
       -0.20679468 0.0031258424 0.14660849 -0.5124893
000300 76 68 8b 3d 9e fa 71 be d5 f5 02 bf f0 5c 71 bd
       0.06807034 -0.23630759 -0.5115636 -0.058926523
000310 2f c7 a5 3d 8e c7 44 3e dc 17 a8 be dc 4a 68 3e
       0.08094632 0.19216749 -0.32830703 0.22684807
000320 c1 fa 89 be 45 7d 17 be 9d fc c6 3d 76 fc 3a 3e
       -0.26949123 -0.1479388 0.09716151 0.18260369
000330 fe 53 ac 3d 92 31 fd bd fa 76 8e be 2f 18 1d 3e
       0.08414458 -0.123629704 -0.27825147 0.15341257
000340 6c e6 45 be f4 50 1a be a2 c8 85 3c 75 c6 ce 3d
       -0.1932618 -0.15069944 0.01633102 0.100964464
000350 23 52 f1 3a 47 e1 91 3d 3c d2 65 be 47 2f 8e bd
       0.001841132 0.07123046 -0.2244348 -0.06942611
000360 de 97 7b 3e f0 a7 a6 be 29 46 95 bd 6c 44 96 be
       0.24569651 -0.3255 -0.072887726 -0.29349077
000370 a3 dc 63 be 85 8b cc 3d ec e8 1f 3d e1 86 da bd
       -0.22252135 0.09987549 0.03904049 -0.10670257
000380 56 05 c2 3c 0d df 10 3d 29 97 50 3e de 45 2c 3e
       0.023684185 0.035368968 0.20370163 0.16823527
000390 20 b2 8f bd ed 04 74 bc 36 4b 88 bd 38 69 71 3c
       -0.070163965 -0.0148937525 -0.0665497 0.014734559
0003a0 15 44 fc 3c 57 2f fd 3d d4 4c 65 3e 3b 35 4e bd
       0.030794183 0.12362545 0.22392589 -0.050343733
0003b0 c1 45 13 3e 95 e7 a0 3d 77 cf 2b 3e 89 2c e6 bb
       0.14382078 0.07856671 0.1677836 -0.007024352
0003c0 8a ed 84 3b 69 4b 4a be 55 66 2a 3d f2 69 1a 3e
       0.004056637 -0.19755329 0.041601498 0.15079477
0003d0 27 69 06 3e 01 bc f6 bd af 1a 02 3e 68 33 e1 bd
       0.1312605 -0.12047578 0.12705491 -0.10996133
0003e0 2f 08 89 bd 4d 43 90 bd 23 9c ed bc 00 f4 2e 3e
       -0.06691014 -0.070440866 -0.029005116 0.17085266
0003f0 89 27 47 3e 7e 89 20 be 51 16 89 3d f7 b5 28 bd
       0.19448675 -0.15677449 0.0669371 -0.04118916

bias_ih_l0 f4 [80]
000000 83 f4 2d be 84 3f ce 3e 2a 7b d3 39 3b a6 43 be
       -0.16987805 0.40282834 0.0004033682 -0.1910638
000010 6e 7c 37 3d 8f 8e 97 3e 60 b5 c7 bd ca d6 80 3d
       0.0447964 0.2960095 -0.097513914 0.06290968
000020 70 41 dd bc d3 fa 8f 3e 98 3d e8 3d 55 74 3e 3d
       -0.027008742 0.2812105 0.11339873 0.04649766
000030 ae 88 4a 3e cc 5b 18 3d 60 cc 2e bc 50 6f 76 bd
       0.19778702 0.03719692 -0.010668844 -0.06016475
000040 76 1c 96 3e 03 ef c2 3e 03 45 91 3e 42 3b 0d 3f
       0.2931859 0.38072976 0.28372964 0.55168545
000050 d6 3e 96 bd a6 6a a6 be bd 57 64 be ec 6b 89 be
       -0.07336204 -0.3250324 -0.22299094 -0.2684015
000060 37 65 59 be c7 b2 ac bd ad fd bf 3d 3e 3a 4e be
       -0.21230017 -0.084325366 0.09374557 -0.20139405
000070 43 1a 10 be 1b c6 6a 3e 2d db 5d be 01 9f 1b 3d
       -0.14072518 0.22927134 -0.2166564 0.037993435
000080 bb 47 59 bd 0a e5 aa bd 9b 24 9b be 96 76 0f be
       -0.053046923 -0.08344467 -0.30301365 -0.1401008
000090 f5 f2 c4 3c 19 01 40 be 2f 47 39 be cc f3 8c be
       0.024041632 -0.18750419 -0.1809356 -0.27529752
0000a0 6c 37 d6 bd 2d 8c 0f be 8d c3 13 bd 5f 17 42 3e
       -0.1045979 -0.14018317 -0.036075164 0.18954228
0000b0 07 9a d2 bd e6 14 36 bd 01 7a 75 bd e6 73 25 bd
       -0.10283285 -0.044453524 -0.059930805 -0.040393732
0000c0 dc 11 0d be 90 27 28 be 04 e9 29 3e 4c 95 2f bd
       -0.13776344 -0.16421342 0.16592795 -0.04286699
0000d0 be 3c d6 bd 4c 67 06 3d fe 2d eb bd a1 7d 46 3d
       -0.104608044 0.032813355 -0.11483382 0.048459653
0000e0 94 a6 2b be 92 ce 63 be 36 1a 0d be 6a 46 06 be
       -0.16762763 -0.22246769 -0.1377953 -0.13112798
0000f0 81 29 3b be 35 fb 52 3e 36 6b 93 3d 76 b3 13 bd
       -0.18277551 0.2060364 0.07198183 -0.03605982
000100 c3 f7 75 bd d6 57 5e bc b8 32 1e be 1a 1a e5 3e
       -0.060050737 -0.013570746 -0.15449035 0.44746476
000110 0a 35 6e 3e 11 04 c6 3e 15 aa a7 3e 8b f6 b9 3d
       0.2326242 0.38674977 0.3274695 0.090802275
000120 af aa 0d bd 93 f8 4d 3e aa 36 99 bd 6e bc b7 3e
       -0.034586605 0.20114355 -0.074811295 0.35885948
000130 30 4e af 3e 30 84 3c 3e 53 a8 ec 3e d0 6a 6c 3e
       0.3423934 0.184098 0.4622217 0.2308762

bias_hh_l0 f4 [80]
000000 28 9b 36 3c 7f 6f b9 3e 01 1d 62 3d 15 34 a8 bd
       0.011145391 0.36217877 0.05520344 -0.08213059
000010 a9 ea 40 3e 77 f9 83 3e 3e 0b 8b 3d ca a4 dd 3e
       0.18839516 0.25776264 0.06789254 0.43289787
000020 7f 46 b1 bd eb d7 c2 3e d9 ba 8f 3e bf 0b 61 bd
       -0.08656024 0.38055357 0.2807224 -0.054942843
000030 54 0e 38 3e bc 9f 68 be 72 7b 8f bd 9e be 87 3e
       0.17974216 -0.22717184 -0.07005967 0.26512617
000040 04 27 0e 3e 58 29 43 3d 54 bb f8 3e 93 9d fc 3d
       0.13882071 0.04764685 0.4858042 0.123347424
000050 34 8e f8 bd c7 6b 69 bd 96 64 fd 3d 4a 6a 1a be
       -0.12136498 -0.05698755 0.12372701 -0.15079609
000060 a0 e3 23 bd 32 38 fb 3c 3c 11 1f bd dc 94 31 be
       -0.040012002 0.030666444 -0.038834795 -0.17341942
000070 57 b6 62 be b6 ad 87 3e ca 66 96 be 57 45 57 bd
       -0.2213987 0.26499718 -0.29375297 -0.052556362
000080 75 ab c7 3c 8c d8 91 3d 4d 37 20 be 2a a2 d3 3d
       0.02437375 0.07121381 -0.15646096 0.10333665
000090 81 67 be 3d ef 5d dd 3d 22 3f b9 bc 6a d9 80 be
       0.092970856 0.10808932 -0.022613112 -0.25165874
0000a0 92 ef 9b 3b 68 a7 2c bc 1f 0e 0b bd ed 89 14 be
       0.0047587836 -0.01053796 -0.033949014 -0.1450574
0000b0 8d b1 13 3e 80 19 12 bd 78 a0 a8 bd 8b 2a 1c 3e
       0.14423199 -0.03566885 -0.08233732 0.15250604
0000c0 65 50 00 bd 63 cd 8a 3d 89 51 47 bd 9c 8d e4 bd
       -0.03132667 0.06777456 -0.048661742 -0.11159822
0000d0 b0 86 eb 3d 37 03 b3 bd c2 c1 45 3b 69 b2 dc bd
       0.11500299 -0.087408476 0.0030175303 -0.107762165
0000e0 80 de 5b 3e de ff 05 3e 4e 2b 39 3e 62 2c c5 3d
       0.21471596 0.13085887 0.18082926 0.09627606
0000f0 e0 33 a4 3d 5d 64 51 3e 70 83 a0 3d e2 f0 88 3d
       0.08017707 0.20448442 0.0783757 0.0668657
000100 a1 23 47 3e 09 28 9b 3d c8 06 71 3e e0 c9 b8 3e
       0.19447185 0.075759955 0.23537743 0.36091518
000110 26 36 36 3c dc 40 8b 3e 39 2b 72 3e 78 b7 06 3d
       0.011121308 0.2719792 0.236493 0.032889813
000120 e8 e2 f8 bd f4 fe 0f 3d 9f 66 d2 3c d3 5b 39 3e
       -0.12152654 0.03515525 0.0256837 0.18101434
000130 88 71 21 bd da 52 da 3e 95 c3 ef 3e 2b 8b af 3e
       -0.039414912 0.42641336 0.46828905 0.34285864

weight f4 [1, 20]
000000 c7 f3 c8 3d a5 a6 a8 3e db 34 b8 3d 88 ca c0 bd
       0.09812122 0.3293964 0.089944564 -0.0941363
000010 94 40 1a be 3f 74 68 3e 5f 78 0b be 1a 8c 96 be
       -0.15063697 0.22700594 -0.13620137 -0.29403764
000020 8e 9a 5c be 2f a8 83 3e b3 c1 43 be e2 9b f1 bd
       -0.21543333 0.2571425 -0.19116859 -0.117973104
000030 5a c6 43 3e 40 0f 40 be 74 af 07 be 39 60 89 3e
       0.19118634 -0.18755817 -0.13250524 0.26831225
000040 80 c1 0e be 4e 88 80 3e 8f bb e6 be 02 b0 ab 3e
       -0.13941002 0.25103992 -0.4506497 0.3353272

hidden_cell f4 [1, 1, 20]
000000 d9 e0 6b bb 7e b0 10 bd fe 1e e1 bb da 5e 54 3b
       -0.0035992174 -0.035324566 -0.0068701496 0.0032405169
000010 53 2e 98 3b ea 81 a6 bc ee 93 9d bd 21 2c 2b 3d
       0.004644194 -0.02032562 -0.07694231 0.04179013
000020 74 b0 67 bd 9d 38 6e 3c 77 32 bc 3c 2b 20 9c bd
       -0.056564763 0.014539865 0.022973282 -0.07623323
000030 7d 10 0e 3d b6 5a 1a bd 4b 68 0f bd 9c a2 14 bd
       0.034683693 -0.037684165 -0.03501157 -0.03628789
000040 82 16 30 3c 51 d3 e3 bc 98 66 3f 3c 6b 7f 07 bc
       0.010747554 -0.027810724 0.011682175 -0.008270125

hidden_cell f4 [1, 1, 20]
000000 25 ab f7 bb 12 c3 64 bd 6c d4 52 bc ba 8c d4 3b
       -0.007558244 -0.055850096 -0.012868028 0.0064865025
000010 20 2b 0e 3c 80 cf 1b bd 6d ea 16 be 6e a4 70 3d
       0.008677274 -0.038039684 -0.14737864 0.058750562
000020 a3 c5 cd bd 6b 67 ad 3c d6 98 13 3d b8 ca 16 be
       -0.10047462 0.021167478 0.036034428 -0.14725769
000030 9e 68 99 3d de a2 8a bd 48 61 92 bd 26 7a 6c bd
       0.07490657 -0.06769346 -0.07147461 -0.057733677
000040 b4 8e 95 3c 10 6c 2b bd 53 a1 81 3c 47 e7 4d bc
       0.018256523 -0.041851103 0.015823996 -0.012567348
