mlruns/0/4c0463098d6d4e529605b7cb5e0fd1da/artifacts/model/data/model.pth (torch, 14120 bytes, 7 tensors)

weight_ih_l0 f4 [80, 1]
-0.027996562 -0.012874212 -0.0037517122 0.17025645 0.045140978 -0.12312982 0.32484382 0.27124438
0.30821925 -0.26029712 -0.15080291 0.35644266 0.017450262 -0.12984726 -0.19296668 0.1718937
0.06375 -0.0007266651 -0.051454205 -0.04082069 0.1920152 -0.17436877 -0.09206624 0.28639337
-0.15402594 0.08022189 0.1420709 0.20260757 -0.04250861 -0.047410138 0.08187365 0.021146737
-0.19659898 0.09637389 0.014499586 0.20665014 0.13762292 0.29705626 0.07213987 -0.017095009
-0.29213408 -0.014877047 0.08647396 0.39158306 0.05761184 0.13794114 -0.314559 -0.40928984
-0.015400289 -0.041546397 -0.023165694 0.300201 -0.02908422 -0.3466672 0.105993494 0.06428596
0.29446575 -0.0035628928 -0.1846057 -0.0007526833 0.31529614 0.19034305 -0.1593263 0.16090842
0.090602055 0.32547355 0.31024757 0.30931562 -0.026506206 -0.2992696 -0.039026935 0.34601158
0.15256537 -0.090159394 0.04820643 0.035442807 -0.043876056 0.09120673 0.19934882 0.05623371
00000000: 0c59 e5bc 5cee 52bc 49df 75bb b557 2e3e
00000010: bfe5 383d 7d2b fcbd ee51 a63e 8be0 8a3e
00000020: eace 9d3e aa45 85be 146c 1abe a77f b63e
00000030: daf3 8e3c aef6 04be 0f99 45be e704 303e
00000040: 5c8f 823d ab7d 3eba a5c1 52bd 9933 27bd
00000050: a29f 443e ba8d 32be 3a8d bcbd 27a2 923e
00000060: fab8 1dbe 604b a43d 097b 113e 5c78 4f3e
00000070: 821d 2ebd 2231 42bd 5fad a73d ec3b ad3c
00000080: 3e51 49be ad5f c53d ac8f 6d3c 189c 533e
00000090: 06ed 0c3e c217 983e 11be 933d d50a 8cbc
000000a0: 9992 95be dcbe 73bc 4219 b13d 937d c83e
000000b0: 65fa 6b3d 7140 0d3e e10d a1be 708e d1be
000000c0: 7e51 7cbc 8e2c 2abd fbc5 bdbc f2b3 993e
000000d0: 0842 eebc 5d7e b1be 1e13 d93d 5ba8 833d
000000e0: 37c4 963e 6c7f 69bb 4709 3dbe b94f 45ba
000000f0: 7f6e a13e 4ae9 423e 6f26 23be 2dc5 243e
00000100: 928d b93d 78a4 a63e c5d8 9e3e 9e5e 9e3e
00000110: 8b23 d9bc dd39 99be b5da 1fbd 6e28 b13e
00000120: 193a 1c3e 7da5 b8bd 1b74 453d 7a2c 113d
00000130: 61b7 33bd 98ca ba3d 1922 4c3e 5255 663d

weight_hh_l0 f4 [80, 20]
0.07731832 -0.060337182 0.0590021 -0.2396475 -0.25636494 -0.3014409 0.18958153 0.014410868
0.11805965 -0.15500367 0.030500228 -0.09107277 0.13068016 0.30078137 0.31639662 0.019447418
-0.13214265 -0.17036477 0.026177274 -0.14589174 0.21702495 -0.08238463 0.10066024 -0.15197758
-0.26330924 -0.00045364187 0.027473785 0.029184772 0.045123402 0.1778901 -0.07680496 -0.2707011
-0.08550474 0.23540287 -0.061160304 0.00032663494 -0.007293581 -0.22194344 0.25327083 0.062420357
0.20752871 0.27461678 0.014167014 -0.51053554 0.08526772 -0.28871047 0.11080031 0.3189859
-0.030849773 0.035949223 -0.009581382 0.07200806 0.053887047 -0.029621447 0.2810332 -0.05433109
-0.07008464 -0.037043277 0.36795154 -0.014511396 0.011553655 0.06337009 0.1464442 0.07957414
0.10298429 -0.06794233 -0.043875717 -0.08397709 0.003696742 -0.22293042 -0.05651205 0.036183245
-0.16995338 -0.22165543 0.021868898 -0.18375796 -0.03528557 0.23565838 -0.05958375 -0.12448274
-0.014426365 0.008113711 0.11387281 0.22807595 0.06569967 0.16275181 0.21620914 -0.01791787
0.02570493 0.026416294 0.012380132 -0.11516939 0.25546277 -0.1518342 0.046354618 -0.012989367
-0.25966203 0.15798865 -0.1976911 -0.04725227 0.07612499 0.07562847 -0.2677506 -0.07361605
-0.18724763 -0.04111273 -0.08744756 0.22768907 -0.2820595 0.011110899 0.18289547 -0.12680806
0.18951169 -0.09325634 0.1295107 0.19678876 -0.3198589 -0.0066644168 0.1969488 -0.26793924
0.2550289 0.064474724 -0.06756742 -0.23710495 -0.21635126 -0.09559375 -0.07478124 0.35276875
-0.026028402 -0.11914809 -0.058126926 -0.20430681 -0.021616539 0.08844432 0.2705197 0.2462105
-0.1170787 -0.048302595 0.34756726 -0.26211542 -0.022547543 -0.12041635 -0.1398018 0.13133557
-0.02229019 0.049572658 -0.13002951 -0.2196514 -0.028810741 -0.07829964 0.09694405 0.02060323
-0.20472251 0.0827719 0.07499357 0.086247794 0.09840038 -0.045092113 0.09519647 -0.041211624
0.18421303 0.17463313 -0.2528248 -0.0387815 -0.22555633 -0.0825646 0.23877726 0.21132585
-0.058066294 -0.1535079 0.16519764 -0.23398782 0.17029968 0.07699278 0.10924954 0.12961408
-0.06249272 0.087318115 0.24947837 0.050116953 0.4277734 0.41172066 -0.20572849 -0.22775996
0.19591205 -0.06835025 0.015824024 0.012639852 -0.053362854 0.24582958 -0.006740382 -0.036974974
-0.010960683 0.17806205 -0.052760962 0.24522053 -0.41265664 -0.3338209 -0.046364356 -0.1337111
0.26665252 -0.14597002 -0.068155 -0.21348487 -0.09373097 0.11222027 0.18758208 0.010954394
0.07518173 -0.18485516 0.18810005 0.04404221 -0.15294334 0.03095244 0.21267097 -0.008414855
0.11101825 -0.23223639 -0.03383368 -0.018259527 -0.03435353 0.048882484 -0.08613693 -0.18905188
-0.25861308 -0.30954942 0.043131903 0.20082474 0.09549076 0.16012985 0.07459253 0.19054587
0.07050661 0.29164144 0.32194299 -0.1895945 0.067318626 -0.078968294 0.093557075 0.14856088
-0.14402442 0.18214987 0.16736966 -0.17200832 0.0807367 -0.2262888 -0.024917291 -0.07269094
0.062198132 -0.025158081 0.25460833 0.14153472 0.118549444 0.13684492 -0.112877846 0.05378535
00000000: 1159 9e3d 1f24 77bd 30ac 713d 2766 75be
00000010: 4442 83be 7656 9abe a921 423e 901b 6c3c
00000020: 42c9 f13d 48b9 1ebe 9ddb f93c 5c84 babd
00000030: 05d1 053e 0400 9a3e bdfe a13e 3150 9f3c
00000040: 6750 07be 1a74 2ebe b971 d63c a564 15be
00000050: ca3b 5e3e 46b9 a8bd f526 ce3d 03a0 1bbe
00000060: 78d0 86be c8d6 edb9 b410 e13c e714 ef3c
00000070: 51d3 383d d328 363e eb4b 9dbd 5699 8abe
00000080: 1c1d afbd 730d 713e 3a83 7abd 3340 ab39
00000090: fefe eebb 2445 63be b7ac 813e 7dac 7f3d
000000a0: 6882 543e 929a 8c3e c31c 683c 75b2 02bf
000000b0: d8a0 ae3d dcd1 93be 46eb e23d 1f52 a33e
000000c0: aab8 fcbc 7e3f 133d 3bfb 1cbc f678 933d
000000d0: aab8 5c3d ada8 f2bc 95e3 8f3e 478a 5ebd
000000e0: 8988 8fbd b1ba 17bd 2564 bc3e 35c1 6dbc
000000f0: 8b4b 3d3c 2ec8 813d 78f5 153e c4f7 a23d
00000100: 6de9 d23d 5925 8bbd 06b7 33bd 2efc abbd
00000110: 0a45 723b df47 64be 2e79 67bd e234 143d
00000120: 4208 2ebe a4f9 62be 6726 b33c 0c2b 3cbe
00000130: 9a87 10bd 6e50 713e 170e 74bd cff0 febd
00000140: 8f5c 6cbc 5fef 043c 2636 e93d be8c 693e
00000150: 8c8d 863d 69a8 263e ee65 5d3e 7fc8 92bc
00000160: 2593 d23c fc66 d83c 0ad6 4a3c eedd ebbd
00000170: 04cc 823e 6d7a 1bbe 57de 3d3d 5bd1 54bc
00000180: 6cf2 84be c7c7 213e 896f 4abe 998b 41bd
00000190: 6be7 9b3d 19e3 9a3d 9b16 89be 03c4 96bd
000001a0: d8bd 3fbe d265 28bd b517 b3bd 5327 693e
000001b0: 1a6a 90be 7d0a 363c f348 3b3e f9d9 01be
000001c0: 5a0f 423e 2efd bebd 749e 043e fe82 493e
000001d0: 8cc4 a3be 2e61 dabb f2ac 493e 552f 89be
000001e0: 2693 823e 530b 843d ca60 8abd a4cb 72be
000001f0: 2f8b 5dbe a8c6 c3bd e826 99bd 1b9e b43e
00000200: 8439 d5bc ea03 f4bd 8016 6ebd ce35 51be
00000210: 2b15 b1bc 4c22 b53d 8f81 8a3e 9b1e 7c3e
00000220: f5c6 efbd f1d8 45bd 56f4 b13e fe33 86be
00000230: a0b5 b8bc d99c f6bd 3428 0fbe d57c 063e
00000240: eb99 b6bc b30c 4b3d 7526 05be 4cec 60be
00000250: 8104 ecbc 905b a0bd 9a8a c63d 1bc8 a83c
00000260: c7a2 51be 5084 a93d 3b96 993d afa2 b03d
00000270: 2386 c93d 82b2 38bd 5ef6 c23d 85cd 28bd
00000280: 57a2 3c3e 07d3 323e 4172 81be 5ad9 1ebd
00000290: 3df8 66be a117 a9bd 0782 743e ce65 583e
000002a0: ecd6 6dbd 2d31 1dbe 9229 293e 819a 6fbe
000002b0: 0a63 2e3e 64ae 9d3d 39be df3d 8eb9 043e
000002c0: 5ef8 7fbd d7d3 b23d 4277 7f3e 6f47 4d3d
000002d0: 1d05 db3e 0dcd d23e 7daa 52be e839 69be
000002e0: 2b9d 483e 37fb 8bbd 62a1 813c 6217 4f3c
000002f0: 0293 5abd c0ba 7b3e 6cde dcbb 1273 17bd
00000300: 7094 33bc e655 363e e11b 58bd 171b 7b3e
00000310: bb47 d3be 93ea aabe 8de8 3dbd 90eb 08be
00000320: ae86 883e 2a79 15be d994 8bbd c79b 5abe
00000330: 06f6 bfbd bed3 e53d 8415 403e 0f7a 333c
00000340: e1f8 993d ac4a 3dbe 4d9d 403e 9b65 343d
00000350: 2e9d 1cbe f98f fd3c 6bc6 593e 76de 09bc
00000360: 895d e33d 60cf 6dbe 2f95 0abd 0195 95bc
00000370: 49b6 0cbd 0039 483d 8f68 b0bd d196 41be
00000380: ef68 84be 437d 9ebe 14ab 303d 00a5 4d3e
00000390: a990 c33d 14f9 233e f8c3 983d 751e 433e
000003a0: c565 903d 0752 953e b6d5 a43e 1025 42be
000003b0: 59de 893d 21ba a1bd da9a bf3d 5820 183e
000003c0: 237b 13be 7f85 3a3e f462 2b3e f322 30be
000003d0: 4859 a53d 40b8 67be 591f ccbc fdde 94bd
000003e0: 78c3 7e3d 5218 cebc 065c 823e 7aee 103e
000003f0: 0dca f23d 1321 0c3e 802c e7bd 074e 5c3d

bias_ih_l0 f4 [80]
0.022815166 -0.01982518 0.044384927 0.0011021624 -0.18142454 -0.014565186 0.078736395 0.13981965
0.1247971 -0.3276984 -0.04055754 -0.05122361 -0.21844678 -0.06579923 -0.019121638 -0.12479112
-0.08355686 -0.23151442 -0.111270726 -0.115472786 0.12513517 -0.25507402 0.15804212 0.0826745
0.047699567 -0.0840653 0.1488631 0.00096333824 -0.06254447 -0.31916302 0.12184334 -0.016015658
-0.1816253 0.009193022 -0.053687822 -0.11289598 0.11534883 -0.20719133 -0.07236474 0.01562685
-0.065173365 -0.15004165 0.041817736 -0.14223608 -0.025763888 -0.16934048 -0.07620061 -0.15022163
0.2506975 0.091701925 -0.11914792 0.1927196 0.0019504703 0.044433564 -0.020128263 -0.21949421
0.010541436 0.21321476 -0.20147397 0.25704435 -0.044980068 -0.05816312 -0.14665423 -0.1305219
-0.19943796 0.10492035 -0.048439126 -0.06483903 -0.12106778 0.042554457 -0.08197612 -0.09912499
-0.035132825 0.031460978 -0.2148563 0.053239077 -0.051994585 0.026828412 -0.14228453 -0.2209563
00000000: dfe6 ba3c 6a68 a2bc f8cc 353d 6f76 903a
00000010: 5bc7 39be d1a2 6ebc 8c40 a13d e22c 0f3e
00000020: 9f95 ff3d 16c8 a7be aa1f 26bd d9cf 51bd
00000030: 83b0 5fbe bfc1 86bd fba4 9cbc 7d92 ffbd
00000040: dc1f abbd 1e12 6dbe e8e1 e3bd ff7c ecbd
00000050: 6f23 003e 1099 82be cbd5 213e 4051 a93d
00000060: 9f60 433d 6e2a acbd 926f 183e 8988 7c3a
00000070: 5117 80bd 5669 a3be 0089 f93d 4533 83bc
00000080: fcfb 39be 549e 163c c3e7 5bbd 0236 e7bd
00000090: 023c ec3d f729 54be f733 94bd e103 803c
000000a0: 9d79 85bd 85a4 19be 1349 2b3d 56a6 11be
000000b0: ca0e d3bc 9767 2dbe 110f 9cbd b3d3 19be
000000c0: 6c5b 803e 38ce bb3d d303 f4bd 4958 453e
000000d0: eca6 ff3a f8ff 353d 07e4 a4bc 17c3 60be
000000e0: fdb5 2c3c f854 5a3e 314f 4ebe 519b 833e
000000f0: 053d 38bd 743c 6ebd 872c 16be 88a7 05be
00000100: 7739 4cbe 7be0 d63d 1b68 46bd 53ca 84bd
00000110: 62f2 f7bd 954d 2e3d 19e3 a7bd 0b02 cbbd
00000120: 70e7 0fbd 3add 003d 4a03 5cbe 3811 5a3d
00000130: 46f8 54bd 42c7 db3c 09b3 11be 5e42 62be

bias_hh_l0 f4 [80]
0.06156441 -0.03579201 0.1508099 0.06563997 -0.08691754 -0.12370224 -0.16264807 0.03029654
0.09249954 -0.023467802 -0.16616648 -0.003041829 -0.24295048 0.012575271 -0.06214262 -0.16874918
0.09171072 -0.017142328 0.16216603 -0.19626564 -0.20337452 -0.14272259 -0.17598726 -0.14918391
-0.15156747 -0.12058867 0.08991639 0.22412777 -0.22963396 0.0021378873 0.14737785 -0.17916827
-0.020379012 -0.19327918 -0.0872865 -0.21564488 0.052389845 -0.09819675 -0.10872789 -0.10249735
0.0021123583 0.10507312 0.19363417 -0.009472864 -0.042602718 0.22344254 -0.14906102 0.14956526
0.18494529 -0.1874883 0.07042774 0.240142 -0.13330524 0.07052017 -0.05008276 0.06696071
0.098262206 0.05961906 0.19761978 -0.11944342 0.19386902 -0.17599186 0.11868036 -0.14583898
-0.06868848 0.146706 0.11458839 -0.0015265894 -0.17033298 -0.12416534 -0.24937439 0.06764167
0.09675383 0.01928904 -0.043211307 -0.13674939 -0.11758189 -0.057910796 0.0885306 0.021323787
00000000: f62a 7c3d a59a 12bd e96d 1a3e 406e 863d
00000010: d301 b2bd 9a57 fdbd 378d 26be 7330 f83c
00000020: 6670 bd3d 8c3f c0bc 8c27 2abe 6c59 47bb
00000030: 03c8 78be 8208 4e3c 4389 7ebd 96cc 2cbe
00000040: d4d2 bb3d 116e 8cbc da0e 263e dcf9 48be
00000050: 6941 50be df25 12be 0136 34be abc3 18be
00000060: 8134 1bbe 31f7 f6bd 1626 b83d c081 653e
00000070: 2a25 6bbe cc1b 0c3b 38ea 163e e377 37be
00000080: e3f1 a6bc faea 45be 44c3 b2bd 03d2 5cbe
00000090: bc96 563d 611b c9bd baac debd 21ea d1bd
000000a0: 7e6f 0a3b 9330 d73d 0948 463e 1234 1bbc
000000b0: 3080 2ebd 1fce 643e 74a3 18be a327 193e
000000c0: 4c62 3d3e effc 3fbe 6b3c 903d c9e7 753e
000000d0: 2b81 08be e16c 903d 9523 4dbd b222 893d
000000e0: b23d c93d 1e33 743d d75c 4a3e c09e f4bd
000000f0: 9a85 463e 3637 34be b00e f33d d056 15be
00000100: 8cac 8cbd 193a 163e 51ad ea3d d717 c8ba
00000110: c56b 2ebe 664a febd 005c 7fbe b787 8a3d
00000120: df26 c63d 0c04 9e3c 57fe 30bd 0808 0cbe
00000130: c6ce f0bd df33 6dbd 884f b53d 39af ae3c

weight f4 [1, 20]
-0.17829281 -0.13141085 0.038352545 0.16751057 0.049024936 0.14517511 -0.22932994 -0.17378724
0.16505362 0.03924584 -0.03219818 0.18725353 0.039497163 -0.10021369 -0.05256319 -0.0125269005
0.23269238 0.17096622 -0.11848444 0.14270082
00000000: 6492 36be 9190 06be 8f17 1d3d e487 2b3e
00000010: 5fce 483d c9a8 143e 78d5 6abe 48f5 31be
00000020: d103 293e 3fc0 203d 3de2 03bd 64bf 3f3e
00000030: c7c7 213d d63c cdbd 804c 57bd a13d 4dbc
00000040: e946 6e3e c511 2f3e f8a7 f2bd 2a20 123e

hidden_cell f4 [1, 1, 20]
-0.07265952 -0.011490204 0.11051283 0.00960437 0.00040418142 0.039033413 -0.10942653 -0.0119543215
0.13272226 0.0041893343 -0.016942075 0.2050096 -0.0032603256 -0.007529477 -0.013099367 -0.014896998
0.09262336 0.07886542 0.0019296032 0.05320298
00000000: 84ce 94bd 6941 3cbc 8d54 e23d a65b 1d3c
00000010: 50e8 d339 80e1 1f3d 041b e0bd 0fdc 43bc
00000020: 58e8 073e af46 893b 1bca 8abc 09ee 513e
00000030: 30ab 55bb d5b9 f6bb ba9e 56bc 8a12 74bc
00000040: 51b1 bd3d 3184 a13d bdea fc3a 5eeb 593d

hidden_cell f4 [1, 1, 20]
-0.13538437 -0.027211018 0.2306656 0.021150675 0.00091389666 0.0697223 -0.20896544 -0.022816429
0.3590248 0.01000406 -0.041032188 0.42995793 -0.0066131847 -0.015077337 -0.030495752 -0.03193378
0.2074644 0.16523175 0.004042912 0.12680039
00000000: 33a2 0abe a4e9 debc 9a33 6c3e 2e44 ad3c
00000010: 9192 6f3a 91ca 8e3d 09fb 55be 85e9 babc
00000020: 19d2 b73e 12e8 233c 5e11 28bd 7223 dc3e
00000030: 6ab3 d8bb ef06 77bc 3ad2 f9bc ffcc 02bd
00000040: 8c71 543e 8332 293e 677a 843b f6d7 013e
