mlruns/0/2ad2db58c308427682a0890799ce9f7e/artifacts/model/data/model.pth (torch, 14120 bytes, 7 tensors)

weight_ih_l0 f4 [80, 1]
-0.102778584 0.367213 -0.20105846 0.24337538 0.21195358 0.39221278 0.056405716 0.24128424
0.34515196 0.18034588 0.15073441 -0.11248408 0.30214632 -0.21698287 0.24532104 -0.23880298
0.39309666 0.092267886 0.50033855 -0.12101709 0.1794078 0.20965649 -0.16686474 0.29420117
0.09095446 0.010361198 0.05993453 0.3512019 0.2681155 -0.09938333 -0.021788372 0.20266625
0.43734342 -0.14607424 0.38572586 -0.1669565 0.2597651 0.061397452 0.3696236 0.28488946
0.014631491 0.23139577 -0.25889963 0.038143735 -0.24520041 0.2960358 0.07492661 -0.011601898
0.14672872 0.3923197 0.04352687 -0.0909471 -0.36513895 0.12275951 -0.058716554 0.396468
-0.40930435 0.2204396 -0.46193734 -0.12218164 0.103249006 0.11260756 -0.2757554 -0.023895182
0.21551824 0.28139016 -0.087123804 0.39695892 0.24877095 0.022765918 0.22671027 0.18394987
0.20027064 0.022700924 0.29277492 -0.27985147 0.276592 0.4966598 0.3286669 0.097797036
00000000: 947d d2bd 5803 bc3e 45e2 4dbe 6537 793e
00000010: 5c0a 593e 1dd0 c83e ae09 673d 3713 773e
00000020: c2b7 b03e 97ac 383e 1f5a 1a3e 0e5e e6bd
00000030: ecb2 9a3e c230 5ebe 7035 7b3e c588 74be
00000040: f743 c93e f2f6 bc3d 3016 003f cfd7 f7bd
00000050: aeb6 373e 31b0 563e 97de 2abe 89a1 963e
00000060: 5546 ba3d 04c2 293c e97d 753d bcd0 b33e
00000070: 6f46 893e 7d89 cbbd 877d b2bc be87 4f3e
00000080: 7aeb df3e 7c94 15be dc7d c53e a5f6 2abe
00000090: eeff 843e e57b 7b3d 4e3f bd3e 08dd 913e
000000a0: ecb8 6f3c 03f3 6c3e 7e8e 84be 9b3c 1c3d
000000b0: d115 7bbe 0192 973e 1f73 993d e315 3ebc
000000c0: 0e40 163e 21de c83e 3b49 323d 7942 babd
000000d0: 7ef3 babe 5769 fb3d c580 70bd dbfd ca3e
000000e0: 5790 d1be ebba 613e 0d83 ecbe 5e3a fabd
000000f0: 3774 d33d cb9e e63d d02f 8dbe d4bf c3bc
00000100: d0b0 5c3e 5f12 903e f76d b2bd 333e cb3e
00000110: d0bd 7e3e 977f ba3c bd26 683e 5b5d 3c3e
00000120: bf13 4d3e 4af7 b93c 98e6 953e b148 8fbe
00000130: 779d 8d3e 314a fe3e 0747 a83e d049 c83d

weight_hh_l0 f4 [80, 20]
-0.15562904 -0.27223232 -0.086983666 -0.0996297 -0.05301207 0.10942525 -0.021742666 0.04144446
0.039039932 -0.2635813 0.06382426 0.18566208 -0.0034921719 -0.15190043 -0.039082233 -0.022964519
-0.09797104 0.059693456 0.13269088 0.098745614 -0.14448607 -0.069465354 -0.3015519 -0.1609332
0.017984375 0.24491882 0.019966086 0.10975414 0.090338394 0.24255559 -0.008282934 -0.17821383
-0.04255591 -0.070123106 -0.05274171 0.15083687 -0.030061718 0.20434561 -0.24790981 -0.22900115
0.05578003 0.09710298 0.071592934 0.272495 0.13340586 -0.25378513 0.20460162 0.016399734
-0.03165255 -0.11227901 -0.04010101 -0.1731797 -0.17396109 -0.09162047 0.031559616 0.08264517
-0.34785983 0.12861697 -0.039374933 0.09665273 -0.036430515 -0.18128744 -0.25801656 0.1794477
-0.13909255 0.15811524 -0.113419786 -0.077771604 0.11331173 0.18442509 -0.115959406 -0.10521464
0.17281325 0.056535833 0.10492278 -0.094291165 0.083007835 -0.13815473 -0.102816604 -0.142847
0.21041654 -0.110203445 0.13588704 -0.08066776 -0.12703843 -0.12726896 -0.042551596 0.15116343
0.01168035 0.20552729 0.08140634 0.08171255 -0.21941495 0.20185235 -0.21399707 -0.03142759
0.17363018 -0.08449996 -0.08049201 -0.030341715 0.086246826 -0.17131086 0.068324745 -0.001065643
-0.17835858 -0.1165289 0.019371815 0.04449784 -0.20725675 0.14359173 0.11661502 -0.16731638
-0.048764702 -0.15577757 -0.08203219 0.17603609 -0.0234641 -0.12765202 -0.13462487 0.09321356
-0.010620728 0.057274222 -0.14974111 0.031708565 0.13732964 -0.09892272 0.056129623 -0.21815959
-0.026071493 -0.17659308 -0.1500202 -0.020993792 0.11779847 0.068316065 -0.14692205 -0.13235043
-0.31179675 -0.2044351 -0.37106013 0.20251961 0.18912153 -0.20707865 0.096940376 0.25932035
0.07701466 0.13141735 -0.08805738 0.09195382 -0.15981673 0.021585653 0.09109914 0.14528258
0.10310272 -0.03013624 0.10794855 -0.06273046 0.33003956 -0.2724143 0.15762329 0.23429444
0.029195953 0.035704717 0.08301031 -0.16010813 0.08394472 -0.2405963 0.093203545 0.047235336
-0.009165309 -0.22487883 0.028111735 -0.14799799 0.25847065 0.2626484 0.15376344 0.082634196
0.05611511 -0.08005692 0.016722944 -0.0008293397 -0.15235418 0.13543616 0.05582326 0.050974548
-0.25620797 0.15323734 0.15934584 -0.09324672 0.27238864 0.24741377 0.06631356 -0.07083986
-0.1300112 -0.09944816 0.035343844 0.074356236 -0.117432445 0.10939243 -0.2084303 -0.28000635
0.1942395 0.06818486 0.12989001 0.11679751 0.047620703 -0.06844077 0.07832277 -0.06670889
0.038938593 0.21024726 0.17148392 0.1763051 0.10817838 0.26386052 -0.19845185 -0.13700543
0.07223855 0.106606565 -0.15451638 0.10586599 0.09222943 0.09202373 -0.24418613 0.010024646
-0.16778798 -0.16234306 -0.03186895 -0.188661 -0.256134 -0.20121574 -0.1595079 -0.09545516
0.028230067 0.2216485 -0.0124770235 0.0687772 -0.015764466 -0.1620923 0.33098295 0.096520334
0.254844 0.12016032 0.07564078 -0.052983973 0.13573913 0.20592295 -0.096552625 0.21542144
0.13548619 -0.05439436 0.023833614 -0.1479715 0.049412753 -0.12784542 0.046175502 -0.26507542
00000000: 385d 1fbe 0962 8bbe 7e24 b2bd a80a ccbd
00000010: 2f23 59bd 581a e03d ad1d b2bc abc1 293d
00000020: 56e8 1f3d 21f4 86be 4bb6 823d 331e 3e3e
00000030: ecdc 64bb c98b 1bbe b114 20bd 1620 bcbc
00000040: 0aa5 c8bd 2081 743d 1ee0 073e 243b ca3d
00000050: 28f4 13be da43 8ebd 0365 9abe accb 24be
00000060: f853 933c 00cc 7a3e eb8f a33c c7c6 e03d
00000070: 5603 b93d 7e60 783e 25b5 07bc b07d 36be
00000080: 1b4f 2ebd b49c 8fbd b107 58bd fb74 1a3e
00000090: fe43 f6bc fa3f 513e 12dc 7dbe 477f 6abe
000000a0: 9a79 643d eddd c63d 519f 923d 7784 8b3e
000000b0: 8c9b 083e 20f0 81be 1683 513e bc58 863c
000000c0: 1ba6 01bd 8af2 e5bd f540 24bd 0556 31be
000000d0: db22 32be 83a3 bbbd a844 013d df41 a93d
000000e0: af1a b2be 2bb4 033e 9c47 21bd def1 c53d
000000f0: 2a38 15bd 6aa3 39be bf1a 84be 23c1 373e
00000100: 476e 0ebe f6e8 213e a248 e8bd b846 9fbd
00000110: fb0f e83d eed9 3c3e 207c edbd c67a d7bd
00000120: f5f5 303e 1e92 673d c1e1 d63d ba1b c1bd
00000130: 0300 aa3d 6f78 0dbe 8391 d2bd 7c46 12be
00000140: 6f77 573e 58b2 e1bd f925 0b3e 2335 a5bd
00000150: 5d16 02be cb52 02be 954a 2ebd 96ca 1a3e
00000160: f05e 3f3c bf75 523e 5eb8 a63d e958 a73d
00000170: 50ae 60be 62b2 4e3e 0c22 5bbe 37ba 00bd
00000180: 1ccc 313e 510e adbd ffd8 a4bd 308f f8bc
00000190: 2da2 b03d 1d6c 2fbe d8ed 8b3d 0cad 8bba
000001a0: a2a3 36be b4a6 eebd a4b1 9e3c 5e43 363d
000001b0: 1d3b 54be b609 133e dbd3 ee3d fc54 2bbe
000001c0: 7fbd 47bd 2884 1fbe 7e00 a8bd ce42 343e
000001d0: c937 c0bc 36b7 02be 1adb 09be c0e6 be3d
000001e0: 9002 2ebc 6098 6a3d bc55 19be d7e0 013d
000001f0: 24a0 0c3e ff97 cabd 2de8 653d 3a65 5fbe
00000200: e293 d5bc d1d4 34be e59e 19be 2cfb abbc
00000210: 5340 f13d 4be9 8b3d bc72 16be df86 07be
00000220: d3a3 9fbe 6f57 51be 98fb bdbe 4d61 4f3e
00000230: 13a9 413e 6d0c 54be ad88 c63d a3c5 843e
00000240: ddb9 9d3d 4592 063e 6d57 b4bd 4952 bc3d
00000250: ffa6 23be 65d4 b03c 3092 ba3d f5c4 143e
00000260: 8527 d33d 47e0 f6bc 2114 dd3d d478 80bd
00000270: f2fa a83e e379 8bbe 0068 213e e2ea 6f3e
00000280: 5a2c ef3c 1c3f 123d 4f01 aa3d 63f3 23be
00000290: 36eb ab3d e05e 76be 80e1 be3d d779 413d
000002a0: 182a 16bc a346 66be 954a e63c c98c 17be
000002b0: 4456 843e da79 863e 2a74 1d3e 1e3c a93d
000002c0: f5d8 653d e2f4 a3bd 8efe 883c 0c68 59ba
000002d0: bc02 1cbe c7af 0a3e eea6 643d b0ca 503d
000002e0: b12d 83be 40ea 1c3e 8e2b 233e 23f8 bebd
000002f0: 8676 8b3e 095a 7d3e 67cf 873d 7d14 91bd
00000300: a821 05be 7aab cbbd b5c4 103d 1548 983d
00000310: 6c80 f0bd 2309 e03d c16e 55be fe5c 8fbe
00000320: b8e6 463e 81a4 8b3d e301 053e 8833 ef3d
00000330: ed0d 433d ad2a 8cbd b067 a03d ac9e 88bd
00000340: 137e 1f3d 0f4b 573e 7b99 2f3e 5389 343e
00000350: a08c dd3d ba18 873e f636 4bbe 274b 0cbe
00000360: cef1 933d 8b54 da3d 8b39 1ebe 45d0 d83d
00000370: c9e2 bc3d f076 bc3d ee0b 7abe 6a3e 243c
00000380: 9dd0 2bbe 423d 26be 0489 02bd 5930 41be
00000390: ff23 83be 800b 4ebe 0a56 23be ff7d c3bd
000003a0: be42 e73c d3f7 623e 6e6c 4cbc 10db 8c3d
000003b0: 7b24 81bc 86fb 25be 9976 a93e 74ac c53d
000003c0: ea7a 823e 9d16 f63d 8ee9 9a3d b905 59bd
000003d0: 33ff 0a3e 77dd 523e 62bd c5bd 7097 5c3e
000003e0: e4bc 0a3e 9fcc 5ebd b63e c33c d785 17be
000003f0: 0765 4a3d e9e9 02be 8622 3d3d f7b7 87be

bias_ih_l0 f4 [80]
-0.090932675 0.22253071 0.001213553 0.048367895 -0.19212525 0.18961716 -0.19467902 0.07390976
0.11588434 0.018701209 -0.019074667 0.09811281 0.13369957 -0.25054187 0.24694373 0.08420963
0.124213 0.023685379 0.5820559 -0.118858926 -0.23131888 -0.24881142 -0.27226117 0.073222645
-0.05423777 0.13151282 -0.07480693 0.080323935 -0.028332626 0.09855363 0.044774152 0.13804005
-0.11872798 0.030316861 0.25349784 0.061616424 -0.0022136362 -0.17896874 0.2867197 0.034320388
-0.18624777 0.021346455 0.14003964 -0.21074973 -0.19418328 0.18291438 0.10935472 0.24118553
-0.052332558 0.04296918 -0.16202226 -0.045947514 0.03957284 -0.0010970116 0.040023435 -0.13005312
0.20777269 0.067028664 -0.030110607 -0.1526195 -0.1387252 -0.017296853 0.113250464 -0.040456504
0.017014768 0.12685595 -0.1241557 0.030313915 0.15054803 0.0738555 0.07187588 0.12381482
0.049101885 -0.21548383 -0.0036679667 -0.07005029 0.33367205 0.1632266 0.3551977 0.016976107
00000000: e93a babd 17df 633e 1510 9f3a 6a1d 463d
00000010: 7bbc 44be 002b 423e f059 47be 005e 973d
00000020: c554 ed3d 4733 993c 7a42 9cbc 5eef c83d
00000030: 8ae8 083e 0647 80be d1de 7c3e 1976 ac3d
00000040: 6363 fe3d d707 c23c 9e01 153f 4f6c f3bd
00000050: dbde 6cbe 6cc8 7ebe d165 8bbe c1f5 953d
00000060: 6d28 5ebd 4cab 063e 6034 99bd e080 a43d
00000070: d319 e8bc 7cd6 c93d 1a65 373d 5f5a 0d3e
00000080: a827 f3bd 115b f83c 78ca 813e 8161 7c3d
00000090: a712 11bb 9543 37be edcc 923e 8993 0c3d
000000a0: bcb7 3ebe c3de ae3c 8d66 0f3e c7ce 57be
000000b0: fbd7 46be e84d 3b3e 5ef5 df3d 57f9 763e
000000c0: aa5a 56bd 7300 303d 2ae9 25be 7633 3cbd
000000d0: 2117 223d 9ac9 8fba 9def 233d a52c 05be
000000e0: 5dc2 543e 5346 893d 85aa f6bc 4948 1cbe
000000f0: fb0d 0ebe 21b2 8dbc dcef e73d b8b5 25bd
00000100: 8e62 8b3c 87e6 013e 5845 febd e354 f83c
00000110: 4329 1a3e 8d41 973d a933 933d a092 fd3d
00000120: 0f1f 493d cba7 5cbe 4562 70bb 8776 8fbd
00000130: 10d7 aa3e e024 273e 79dc b53e 7a11 8b3c

bias_hh_l0 f4 [80]
0.09030407 0.15817776 0.11799161 0.09891574 0.14682598 -0.14736119 -0.06366882 0.087453976
-0.144726 0.33054334 0.10705764 -0.017414626 0.15874302 -0.028239748 0.25377604 0.16889858
0.1713149 0.020390099 0.238391 -0.18293098 -0.10849513 -0.025389722 0.035599116 0.029390376
-0.16400023 -0.24190858 0.1862833 -0.19403575 0.07726641 0.08711177 -0.16210058 -0.15790384
-0.024073465 -0.23393992 0.21916388 -0.24479334 -0.22845674 0.15870343 0.11875312 0.18069625
0.20384571 -0.038466923 -0.14047201 -0.108294435 -0.16064902 0.026230907 -0.19943255 -0.05960354
0.20167005 -0.08779936 -0.057193324 -0.17935824 -0.121087514 -0.02620993 0.030826565 -0.051238403
-0.19798799 0.18292382 0.18332927 -0.15163197 -0.24903192 -0.061462805 0.102282286 -0.21293114
0.18979436 0.032237254 0.042554323 0.0800759 0.09349724 0.31608272 -0.22989975 -0.25010303
0.2922069 0.039348006 0.15171295 0.003349861 0.47406888 0.044544138 0.52701974 -0.1964247
00000000: 57f1 b83d 5af9 213e 96a5 f13d 5694 ca3d
00000010: 8d59 163e dae5 16be cc64 82bd 121b b33d
00000020: 0d33 14be fa3c a93e 0941 db3d 1ea9 8ebc
00000030: 888d 223e 0b57 e7bc efee 813e c0f3 2c3e
00000040: 2c6d 2f3e 2309 a73c c51c 743e 4252 3bbe
00000050: b232 debd 1bfe cfbc 61d0 113d 16c4 f03c
00000060: adef 27be e2b6 77be 0dc1 3e3e 4fb1 46be
00000070: da3d 9e3d a867 b23d b2fd 25be 8bb1 21be
00000080: b735 c5bc f28d 6fbe 7f6c 603e 1bab 7abe
00000090: 90f0 69be 2783 223e d634 f33d 7008 393e
000000a0: eebc 503e 7e8f 1dbd e5d7 0fbe 79c9 ddbd
000000b0: 2d81 24be 33e2 d63c 0c38 4cbe d722 74bd
000000c0: 9882 4e3e 27d0 b3bd 8c43 6abd b0a9 37be
000000d0: bbfc f7bd 35b6 d6bc fe87 fc3c 5cdf 51bd
000000e0: 5dbd 4abe 6250 3b3e abba 3b3e 6945 1bbe
000000f0: 3902 7fbe 6cc0 7bbd 6079 d13d 9f0a 5abe
00000100: 7459 423e 360b 043d 714d 2e3d d5fe a33d
00000110: 7b7b bf3d 98d5 a13e d76a 6bbe 810d 80be
00000120: 259c 953e 602b 213d a45a 1b3e 5789 5b3b
00000130: 28b9 f23e ea73 363d c4ea 063f 8e23 49be

weight f4 [1, 20]
-0.06334128 0.1598951 -0.08952044 -0.0948059 -0.20737083 0.23359013 0.116074026 0.15121742
0.16215295 0.23444642 -0.16236575 -0.08072179 -0.19173874 0.0048373835 -0.104900524 0.20434323
-0.4022644 0.22796579 -0.2992987 -0.03224517
00000000: 13b9 81bd 8bbb 233e 7e56 b7bd 9829 c2bd
00000010: 0559 54be 4032 6f3e 38b8 ed3d bdd8 1a3e
00000020: 6c0b 263e b912 703e 3543 26be 7751 a5bd
00000030: 2957 44be ea82 9e3b 16d6 d6bd 5a3f 513e
00000040: 99f5 cdbe dd6f 693e ae3d 99be 8313 04bd

hidden_cell f4 [1, 1, 20]
-0.013493036 0.0516077 -0.041432418 -0.09922161 -0.18639886 0.19551969 -0.039908495 0.14053719
0.12625103 0.031254362 -0.12672882 -0.10415652 -0.14971565 0.02301238 0.079640836 0.020724766
-0.15046743 0.1834652 -1.3906528e-05 -0.14313379
00000000: e511 5dbc 9862 533d 0ab5 29bd b334 cbbd
00000010: 58df 3ebe 5036 483e 1777 23bd fbe8 0f3e
00000020: f347 013e 9304 003d 33c5 01be 0350 d5bd
00000030: 0f4f 19be 7584 bc3c bc1a a33d fcc6 a93c
00000040: 2214 1abe 4dde 3b3e 1550 69b7 aa91 12be

hidden_cell f4 [1, 1, 20]
-0.034953926 0.1051197 -0.0879594 -0.25549114 -0.33548576 0.3518245 -0.09113749 0.24452686
0.2193277 0.048951093 -0.2704422 -0.21585962 -0.24166526 0.05392999 0.1379564 0.04188316
-0.19248378 0.30245122 -1.7052742e-05 -0.31189936
00000000: d92b 0fbd ff48 d73d 0f24 b4bd bccf 82be
00000010: cac4 abbe 5722 b43e 4ba6 babd 4065 7a3e
00000020: 7197 603e f180 483d 6677 8abe 4e0a 5dbe
00000030: 1977 77be b1e5 5c3d 7144 0d3e ad8d 2b3d
00000040: 781a 45be e3da 9a3e 7c0c 8fb7 46b1 9fbe
