mlruns/0/f2938feae26d44d29c983e4b10cc942d/artifacts/model/data/model.pth (torch, 14120 bytes, 7 tensors)

weight_ih_l0 f4 [80, 1]
00000000: 51a5 b73e e5f7 393e c90d cd3e 5673 733e
00000010: 52d9 933d 2397 ba3e 01a6 903e dfed b33e
00000020: 3ef9 723e d32a 693e 3368 753d 1bbd f03e
00000030: d76f c93e 0731 bb3e 7b27 763e fbdd 98be
00000040: 237a bc3e bd6b 443e 5bbe f63e c1d2 803e
00000050: ad09 803e 48ed 6f3e 785d 403d 7485 5a3d
00000060: 2aa8 07be bbb5 cf3e c802 b9bd 61ab f63c
00000070: 0b97 023e 0a9c 173e 7750 753e e246 e03e
00000080: 81f2 ca3e 47ca 25bd e455 993e d8a5 b8be
00000090: c223 ce3d b5ff 363e b631 b83e 118c 1f3d
000000a0: f934 7bbe 5eff 063f 0244 b23e cd01 b7be
000000b0: 5d1b c23e fb35 423d 7bfe 393f 5674 7c3e
000000c0: 48f6 37bf b665 90be a949 2e3e dd79 8abd
000000d0: 0ad0 dbbe 3b23 8bbe 5944 9bbe 8a5f 3abe
000000e0: b56b f43e 9c9e 16bd 73a8 253f 31fe d03e
000000f0: 377a be3e e0fd cf3e 252e 9a3e 88ba a03d
00000100: 97ad 9dbd a49a df3e 5fe9 c03e 4274 bb3d
00000110: d23b d33d 61bf fc3e 1c38 703d e49c 023f
00000120: 619b d53e 6550 d83e 4e2a 303e b404 923d
00000130: ec26 6e3e 23d0 043e 40dc 2d3e dc69 ce3e
0.35868314 0.1816097 0.4004958 0.23774466 0.07219185 0.36443433 0.2825165 0.3514242
0.23727891 0.22770242 0.059913825 0.47019276 0.3934314 0.36560842 0.24038498 -0.29856858
0.36811933 0.19181724 0.48192105 0.25160792 0.25007382 0.2343036 0.04696414 0.053349927
-0.13247743 0.40568337 -0.090337336 0.030111017 0.12752931 0.14805618 0.23956476 0.4380408
0.3963814 -0.04047611 0.29948342 -0.3606403 0.10065414 0.17870982 0.35975426 0.038951937
-0.24531926 0.5273341 0.3481751 -0.3574356 0.37911502 0.04741476 0.7265393 0.24653754
-0.7186017 -0.282026 0.17020287 -0.06761525 -0.4293216 -0.27175316 -0.30325583 -0.18200508
0.47738424 -0.036772355 0.6471016 0.40818933 0.37202618 0.4062338 0.3011333 0.07848078
-0.07699125 0.4367267 0.37678048 0.09153034 0.10314144 0.4936476 0.05864726 0.51020646
0.41720107 0.42248836 0.17203638 0.07129803 0.23257035 0.12970023 0.1697855 0.4031514

weight_hh_l0 f4 [80, 20]
00000000: 48f3 4ebe 8709 06be b08e a6bd 071e 343e
00000010: eb40 a2be 268a 22be 5e9a 72be 8ad5 963d
00000020: d2db dc3b 8966 1e3e 5db8 8abe f12a aa3c
00000030: 7a30 183e 4e47 33be e681 b53d b164 2dbd
00000040: 7133 26be a10f ae3d f3a0 c6bd c8f4 813d
00000050: f428 e8bc 11b6 3e3e c898 1d3d 7e59 ca3c
00000060: 8915 9ebe 0f93 72bc d02a 393e 14f2 633e
00000070: 81f0 8ebe 3597 31be 74d1 103d 6de9 61be
00000080: f664 49be 0bff 1e3d ee66 95be a0f9 25bc
00000090: ae8c 13be 8951 81bc aadc abbd 58e0 ecbb
000000a0: 2586 dfbb 3bef 01be 157f 2f3e bdfe b4bd
000000b0: 2b18 92bd 24eb 063e 2641 87bd cefa 083e
000000c0: 2062 dd3c 077e 613e dddc 653d e191 a03d
000000d0: d3a6 58be a94c 78bd a9eb 0c3e f6ff 11be
000000e0: a8d0 51be c489 1e3e a4a3 71be c7de 7e3d
000000f0: a247 033d 984f 333e 2bb4 49be 0fe4 6cbb
00000100: e815 14be 3304 2dbe edb4 d4bd 0545 1a3e
00000110: 9f34 033c f522 353e 5cc5 c8bd 7ff0 9dbd
00000120: da1c 3b3d 0397 13be 0c78 143e 5f54 c7bd
00000130: 599e 42be f317 89bd ca19 6fbe bbaa 12bc
00000140: ea3e 97be a2cf 443e 1b03 483e 5778 a2be
00000150: 63dc a23d e557 c5bd be2e 8f3e 2698 083d
00000160: bf49 493c 04c3 863d fecf 063e 3c22 c53d
00000170: 3386 91be 94e6 33be be11 83bc 387b e33b
00000180: 8ef0 4a3e eb8a 40be 1b8a c23e 8b00 3e3e
00000190: 4c96 f83d 9339 5abe ba3c 043e 9092 f1bd
000001a0: 88b7 043d 0bff 283e c0ae 68be 43e7 abbd
000001b0: 13ee 583d 915e c13d ee18 4ebd cfd8 803c
000001c0: 602d e8bc 6996 5f3e 597e 073e afc8 83bd
000001d0: 70e8 2fbe 7bdb 863d 87b6 e6bb 8eb7 4cbe
000001e0: 1c03 a5bd e055 3d3e 7303 e13e 565a afbe
000001f0: 41cc 59be 343e 9cbe 0700 333e 72df f83e
00000200: 6c67 9ebd 0dd9 7bbe 13db bd3e 1e23 eabd
00000210: bfc6 adbe 8ad8 09be 27db e0be ec0d 993e
00000220: 9d15 443e 5738 adbe 8367 b33e ed57 d23e
00000230: eba5 02bd b585 bbbd 0c48 3fbe 5025 123e
00000240: f71f 26be 46c2 5d3e 5af3 93be a191 ffbd
00000250: 42af c43c c92b 23be f3d7 85be 8646 293e
00000260: 9704 eabd 6a18 2f3e e379 443d b7f0 513e
00000270: 69a2 b0be 2eaf e4bc 4139 6bbe 3555 86be
00000280: 4c65 67be c4e0 a33e d25e bc3e ef4a 65be
00000290: 79f6 9cbe 224f 82be ea69 a23d 2330 823e
000002a0: da4e 3dbd 4c38 0bbf 862f 053e c109 03bf
000002b0: 0ef2 41be 5d8c d4be d101 1fbf 82f7 073f
000002c0: 4c14 753e 62ed c0bd 2063 3a3d f69b 6f3e
000002d0: 5e09 4fbd f8fe 65bd d5e3 efbd 74a5 343e
000002e0: d365 ffbd c9b8 49be b3b9 00be 28d3 413e
000002f0: 1fb1 003e 5168 2ebe 188a 05be f277 db3d
00000300: d8c0 233e 5cd6 f0bd e780 833d 3957 b63c
00000310: 3a26 90be 18f7 d4bd 001a 3e3e 5db6 ba3d
00000320: 50e3 13be a3c0 d73d 9062 163b f7f8 0cbe
00000330: 7b90 893c 993a 263e bffb adbd 85f1 1bbb
00000340: e303 113e cfe7 fdbd be19 c6bd ad88 2c3d
00000350: 578b e5bd 07dc 4a3e 133a ae3d 3846 21be
00000360: 9a48 65be b5f7 74bd de7a cd3d e659 9fbd
00000370: 9ed6 513e 282f 253e 5c65 49be 7e96 9e3d
00000380: ae19 0fbe 5e14 073e 66c6 6c3c 8f97 f6bd
00000390: 5b75 9c3e 43f6 65bd d855 f93d 99b3 753e
000003a0: 6877 fabd 0b5b 603e d185 363e 3b73 a03d
000003b0: d5b7 b7be 06ba 74bd 5fe4 2cbd a4de 3f3d
000003c0: aa4a cc3d 2dbb babd 7ad1 6a3e 6373 f0bd
000003d0: 532e a9bd e55b c63d 5d29 4ebe 39c7 d4bd
000003e0: b1b4 013b 64ff 13be cb14 84bd e382 55bd
000003f0: 9ab9 843b e396 fa3c d1ef 03be 2f3b b1bd
-0.20209992 -0.13089572 -0.08132684 0.1758958 -0.31690153 -0.15873012 -0.23691699 0.07364948
0.006740072 0.15468802 -0.27093783 0.02077243 0.14862242 -0.1750767 0.08862667 -0.042332355
-0.16230561 0.08499075 -0.096986674 0.063455164 -0.02833984 0.1862414 0.03847578 0.024700876
-0.30875805 -0.014805569 0.18082738 0.22260314 -0.27917865 -0.17342837 0.035356 -0.22061701
-0.1966742 0.038817447 -0.29180092 -0.010130316 -0.14409134 -0.01578595 -0.08391698 -0.0072288923
-0.006821411 -0.12688915 0.17138322 -0.0883765 -0.07133516 0.13175637 -0.06604223 0.13376924
0.027024329 0.22020732 0.056118835 0.07840324 -0.21157388 -0.060619984 0.13761772 -0.14257798
-0.20489752 0.15482241 -0.2359758 0.062224176 0.032050736 0.17510831 -0.19697635 -0.0036146676
-0.14461482 -0.16896133 -0.10386071 0.15065391 0.008008151 0.17689116 -0.09803268 -0.077118866
0.045681812 -0.14413075 0.14498919 -0.097328894 -0.19005717 -0.06694021 -0.23349681 -0.008951838
-0.29540187 0.1921983 0.19532435 -0.31732437 0.07952192 -0.09635905 0.2796535 0.033348225
0.012285649 0.06580165 0.1316528 0.0962567 -0.28422698 -0.17568427 -0.015999671 0.006942179
0.19818327 -0.18802993 0.3799599 0.18554895 0.12138042 -0.21311025 0.1291379 -0.11795533
0.03240159 0.16503541 -0.22722912 -0.08393719 0.05296142 0.09441865 -0.050316744 0.015728382
-0.028341949 0.2183472 0.13231792 -0.06434762 -0.17178512 0.06584831 -0.007040802 -0.19991896
-0.08057234 0.1848979 0.43947944 -0.34248608 -0.21269323 -0.30516207 0.17480479 0.48607975
-0.0773457 -0.24594517 0.37081203 -0.11432479 -0.33940694 -0.1346151 -0.439172 0.29893434
0.1914887 -0.33832046 0.3503991 0.41082707 -0.031896513 -0.09156362 -0.18679827 0.14272046
-0.16223131 0.2165614 -0.288966 -0.124789484 0.02400935 -0.15934671 -0.2614132 0.16530809
-0.11426657 0.17099157 0.047967803 0.20501982 -0.3449891 -0.027915563 -0.2297106 -0.26236883
-0.22597235 0.3200742 0.36791092 -0.22391866 -0.30656794 -0.25451 0.07930358 0.2542735
-0.046217777 -0.5438278 0.1300641 -0.5118676 -0.18939993 -0.4151334 -0.62112147 0.5311204
0.23933524 -0.09420277 0.04550469 0.23399338 -0.050546043 -0.05615136 -0.117133774 0.1764124
-0.12470593 -0.19699396 -0.12570839 0.18928206 0.12567566 -0.17031981 -0.1304096 0.10716237
0.15991533 -0.11759636 0.064210705 0.022258388 -0.28154165 -0.10398692 0.18564606 0.09116814
-0.14442182 0.105347894 0.0022946931 -0.13766848 0.016792526 0.1623329 -0.084952824 -0.002379508
0.14161639 -0.123977296 -0.09672879 0.04212253 -0.112082176 0.19810496 0.085071705 -0.15749443
-0.22390977 -0.059806544 0.10033201 -0.07780819 0.20492026 0.1613127 -0.19667572 0.07743548
-0.1397464 0.13191363 0.014451599 -0.12040626 0.30558285 -0.056143057 0.121745765 0.23994292
-0.12229806 0.2190973 0.17824484 0.078344785 -0.3588244 -0.05974772 -0.04220998 0.046843186
0.099751785 -0.09117732 0.22931471 -0.11740758 -0.08260789 0.09685496 -0.20132966 -0.10389561
0.0019791538 -0.14452893 -0.064492784 -0.052126776 0.0040504457 0.030589527 -0.12884451 -0.086538665

bias_ih_l0 f4 [80]
00000000: 9209 8a3d 85c0 aebc 3e48 9c3d d147 17bd
00000010: 1c17 4c3e b95d f9bd a790 013f f45c d73d
00000020: 05d5 293f b62d 813d 6f65 f23d f4b7 18be
00000030: b6b6 8d3e cb49 32be 111f b13e 8d91 873d
00000040: e5ab b33d 9f58 56be dae7 043e 0d2a 513e
00000050: a22b 8e3d e405 dd3b b0f9 4ebd dab3 55be
00000060: 3eca 03be 1f43 c8bc b843 18be 9eaf 153e
00000070: 72dc 98be ee2d cebd 7633 c73b aa5e aebd
00000080: 82e1 5fbe d9e2 d43d f0a7 05bb a9d0 14bd
00000090: fa37 843d 0cdc 47be 8dc8 003e d3b6 c0bb
000000a0: 6ad8 d3bd a55a 943d 9ec4 1c3e 4b7f 9bbd
000000b0: d882 f9bd 7819 c9bd 243a 3fbe ff5e 1c3e
000000c0: b78d 7e3d e3bf 8dbd a1c2 d4bd 2616 4abe
000000d0: 73d4 173e c846 943d 7ec9 03be 52fc 043d
000000e0: e82e ebbd 1de9 3f3e d0f6 8e3c 508d 31be
000000f0: 9446 663d f0de 65bd 01f3 513e 48d8 a1bd
00000100: 3ef5 f43d de56 96bd 344a f23e 5a91 c5bd
00000110: 7b56 5f3e 903d 87bc 57a7 2abd e66e 283e
00000120: d5bd 7e3e b707 333e a205 a53e c92c 063e
00000130: 1a19 bd3d dc06 893d e493 923e bf70 09be
0.06740107 -0.021332035 0.076309666 -0.036933724 0.1993069 -0.12176079 0.50611347 0.10515776
0.66340667 0.06307547 0.11835753 -0.14913923 0.2767846 -0.17410962 0.34594014 0.066195585
0.08773021 -0.20932244 0.1297907 0.20426197 0.06941916 0.006745087 -0.05053109 -0.20869389
-0.12870118 -0.024446068 -0.14869583 0.14617774 -0.29855686 -0.10067354 0.0060791327 -0.085141495
-0.21863368 0.1039483 -0.0020394288 -0.036331806 0.06455989 -0.19517535 0.12576504 -0.0058811693
-0.10344012 0.072438516 0.15309379 -0.075926386 -0.121831596 -0.09819311 -0.18674523 0.15270613
0.06214687 -0.06921365 -0.10388685 -0.19735011 0.14827137 0.07240063 -0.12869832 0.032467194
-0.11483556 0.1874127 0.017451674 -0.17339063 0.056219652 -0.056120813 0.20502855 -0.079025805
0.11960839 -0.07340787 0.47322237 -0.09646864 0.21810333 -0.016508847 -0.041663494 0.16448554
0.24877103 0.17483412 0.3223086 0.13103022 0.09233303 0.066907614 0.28628457 -0.13421915

bias_hh_l0 f4 [80]
00000000: bbd8 043e 9966 953e 672c 2c3e 3647 b0bd
00000010: 2991 9dbd 92bb 4c3e 8ae0 a83e b7c6 17be
00000020: 3f97 ce3e 5aba b63d b694 2f3e b15c dfbd
00000030: 843c 9a3e bdfd 57be 0185 e4b8 947e 123d
00000040: b198 c63d 5d45 44be 5b26 e73e ab09 843e
00000050: cb31 1b3e 7d66 debd 01e5 3dbe 9b70 e2bd
00000060: 540b 52be e25e 453e 5597 863c dafc 2a3e
00000070: 0ffe 82be fe08 1a3e 062f 9c3d c540 123e
00000080: 6be6 3abc 2859 44be 55a2 7cbc 3df7 d9bd
00000090: 4bff 3c3d a0b1 7bbe 7ca0 bfbd b15b a6bd
000000a0: 93bf 533d 433f 8bbd 1e96 203e 330c 0dbe
000000b0: e6ec 7bbd c13e 0ebe a785 593d 3dcf 053e
000000c0: 09c7 d8bc 9257 ebbc a85d 0f3d 4905 8fbe
000000d0: 2dd3 26be 6a83 2fbe de13 2b3d d9b4 e83d
000000e0: 4e3b 683d 749b 24bd 9c91 02be d820 393e
000000f0: 04e3 593e d47c 1dbd 7a0d f7bd d5c8 00bc
00000100: 6000 3f3a 491f 19be c130 883e f8b3 24be
00000110: dc93 dd3e 2370 71bd ab2c 623d 9624 61be
00000120: 5f18 8abd 0458 c03d 633c aa3c 7c2a 05be
00000130: b0e7 ca3e 446a 953b a65a 0c3e 0bd6 623e
0.12973301 0.29179838 0.16813813 -0.086073324 -0.07693703 0.19993427 0.3298381 -0.14821897
0.40349767 0.089222625 0.17146572 -0.10906351 0.30124295 -0.21092887 -0.00010896661 0.035765246
0.09697092 -0.19167085 0.4514645 0.25788626 0.15155713 -0.10859392 -0.1854439 -0.11056634
-0.20512134 0.19274476 0.016429583 0.16698018 -0.25584456 0.15042493 0.076261565 0.1428252
-0.011407475 -0.19174635 -0.015419562 -0.1064286 0.046141904 -0.24579477 -0.09356782 -0.081229575
0.05169637 -0.067991756 0.15682265 -0.13774185 -0.06150522 -0.13891126 0.053105976 0.13067336
-0.026462095 -0.02872828 0.035001427 -0.2793372 -0.16291495 -0.17139974 0.041766994 0.11362619
0.056697182 -0.040187314 -0.12750858 0.18078935 0.21278006 -0.038449124 -0.12063117 -0.007860382
0.00072861277 -0.1495334 0.26599696 -0.16084278 0.4327687 -0.058944833 0.05521838 -0.21986613
-0.0674293 0.09391788 0.020780748 -0.13004488 0.3962989 0.004559787 0.13706455 0.22151963

weight f4 [1, 20]
00000000: cb0d 1ebe da87 613e b498 3d3e acff 3abe
00000010: e30c 363e 92a7 3abe 731c 8b3e 2ffa 083e
00000020: 780c f3be 9563 c7bd 56f7 da3d fe94 32be
00000030: f884 6fbe 7067 ddbd 5ca7 9abe e3e0 d4bd
00000040: af40 803e fdd0 e6bd 4220 453e 63c3 543e
-0.15434949 0.2202448 0.18515283 -0.18261594 0.17778353 -0.18227986 0.27170143 0.13376687
-0.4747045 -0.09735791 0.10691707 -0.17439649 -0.23390567 -0.10810745 -0.3020581 -0.10394456
0.2504935 -0.1127033 0.19250587 0.20777659

hidden_cell f4 [1, 1, 20]
00000000: b521 01be 4d15 af3c e5d3 143e 3742 dbbd
00000010: d22e 55bc 063e 09be 13fb 4abd 5dac f63d
00000020: d5fa 3c3d 5437 a6bd e25b 8e3c 157b 3abe
00000030: 11b5 86bd 484e 18bd 2074 02bd 220d 093d
00000040: 0e27 843c 632a f8bb 7de4 2db9 a359 763d
-0.12610514 0.021372462 0.14533956 -0.10705989 -0.013011651 -0.13402566 -0.04955585 0.120445944
0.04613765 -0.08116022 0.017377798 -0.18211015 -0.065775044 -0.03718403 -0.031849027 0.03345979
0.016131904 -0.0075734123 -0.00016583684 0.060144078

hidden_cell f4 [1, 1, 20]
00000000: cde3 66be f38b 293d c831 923e 58f9 6cbe
00000010: 03c2 bebc c86d a3be 4c0c 8abd c569 903e
00000020: 72ab 813d 6932 2cbe d9d1 0d3d 1225 d0be
00000030: 43b4 e8bd f178 85bd 3ca0 58bd 2a67 8b3d
00000040: 75ce c03c 38c8 77bc 6794 82b9 afab e23d
-0.22547837 0.04139323 0.28553605 -0.23141992 -0.023285871 -0.31919694 -0.06740627 0.28205696
0.06331529 -0.16816105 0.034623954 -0.40653282 -0.11362507 -0.06517208 -0.052887186 0.06806786
0.023535946 -0.015123419 -0.000249061 0.11067902
