mlruns/0/33e7fcb3e34e4768904b7fa005eb3add/artifacts/model/data/model.pth (torch, 14120 bytes, 7 tensors)

weight_ih_l0 f4 [80, 1]
00000000: 365d ee3d 5f82 ee3d a0be 7cbe 3c9e 86be
00000010: cfa4 f3be 2bb0 073e 733d 1c3e 7850 ef3d
00000020: fd73 a23e 659b 85be 8ea3 a03d 02dd 883d
00000030: 978d db3e 7d86 d2be d1ce 7f3e 1e51 863d
00000040: 1538 ae3e d1b7 833e 1283 eb3e 3076 debe
00000050: 49b8 a3bd 098b aa3e d6e7 15be 7e5e 14bf
00000060: 79c3 f0be 39fd 7cbe 4486 a93e 69fb 1bbd
00000070: c118 193e 1a78 483d c812 483e ab44 ec3c
00000080: 9e13 883e 71a3 59be 2367 96bd 8d70 203d
00000090: ccc3 a03e d02b 963c 06df 393e c40e 37bf
000000a0: a960 813e b92a 9e3e 11a1 d5bd 98ad d73e
000000b0: 6eca 02be 728a 7cbe 29b1 1dbf 89a8 81be
000000c0: 7c75 a0be 1d18 b3bd 2996 163f 8f71 90be
000000d0: e1b5 e43e 11fc 113e 49b0 ecbe 8b5f 02bf
000000e0: 0740 2f3f 564f bcbd 3d07 323e 0b09 16bf
000000f0: cc10 71be 3094 253e 7ab0 f63b ddd8 a9be
00000100: ba5f 92be 2469 cf3c 6d27 b33e aa27 e53e
00000110: 01fa a33e 49d2 8c3c 95ca 003f 6344 913e
00000120: cc28 d53e d663 f3be cf99 9f3e d68a 353e
00000130: 1a0c 623e b447 7a3e 56e7 ac3e 994c f1be
0.11638872 0.1164596 -0.24682093 -0.26292598 -0.47586676 0.13250796 0.15257816 0.1168527
0.31729117 -0.2609512 0.078436956 0.06682779 0.42881462 -0.4111823 0.24981238 0.065584406
0.34027162 0.25726178 0.45998436 -0.43449545 -0.07994134 0.333092 -0.1463922 -0.57956684
-0.47024134 -0.24705972 0.3311025 -0.03808156 0.14950849 0.048942663 0.19538414 0.028841337
0.26577467 -0.21253754 -0.073438905 0.039169837 0.3139938 0.018331438 0.18151483 -0.71506906
0.25269058 0.3089197 -0.104311116 0.4212463 -0.12772533 -0.24662188 -0.6159845 -0.25323895
-0.31339633 -0.087448336 0.58822876 -0.28211638 0.44670013 0.14256312 -0.46228245 -0.50927037
0.6845707 -0.0919482 0.17385574 -0.5860755 -0.23541564 0.1616981 0.007528362 -0.33173266
-0.2858866 0.02531869 0.34991017 0.44756824 0.32026675 0.017190116 0.50309116 0.28372487
0.41632688 -0.47537106 0.31172034 0.17728743 0.22074929 0.24441415 0.33770245 -0.47128752

weight_hh_l0 f4 [80, 20]
00000000: 7df9 853e 82a3 953d 5b0f 10be d082 e03d
00000010: 7d37 95be a488 523d e934 a1ba 0ec3 313e
00000020: fe1c b4bc f88d 9abe e540 bf3d 8318 efbd
00000030: aede 843c e85d d13d 0368 0fbe ee5d 62be
00000040: 2462 b83e 7a01 013e 97ae 03be b200 dabe
00000050: ab3f aa3d 6526 89bd 32c4 7bbe 6683 273e
00000060: 683b 5d3e da99 11be 62f4 3fbe e421 3bbe
00000070: 2f7c 64be daee a53d 86a2 843e ff50 61be
00000080: 385f 023e 356a 2fbe 51b8 80be d00f cfbd
00000090: 0f26 633e 2498 e8bd 7b83 333c d2fa 25be
000000a0: 315c 873e 8897 883d c000 24bd 2556 5b3e
000000b0: 08e3 8b3d f86d c9bd 5c0d 813d 54e6 0e3e
000000c0: cbe0 663e 22e0 4bbe 856e 103d 8b56 af3d
000000d0: fbdd 99bd 9a0f ab3e 5a38 3d3e 9126 febd
000000e0: 6fcf 24be e714 5f3e 815b 67be 9d60 d0be
000000f0: 094a b7bd 455b a43e 5175 783e 1eb4 a03d
00000100: 92bf 4b3e a793 cbbc 2e05 8fbd 2996 60bd
00000110: 4f59 89be 4ebb 1abc 5fd1 1e3e 1e41 b4bd
00000120: e329 cc3d ec98 82be 3ea6 29be e75d 92be
00000130: 3a2d a2bd 8ed5 08be 5b4a 263e 4aa4 6f3e
00000140: c04d f3bd a4a1 e53d 9d43 553c 2e59 673e
00000150: 7050 90be 96e2 3f3c 9afe 163c 6a26 19be
00000160: 42c1 6e3e fb7e d23d d81f 69be 89cc b03c
00000170: 86de 343e a2c0 dfbd def8 dc3d 639e 2dbe
00000180: 3ec4 e4bd 2a53 d43d 625b 61bd f05e 133e
00000190: 3f5a 69bd b536 343d f3e5 8d3d d524 d1bc
000001a0: bbe9 4d3d 18c9 61be 43cd 0dbe 16af 02bd
000001b0: 8d08 bebd 2d66 90be e632 81bd d52b 0ebd
000001c0: 11c9 063e 80cb 28bc 5c47 0bbe d0b4 183e
000001d0: e2d1 1bbe ce06 2b3e 559d 91bd 5147 53be
000001e0: 6901 68be 6791 ef3d 60d0 e0bd d254 47be
000001f0: 0536 b13e 51e9 323e 3b6e f9bd 80de ccbe
00000200: ead8 e3be 008e c23d 2266 883b d0b9 34be
00000210: 7654 c33d c401 06be 12dd 9cbe 3d41 cbbd
00000220: c992 8dbd 8ea2 2ebe be13 763e 4f42 683e
00000230: 9969 39be 8ac0 29bd 6663 febd 18cd 7ebe
00000240: 74ab 093e ba67 283e 22e6 8b3e 4438 cb3c
00000250: 55e7 493e eb4d 3fbe 8bde 2ebd 69a8 513e
00000260: 175c 6abe 77eb 863c faa9 073e a232 a1bc
00000270: fafb f5bd c3e0 babd 8e9e 283e 49c2 edbd
00000280: e2da ae3d fdb9 3bbd 5762 04be a1fb d3bd
00000290: 3473 1cbe a38c 11be ac86 0f3e d79b 6a3e
000002a0: 3861 75bd 5d92 173e ad60 83be f597 603e
000002b0: 9f43 7ebe 7c55 23be d42c 2d3e d292 503e
000002c0: e5c1 043d 170a 403e 8fb9 e43d f12a 333e
000002d0: 47e4 1b3e 6b05 8dbe 75fb 0abe effe ef3c
000002e0: 2771 69be e705 d4bd acb3 193e 02f6 e7bc
000002f0: e010 e33d 247a 37be 8152 adbd 693c 073d
00000300: d058 cebd 88f2 823e 8eee dd3d 45a2 943e
00000310: d234 123c 6606 37bd f219 f8bd adfa 9b3d
00000320: 606a 37be cc8c c43e d3a7 243e 1b33 b9be
00000330: e85c ce3e d445 92bd 7482 5cbe 2a7b 0abe
00000340: 422d b6be e938 2f3e d247 373e f3e7 743d
00000350: 0595 e1bc 1ed9 c63c 107d 14be 6f25 5cbe
00000360: 3a36 863e fd77 66be e87c 393e 2d0a 913e
00000370: 4006 833e 55f5 58bd 99f3 653e d54e 173d
00000380: 9cc8 5c3e 1381 3b3e 5577 30bd d3c3 99bd
00000390: 716f b43d 89a6 52be 259a 53be 6a01 753e
000003a0: 2af9 40be 7174 67be 5f4d f73d b81d 593e
000003b0: 39a5 113e 8f31 2e3d 3225 36be a07b ce3d
000003c0: af55 cb3d 0006 d53e 2da6 a13d 9e74 01bf
000003d0: b289 f33e faf9 753e 043b e2bd 8633 9cbe
000003e0: a805 93be ff29 4ebe 0ff7 c5bd 44b4 4abe
000003f0: 27a7 bc3e ae0f 1abe 5134 64be 0b9b c3be
0.26166907 0.07306577 -0.14068358 0.109624505 -0.29143897 0.051399842 -0.0012299094 0.17359564
-0.02198648 -0.3018644 0.093385495 -0.11674597 0.016219463 0.10222989 -0.14004521 -0.22106144
0.36012375 0.1259822 -0.1285957 -0.42578655 0.08312925 -0.06696776 -0.24586561 0.16358718
0.21604693 -0.14218846 -0.18745568 -0.18274647 -0.22312997 0.08102198 0.25905246 -0.22003554
0.12731636 -0.17130359 -0.25140622 -0.10110438 0.22182487 -0.113571435 0.01095664 -0.16208962
0.26437524 0.06669527 -0.040039778 0.2141958 0.06830412 -0.09835428 0.06301376 0.1395505
0.22546689 -0.19909719 0.03526165 0.08561429 -0.075130425 0.3341034 0.18478528 -0.124097
-0.16094755 0.21785317 -0.225935 -0.4069871 -0.08949668 0.32100883 0.24263503 0.078468546
0.19897297 -0.02485068 -0.0698341 -0.054830704 -0.2682595 -0.009444071 0.15509556 -0.088014826
0.09968927 -0.25507295 -0.16567323 -0.28587267 -0.079187825 -0.13362715 0.16239302 0.23402515
-0.11880064 0.11212471 0.013016609 0.22592613 -0.2818637 0.011711737 0.009215975 -0.1495606
0.2331591 0.10278126 -0.22766054 0.021581905 0.17663011 -0.10925414 0.10789655 -0.16954951
-0.11170243 0.10367425 -0.05501879 0.14391685 -0.05697083 0.043997485 0.06928625 -0.025530258
0.05027173 -0.22049367 -0.13847832 -0.031905256 -0.09278975 -0.28202954 -0.06308536 -0.03470977
0.13162638 -0.010302424 -0.1360144 0.14912724 -0.15216783 0.16701815 -0.07110087 -0.20632674
-0.22656788 0.11697655 -0.109772444 -0.1946595 0.34611526 0.17471816 -0.12179228 -0.40013504
-0.4450143 0.094997406 0.004162566 -0.17649007 0.09537594 -0.13086611 -0.30637413 -0.099245526
-0.06912763 -0.17054197 0.24030969 0.22681545 -0.18106689 -0.041443385 -0.124213025 -0.24882925
0.1344431 0.16445819 0.27324015 0.024807103 0.19717152 -0.18682067 -0.042692702 0.204744
-0.22886692 0.0164697 0.13248435 -0.019677464 -0.12010951 -0.09124901 0.16466734 -0.116093226
0.08537842 -0.04583167 -0.12928139 -0.10350729 -0.15278322 -0.14213805 0.14016217 0.2291101
-0.05990717 0.14801927 -0.25659695 0.21932967 -0.24830483 -0.15950578 0.16911632 0.20368508
0.032411475 0.18753849 0.11168205 0.1749685 0.152238 -0.27543196 -0.13572486 0.029296366
-0.2279707 -0.10352688 0.15009946 -0.028315548 0.11087203 -0.17917687 -0.08463002 0.033016596
-0.100755334 0.25575662 0.10836516 0.29030052 0.008923726 -0.044683836 -0.12114324 0.07616172
-0.17911673 0.3838867 0.16079645 -0.36171803 0.40305257 -0.07142225 -0.21534139 -0.13523546
-0.35581404 0.17111553 0.17898491 0.059791517 -0.027536878 0.024273451 -0.14500833 -0.21498655
0.26213247 -0.2250671 0.18114054 0.28328076 0.25590706 -0.05296834 0.22456206 0.036940414
0.21560901 0.18310957 -0.043082554 -0.07508054 0.08810318 -0.2057134 -0.2066427 0.2392632
-0.18845049 -0.22603013 0.12075304 0.21202743 0.14223184 0.04252773 -0.17787626 0.10082173
0.09928452 0.4160614 0.07893024 -0.5056857 0.4756599 0.2402114 -0.110464126 -0.3050806
-0.28715253 -0.20133208 -0.09666263 -0.19795328 0.36846277 -0.15045044 -0.22285582 -0.38204226

bias_ih_l0 f4 [80]
00000000: 4ade 903d c91c e3bd 4239 92bd cf0d a3bd
00000010: 0303 c7bd 25a4 01be 4133 bf3e f38e 51be
00000020: 3948 4dbe fe37 97be 54be d83e aa8e 1d3d
00000030: c795 933e a440 983d 5873 263e 0a22 9c3e
00000040: f1e1 ba3e 94ed e1bd e617 dd3d 8315 ba3e
00000050: ac45 a5be 0de6 b6bd b3c6 6fbc 427d 86bc
00000060: 950a 2d3d 7354 14be 12d7 a9bc b67d ab3d
00000070: 7124 ebbc 1929 453d a115 8bbe 0460 c5bc
00000080: 7ec1 e1bd 0f4f 5abc da1f cc3c 87e5 33be
00000090: 2062 2c3e 57af 9c3d 3a96 28be 015a dd3d
000000a0: b5eb aa3b 05fc 543d fd22 943a 2600 37bd
000000b0: d688 613e f1ab 903d 836f 213d f27b 40be
000000c0: 6138 a2bc d5bf 2f3e facf 213d 0705 4c3e
000000d0: 85af febd 861e 363d 5793 1c3e d004 813d
000000e0: b94b 013d ba74 da3d 027b 653d 06a1 c43d
000000f0: bbc3 093e 70e8 0dbe ea91 30be 96ef 603e
00000100: 9221 4ebe b9b6 9a3a a402 f23d f7a9 babc
00000110: 0180 6abd 023d b1bc 9de5 9b3e f66f a6bd
00000120: 1332 cb3e 02ae 4cbe d4e7 783d 40db a03e
00000130: 15a0 083f b09b 62be acd3 9d3d ad12 b13e
0.07073648 -0.11089475 -0.07139827 -0.07961618 -0.09717371 -0.12660272 0.3734379 -0.20464687
-0.20047082 -0.29534906 0.4233271 0.038466133 0.2882521 0.07434204 0.16254938 0.3049472
0.36500505 -0.110316426 0.10795574 0.36344537 -0.32279718 -0.089305975 -0.014634776 -0.01641715
0.04224642 -0.1448534 -0.020732436 0.08373587 -0.0287039 0.048134897 -0.2716494 -0.024093635
-0.11023234 -0.013324513 0.024917532 -0.17568026 0.16834307 0.07650631 -0.16463557 0.108081825
0.0052160867 0.051998157 0.0011301931 -0.044677876 0.22024855 0.07064045 0.039412986 -0.18797281
-0.019802274 0.17163022 0.039504983 0.19923793 -0.124358214 0.044462703 0.1529058 0.06299746
0.031566355 0.10666795 0.056025513 0.09601025 0.13453571 -0.13858199 -0.17243162 0.21966395
-0.20129994 0.0011803723 0.1181691 -0.022786124 -0.05725098 -0.021635536 0.3044862 -0.081268236
0.3968664 -0.19988254 0.060767964 0.31417274 0.53369266 -0.22129703 0.07706389 0.3458456

bias_hh_l0 f4 [80]
00000000: 6da5 68be a035 443e 31a6 47be 022f 2e3e
00000010: c9f6 21bc 232d ba3d 602d 003e 62ba f4bd
00000020: 6b62 683d e473 28be 2804 883e 3b7f 573e
00000030: 1e3b 043e 7c6a bdbd d8c6 cd3d 0abf a13e
00000040: dc28 333f 394b 853d 5e15 e9bb 59e9 f83d
00000050: ba7a 1fbe f7e8 29bd 3784 5dbe fc6d 31bd
00000060: 106b 8bbe d3fd 54be c6c6 50be c1e7 84bd
00000070: c525 2b3d 9988 abbd b445 7e3d f06b 1cbd
00000080: a683 97be 6961 923d 3d07 a1be d16f 71be
00000090: 1b4c 1a3d 7fde 263e c027 1dbe 97b3 62be
000000a0: 8712 3bbd 5808 9a3d 93c5 82bd f5db 20be
000000b0: 8ae9 163e 227e 70bc 79ab 5bbd 526a 0ebd
000000c0: fb4c c7bd bb9e 14be 1b44 4dbd 0158 20be
000000d0: 3bbe e63d 09e6 55be c314 12be d2d3 1abe
000000e0: b66f 82bd 9303 13be 583f 0d3e a5dc 313e
000000f0: d1e2 79be 3688 973a 9825 2b3d 7afe 6f3e
00000100: 17b7 a13d 8fdb 1cbe 1c6c 1a3e 7ae8 6b3d
00000110: cf6d 9ebc 763c 89bd 2e8f 08bd 0266 8f3d
00000120: 1888 d83e cbba 9c3d 7302 a33e b3ff 653e
00000130: eb24 063f d6f8 09be 75ed 62be 016b 043e
-0.22719355 0.19161081 -0.1949699 0.1701012 -0.009885498 0.090906404 0.12517309 -0.11949612
0.056734484 -0.16450459 0.2656567 0.21044628 0.12913176 -0.09248826 0.10047692 0.31591064
0.6998422 0.06508488 -0.007113143 0.121538825 -0.1557416 -0.04148194 -0.21632467 -0.04331778
-0.2723012 -0.20799951 -0.20388326 -0.06489516 0.041784067 -0.08375663 0.062078193 -0.038188875
-0.29592627 0.07147486 -0.31450835 -0.23577811 0.037670236 0.16295813 -0.15347195 -0.2213882
-0.045671966 0.07521123 -0.063853405 -0.15708907 0.14737526 -0.01467851 -0.053630326 -0.034769364
-0.0973148 -0.14513676 -0.05011378 -0.15658571 0.11266752 -0.20888533 -0.14265732 -0.15119866
-0.063689634 -0.14356832 0.13793695 0.17369325 -0.2440293 0.001156098 0.0417839 0.23436919
0.0789625 -0.1531813 0.15080303 0.057594754 -0.01933947 -0.06700985 -0.03333967 0.07001878
0.4229133 0.076528154 0.31837806 0.22460823 0.5240008 -0.1347383 -0.22160895 0.12931444

weight f4 [1, 20]
00000000: 46da 0b3e 62ed 693e d783 1abc 26ec 843e
00000010: f399 4ebe 8f7f 5abd 9d47 b3be 78f7 14be
00000020: ecee b9bd 8e0e e9bd d933 e43d 57da c8bd
00000030: 5ff8 953e 0e51 163e 0bd8 9ebe 61dc 96be
00000040: 98dd 873e 0a53 25be 08a7 e93d 8785 9ebe
0.13657483 0.2284446 -0.009430847 0.25961417 -0.20175914 -0.053344306 -0.35015574 -0.14547527
-0.09078774 -0.11379729 0.11142702 -0.0980727 0.29291055 0.14679357 -0.31024203 -0.2946501
0.2653625 -0.16144958 0.11408812 -0.30961248

hidden_cell f4 [1, 1, 20]
00000000: 6a46 deba 33f0 543d 71b4 95ba 7782 9cbd
00000010: 2fc2 d63d 6004 be3c c073 d4bc 3c84 efbd
00000020: ab9f a0bd 375b f3ba 98bc a73c ed92 cd3b
00000030: f95f 3d3d d078 57bd d897 03bd 9722 b4bd
00000040: 9a8f 68be 3848 04bd 2e44 933d ee68 ce3d
-0.0016958241 0.051986884 -0.0011421574 -0.07642072 0.10486256 0.023195446 -0.0259341 -0.116951436
-0.07842954 -0.0018566613 0.02047567 0.0062736184 0.046234105 -0.05260545 -0.03212723 -0.0879566
-0.2271103 -0.032295436 0.071907386 0.100786075

hidden_cell f4 [1, 1, 20]
00000000: e370 7ebb c7a7 df3d 058e 25bb 73dc 03be
00000010: ddb4 6d3e 263b 493d d131 24bd 7c1e 73be
00000020: 2b94 2bbe 02ce 87bb fc90 0c3d ac56 493c
00000030: 1245 833d 7063 e7bd 17ca 4fbd 1682 0cbe
00000040: 1c08 94be bad7 9dbd fefd 213e 03e9 223e
-0.003882461 0.10920673 -0.0025261652 -0.12877063 0.23213525 0.049128674 -0.04008657 -0.23742098
-0.1675574 -0.004144431 0.034317955 0.012288731 0.064096585 -0.11298263 -0.050729837 -0.13721499
-0.28912437 -0.07707162 0.15819547 0.159092
