mlruns/0/bb0342931d9a457fb98bdf42a1e55ece/artifacts/model/data/model.pth (torch, 14120 bytes, 7 tensors)

weight_ih_l0 f4 [80, 1]
000000 cd 47 13 be 71 f2 aa 3e 23 0e 4d 3d ac 85 ef 3e
       -0.14382859 0.33388093 0.05006231 0.4678167
000010 bf ce 8a 3d e7 94 93 3d 50 90 84 3d ee ed aa 3e
       0.06777715 0.07206135 0.06472838 0.3338465
000020 2b 46 82 3e b9 74 a1 3e 59 a6 79 3e 27 57 5b bd
       0.2544416 0.31534365 0.24379863 -0.05354991
000030 da f5 9c 3d 81 30 af 3e 15 ee a3 3d d6 60 da 3d
       0.0766408 0.34216693 0.08004395 0.10663001
000040 fe 2b c6 3b a6 47 37 3e c0 dc 92 3e 28 39 ad 3e
       0.0060477247 0.17898425 0.28684044 0.3383267
000050 01 36 d1 bd c0 34 d2 3e bf 8c c5 be 91 c4 52 3e
       -0.102153786 0.4105587 -0.38583943 0.20582797
000060 95 f6 dd bd eb 1e 5e bd 48 96 07 be 03 18 87 3e
       -0.108380474 -0.054228704 -0.13240921 0.26385507
000070 4a c4 ae 3d df f2 04 3e b7 86 08 bc c6 16 b1 3d
       0.08533533 0.12983273 -0.0083329 0.08646922
000080 8a 07 a2 3c 24 d0 7c 3e 6d af 93 be a8 6a b1 bd
       0.019778986 0.24688774 -0.28844777 -0.08662921
000090 94 f2 81 3d 6c 4a a1 3d a7 1e 19 3e 63 7d a9 3e
       0.06345096 0.07875523 0.14953099 0.33103475
0000a0 88 0c f7 be 45 0c b8 be 53 f1 7d be aa 96 47 3f
       -0.48251748 -0.3594686 -0.24799089 0.7796427
0000b0 98 75 8e be d5 81 30 be 3a 0d 4d 3e 59 ad 90 3e
       -0.27824092 -0.17237027 0.20024577 0.28257254
0000c0 71 09 a1 be 84 5d 12 3f 1c 19 65 be 7d 24 53 be
       -0.31452516 0.57173944 -0.2237286 -0.20619388
0000d0 6f e4 fd 3e 8c c6 d1 bb 4e 15 df bd fe d7 11 3f
       0.49588344 -0.0064018425 -0.108927354 0.569702
0000e0 c0 e7 77 3d 92 3c a3 be 48 89 dc bb 9d 50 22 3e
       0.06052375 -0.3188215 -0.0067302324 0.15851064
0000f0 46 a5 27 bd b5 1b 92 3e ab 43 77 be 2d d1 b6 3e
       -0.0409291 0.28536764 -0.24146907 0.35706463
000100 70 78 fc 3d f3 df 09 bc 25 30 62 3e 35 ba 23 3c
       0.12327659 -0.00841521 0.22088678 0.009993126
000110 3b 2c 09 3e 91 db d1 3e 92 f4 6f 3e 52 2e 92 3d
       0.13395779 0.40987828 0.2343314 0.07137741
000120 a5 6b 0d 3f 50 58 8f 3e 5f 9f 5d 3c af 51 5b 3e
       0.5524238 0.27997065 0.013526767 0.21417879
000130 88 43 2b 3e f2 1b 6b 3e 02 6b da 3d 07 48 46 3e
       0.1672498 0.22959879 0.10664941 0.19363414

weight_hh_l0 f4 [80, 20]
000000 c4 10 6d 3d 24 4c 49 be 46 5e 23 bc b1 b7 54 3d
       0.057877317 -0.19657952 -0.009971207 0.051932994
000010 12 45 f9 3d 28 d8 42 bd ab fa 8b 3e b0 82 65 3e
       0.12171377 -0.047569424 0.27339682 0.22413135
000020 db f2 fc 3d 89 8d 3c bd f4 eb 57 3e 57 88 7f bc
       0.123510085 -0.046033416 0.21086103 -0.015596471
000030 49 58 cb 3d be 57 96 bc 57 bb 0e 3d 64 bf 13 3e
       0.099289484 -0.018352386 0.03484663 0.14428478
000040 ae ba 22 3e ad 47 08 bb 07 f0 11 be b7 01 2b 3e
       0.15891525 -0.0020794675 -0.1425172 0.16699873
000050 3a 57 8c 3e 2a 5d 23 be cb af 83 3e b8 91 51 be
       0.274103 -0.15953508 0.25720057 -0.20465744
000060 a1 4f 4e 3d 89 be f4 3c 1a 5c 4d be 0e 69 e5 bc
       0.05036891 0.02987601 -0.20054665 -0.028004196
000070 92 da 25 be 65 13 1c 3e cd a9 5c be d9 8b ad 3d
       -0.16196659 0.15241773 -0.21549149 0.084739394
000080 e5 08 5a 3e 25 8b 1a 3e 6c a6 fe 3d 80 d8 86 bd
       0.21292455 0.15092142 0.12434086 -0.06584263
000090 34 f6 fe 3d fb b0 ba 3d 8a d5 28 bd d9 7d 33 3e
       0.12449303 0.091157876 -0.04121927 0.17528476
0000a0 fc b4 62 be 31 86 3d be d9 83 95 be 78 7a eb 3d
       -0.22139353 -0.18508221 -0.29202154 0.114979684
0000b0 33 b5 dd 3d b9 5a 85 be aa 66 de 3c 40 21 9c bd
       0.10825577 -0.26045778 0.027148563 -0.076235294
0000c0 39 69 40 3e 07 9d 40 3e ba 92 61 3e 82 2c c0 bd
       0.1879014 0.18809901 0.22028628 -0.09383489
0000d0 91 83 2c 3e f1 fd 9e bd f4 cf 0c be f4 04 65 3e
       0.16847064 -0.07763279 -0.13751203 0.2236517
0000e0 8e e9 10 bd 09 c8 d5 bd 02 70 34 3e 5d 2b 04 be
       -0.035378985 -0.10438544 0.17620853 -0.12907167
0000f0 05 eb 20 3f 87 b1 12 bf 7d 7f 12 3d fe 91 17 3e
       0.6285861 -0.57302135 0.035766114 0.14801785
000100 1d 1a ca 3e 3c 84 80 3e 7e 45 b8 be 5c 82 99 3d
       0.39473048 0.25100887 -0.35990518 0.07495567
000110 8a e7 8c be 06 5b 9f 3e f2 c1 f0 be a7 6b 98 3d
       -0.275204 0.31124133 -0.4702297 0.07442408
000120 17 5e 79 3d 8c d5 19 bf dc 14 b7 3c b9 9b 55 be
       0.060880747 -0.6009147 0.022348814 -0.20860185
000130 57 3f f6 be 65 c9 fe be dd c1 15 3f f8 a8 e8 3e
       -0.480952 -0.49763027 0.58498937 0.45441413
000140 b6 22 a2 bd ce 9e 5f bd ac 8b 93 bb 5c fa ee bb
       -0.07916777 -0.054594807 -0.004502734 -0.0072930288
000150 a4 78 67 3e c1 a3 68 bd bf b4 6e 3d 66 b1 b1 3d
       0.22604614 -0.056796793 0.05827784 0.08676414
000160 0b 5b 51 3d c1 69 af 3d 52 e2 13 bd be 05 13 3d
       0.051112216 0.08565093 -0.036104508 0.035894148
000170 d1 ea db bd 80 7f ba be 82 42 77 3e 01 84 07 bd
       -0.10738147 -0.364254 0.24146464 -0.033084873
000180 fa 25 06 be 1f f2 4b be e6 5b 45 bd 54 2f 83 3e
       -0.13100424 -0.1991658 -0.048183344 0.25622046
000190 75 ba 77 bd ac 86 f2 3d 2d a8 15 3d d5 5d 84 3e
       -0.060480554 0.11842093 0.036537338 0.25852838
0001a0 0b 08 b7 3c a2 12 a3 3d 0c 47 b4 3d 16 88 94 bd
       0.022342702 0.07962538 0.088026136 -0.07252519
0001b0 50 d5 ee 3d d8 47 07 3e 94 75 89 39 d4 be 20 be
       0.1166178 0.13211 0.0002621828 -0.15697795
0001c0 f6 82 9e 3d dd 37 00 be 63 37 eb 3d d3 21 c7 3d
       0.077398226 -0.1252131 0.114851736 0.09723248
0001d0 64 8c 62 3e d7 09 42 bc 38 04 7b be 96 94 6d bc
       0.22123867 -0.011843166 -0.24513328 -0.014500758
0001e0 34 61 4a be eb 2d 3b bc 9f 4c 06 3e c9 f8 a6 bd
       -0.19763643 -0.011424522 0.13115166 -0.08152921
0001f0 db c5 4b 3d 40 19 1c 3e 42 d2 57 3e ee b3 9f 3e
       0.049749237 0.15244007 0.210763 0.31191963
000200 47 7a 58 3d 1d 4b 62 3d 8c 78 20 be 8e 09 bd 3d
       0.052850988 0.055247415 -0.15670985 0.09230338
000210 48 59 43 3e b5 54 88 bd a2 af e5 3d d7 ab 85 3d
       0.19077027 -0.066567816 0.1121514 0.065269165
000220 81 3f 24 3e c2 53 58 bd 05 e9 81 3d e1 5e 60 3d
       0.1603985 -0.052814253 0.06343273 0.054777984
000230 2b c9 3d 3e ff b4 52 be 9c 95 75 be 7d 68 7e bd
       0.1853377 -0.20576857 -0.23982853 -0.062111367
000240 14 43 10 3d a1 53 b6 be 71 29 41 be 31 e7 5a be
       0.03522022 -0.3561068 -0.18863465 -0.21377255
000250 dd 16 61 be 07 48 2a 3e 52 f5 ad 3d 47 1f 43 3d
       -0.21981378 0.16629039 0.08494057 0.04763725
000260 8a 1a 84 3e 0b 6d bf bd 77 a0 9e 3e bf 10 b6 bd
       0.25801498 -0.0934697 0.309818 -0.08889913
000270 3d 35 f0 3c 42 bc 8b be d3 7a 82 3e bc 9e 13 3e
       0.029322261 -0.27292067 0.25484332 0.14416021
000280 1b aa fa 3b fa 0c 53 be cb 47 a7 3c 2d 36 74 3d
       0.0076496727 -0.20610419 0.020419976 0.05962198
000290 7b 29 20 3e 4a e7 f3 bd 91 05 e8 be 4f 95 56 be
       0.15640824 -0.11909349 -0.45316747 -0.20955394
0002a0 b5 d0 11 3d 07 78 d4 bc 1e b4 f5 3d 41 25 f1 3d
       0.03559943 -0.02593614 0.11997245 0.11774684
0002b0 e6 76 4f 3e 2a 84 9a be ab 06 51 3e 9e 0b 69 3d
       0.202602 -0.30178958 0.204127 0.056895845
0002c0 1c 1c 47 be 84 4f b9 bd 71 e6 2f 3e d6 87 27 3e
       -0.19444317 -0.090483695 0.1717775 0.16360411
0002d0 2b 7a 66 3d 47 39 36 3c d6 a3 7e 3e cc 82 00 3e
       0.056268852 0.011122054 0.24867186 0.12549895
0002e0 36 d2 bc 3c 8d c3 2c be 8e 9d 88 be 61 f4 6b bd
       0.023049455 -0.16871472 -0.26682705 -0.057606105
0002f0 13 5e 96 3d 4a f9 0a 3e 7d 7c 7e be ce cd 95 3e
       0.07342162 0.13571659 -0.24852176 0.2925858
000300 6d b5 c1 3e ae a2 db be ef 68 8b 3e 12 7c e2 3c
       0.3783373 -0.42897552 0.27228495 0.027647052
000310 a7 e0 b2 be 59 cf a9 be 40 40 d0 3e e6 9f 9e 3a
       -0.3493702 -0.33166006 0.4067402 0.0012102097
000320 47 bb 19 3e 1e e7 0e be 98 10 4f bd 1c ac ba 3e
       0.15012847 -0.13955352 -0.050552934 0.36459434
000330 9b ca 84 3e 5f 43 45 bd 16 95 29 be 4d 96 90 3d
       0.25935826 -0.048159953 -0.16560778 0.070599176
000340 2d 77 7b 3e 7a 6d 3a 3d f9 5b 42 3e 54 76 2f be
       0.2455718 0.04551456 0.18980397 -0.17134982
000350 96 36 fe bd 97 1b 92 3d 6b 26 0d 3d cd 80 a8 bd
       -0.12412755 0.071341686 0.034460466 -0.08227692
000360 8f 72 68 3c ef ff e4 bd dd 60 b7 bd 1f 6f 75 be
       0.014187469 -0.11181628 -0.08954022 -0.2396817
000370 bf 05 4e 3e fe 4e a5 bb b0 22 23 bd 71 5a f7 3d
       0.2011938 -0.005044817 -0.039828002 0.12077797
000380 31 97 3e 3e 48 fb b4 3d 0d 5c 96 bd 1d f1 80 3d
       0.18612362 0.088369906 -0.07341776 0.06295989
000390 30 f7 19 bd c5 18 11 be cd 43 28 3e f4 b3 d4 bd
       -0.037589252 -0.14169605 0.16432114 -0.10385886
0003a0 0b 7e 08 be a0 71 60 3d 39 1b 43 3b 82 ce fb 3c
       -0.13329332 0.05479586 0.0029770865 0.030738119
0003b0 92 d9 2d be 77 b9 1f be 52 dd ac bd d7 b4 e0 bd
       -0.16977528 -0.15598093 -0.08440651 -0.109719925
0003c0 22 1a 65 3c 53 9d f5 3c 9d 1d fa 3c 66 61 55 3e
       0.013983281 0.029982245 0.030531699 0.20837936
0003d0 43 c3 01 be ce c7 83 3e 76 01 83 be 78 1d da 3d
       -0.12672143 0.25738376 -0.25587052 0.10650152
0003e0 34 8a cb 3d 1b 84 92 3d 54 b2 8c be 77 9a 55 3e
       0.099384695 0.07154103 -0.27479804 0.20859705
0003f0 63 6a 8a 3e 44 68 9c be c5 9b 62 bd a7 76 22 be
       0.27034292 -0.30548298 -0.055324335 -0.15865575

bias_ih_l0 f4 [80]
000000 df c0 46 3e 63 37 4b 3d 72 30 6b ba d8 26 2c 3f
       0.19409512 0.049613368 -0.00089717575 0.6724677
000010 fc 7c dc bd 4c ed 16 be aa a1 8d bd b6 14 9d 3e
       -0.107660264 -0.14738959 -0.069156006 0.30679864
000020 7e 0b 32 3e 56 0f bd 3e e6 eb 40 be 2b d3 6b bd
       0.17387196 0.36925763 -0.18839988 -0.057574432
000030 b6 a2 30 3e 5b 39 a6 3d e4 47 5d be f4 27 a3 3e
       0.1724957 0.081164084 -0.21609455 0.3186642
000040 1b 80 10 be 3b 8e 3e bb d6 aa ed 3d bc b9 bc 3d
       -0.14111368 -0.0029076475 0.1160485 0.092151135
000050 d3 db 88 be 1b fd 24 be 33 71 b2 be 4d 9b 25 3d
       -0.26730213 -0.16112177 -0.3485199 0.04043131
000060 54 66 34 3e d2 37 24 be 97 7a a0 be ba 3b d5 bd
       0.1761716 -0.16036919 -0.3134353 -0.104117826
000070 d3 0d 2d be de 8b 4a 3e 3a 6f 9c be 92 d5 12 be
       -0.16899805 0.19779918 -0.3055361 -0.14339283
000080 76 27 f6 bb c9 b1 05 3e 5a c9 91 be 1b 5e 09 3e
       -0.0075120283 0.13056101 -0.28473932 0.13414805
000090 2d b0 28 bd 0c 48 65 3d ee 23 01 be 83 f6 23 3e
       -0.04118364 0.055976912 -0.12611362 0.16012006
0000a0 a0 14 05 3e 04 cc 38 bc 10 83 19 be fe c0 3b 3d
       0.12996149 -0.01127911 -0.14991403 0.04583835
0000b0 65 04 5c 3d 8e 35 d7 3d a8 03 07 bd 82 21 6b 3c
       0.05371513 0.105082616 -0.03296247 0.014351251
0000c0 4c 3f 4a bd e6 83 10 3c b2 82 b2 bc 9f b0 a1 3d
       -0.04937677 0.00882051 -0.021790836 0.07895016
0000d0 87 7f c0 bd f1 dc 36 3d b6 5e 0e 3e f3 0c 26 bd
       -0.09399324 0.0446443 0.13903317 -0.040539693
0000e0 d2 9e 07 3e 0b b8 14 be e3 a2 b3 3d eb 4f 50 3e
       0.13244179 -0.14523332 0.087713026 0.20342986
0000f0 6e 60 83 3e 97 8d d9 bd b5 79 34 be 6f 45 e8 3e
       0.25659508 -0.10622709 -0.17624553 0.45365474
000100 3f 51 0d bd 4b 3e 4f be 5a 91 2a be 40 ab 52 3e
       -0.03450131 -0.20238607 -0.1665701 0.20573139
000110 97 dc 8f 3e 33 4c 37 3e ed 21 50 be 6d 88 cb bc
       0.28097984 0.17900161 -0.20325442 -0.024845326
000120 3b 95 26 3e 02 9b 19 3d 33 66 8c be 6e 1e e8 3e
       0.16267864 0.037501343 -0.27421722 0.45335716
000130 c2 e5 d6 bd d4 a9 d7 3d 74 3e 8f 3d a7 50 4a be
       -0.104930416 0.10530439 0.06994334 -0.19757329

bias_hh_l0 f4 [80]
000000 b8 d9 00 be 82 df d9 bd 10 f4 aa 3c ce 66 25 3f
       -0.12583053 -0.10638334 0.020868331 0.6460999
000010 7a b6 52 bc 98 34 2a 3d 27 dc f3 bc b3 49 25 bd
       -0.012860889 0.041554064 -0.029768063 -0.04035349
000020 f1 3b ba 3d fa a1 05 3e e1 06 a7 bc 16 7e ab bd
       0.09093464 0.1305007 -0.020389022 -0.08373658
000030 41 f6 ca 3c d8 9a 03 be 60 2c 83 be 01 3b cd 3d
       0.024775626 -0.12852037 -0.25619793 0.1002102
000040 39 86 2b 3e cc fb f0 bd 62 d2 ef bc c0 99 45 be
       0.1675042 -0.117667764 -0.029275123 -0.19296932
000050 62 a8 c3 3d e6 17 f3 3d 15 a2 83 bd ee 7f 35 be
       0.09553601 0.11869793 -0.06427399 -0.17724583
000060 02 62 0d 3d 45 4e 65 bc c9 fd 0e 3d d7 1b 92 3d
       0.034517296 -0.013995712 0.034909997 0.07134216
000070 d3 26 26 3e 84 e6 4b be 07 28 b8 3d ad 56 7f be
       0.16225748 -0.19912153 0.089920096 -0.24935408
000080 45 41 20 be cb ad 15 3e ed 2a 53 be 85 c5 46 be
       -0.15649898 0.14617078 -0.20621844 -0.19411285
000090 75 05 83 bd 8e f7 47 3e 37 bc 71 be 96 d7 24 3c
       -0.06397525 0.19528028 -0.23606955 0.010061165
0000a0 c5 1d fa 3d 2a 73 44 be c4 3a 10 3e 3e ff ea bd
       0.12212709 -0.19184557 0.14084917 -0.11474465
0000b0 66 de b8 3d 22 c5 02 be 32 8f 6f bd 14 73 13 bb
       0.09026794 -0.12770513 -0.05848617 -0.0022499012
0000c0 0c a2 57 3d 4f d1 f1 bc 2e 46 b6 bd 69 91 4b bc
       0.052644774 -0.029518751 -0.089001045 -0.012424805
0000d0 e7 99 9d 3d 61 e3 6e be c3 24 28 bd 8d b9 30 bd
       0.0769537 -0.23328926 -0.041050684 -0.043145705
0000e0 c3 7a 40 be ce 62 02 be 29 ee ac 3d 62 6c 01 3e
       -0.1879683 -0.12733003 0.08443863 0.12639001
0000f0 39 49 c0 3b 23 72 48 bd ea ef a9 3d 5d 14 24 3f
       0.005868104 -0.048936974 0.08297713 0.6409357
000100 c4 ae 1c 3e e7 91 1e 3e 42 07 2b 3e 90 d5 a3 3e
       0.15301043 0.15485345 0.16701987 0.31998873
000110 c8 79 00 bc 37 11 e8 3e 78 71 20 3b 98 b2 46 be
       -0.007841535 0.45325634 0.0024481695 -0.19404066
000120 48 2d 4b 3d 88 ce 8d 3b 68 55 8c be 0f a9 a4 3e
       0.04960373 0.004327599 -0.2740891 0.3216023
000130 e5 9c ff 3d 25 7c 1b 3c 31 4d 0b 3e 71 17 61 be
       0.12481097 0.009490048 0.13603665 -0.21981598

weight f4 [1, 20]
000000 7b c4 4d be ed ab 4c be 87 e6 30 be cc bf 9b 3e
       -0.20094483 -0.1998746 -0.17275439 0.30419767
000010 43 6a fb bd 31 a7 82 bd a0 fd 3c 3e 95 fb 0e 3e
       -0.12276127 -0.063795455 0.18456125 0.13963158
000020 4d 71 22 be 42 ea d3 3e d9 aa 8e bd fd 8a c7 bd
       -0.15863533 0.41389662 -0.0696618 -0.09743307
000030 77 b4 a8 3e 4b 51 17 be 6d 00 58 bd 57 ce 88 3e
       0.32950184 -0.14777105 -0.05273478 0.26719925
000040 e3 d8 d8 bb c2 90 82 be bc 79 6b bc 2a 2a c8 3d
       -0.006617652 -0.25501066 -0.014372285 0.09773667

hidden_cell f4 [1, 1, 20]
000000 1e 66 98 3d 5f 15 ef bd 16 b5 b2 3b c9 7d 8a bd
       0.07441352 -0.11673998 0.005453716 -0.06762273
000010 ab 0b 18 3d b6 b2 e1 b9 c0 39 b6 bb 8f 6f 18 bd
       0.037120502 -0.00043048494 -0.0055610836 -0.037215766
000020 1a 70 e4 38 55 51 49 3d 6f a8 8b bc 0e 77 54 3c
       0.00010892768 0.04914983 -0.017048089 0.012967838
000030 b4 11 2b 3d 45 22 33 be d6 8d 8e 3b b6 ef 55 bd
       0.04176493 -0.17493542 0.0043504043 -0.05223056
000040 1b af 80 bd 93 62 1d be 63 50 a0 3d c2 eb 05 3e
       -0.06283399 -0.15369634 0.078278325 0.13078216

hidden_cell f4 [1, 1, 20]
000000 f4 01 04 3e b7 7a 7b be 7f c4 3c 3c 46 4e ac bd
       0.1289137 -0.24558531 0.011521458 -0.08413367
000010 8f a6 88 3d 58 f9 67 ba 0e 56 3a bc 13 a5 62 bd
       0.066723935 -0.0008849106 -0.011373056 -0.05533321
000020 ba 35 42 39 d9 3c 90 3d d6 f3 1e bd 1f eb e5 3c
       0.00018521296 0.07042856 -0.03880676 0.028066216
000030 62 e7 91 3d 1f d8 b4 be 6d 42 48 3c 83 57 91 bd
       0.07124211 -0.35321137 0.012222868 -0.0709677
000040 1b 41 06 be e7 f8 94 be c7 62 16 3e 2e 99 b1 3e
       -0.13110773 -0.29096147 0.14686118 0.3468718
