mlruns/0/84c75f7b02564000997048018d40906c/artifacts/model/data/model.pth (torch, 14120 bytes, 7 tensors)

weight_ih_l0 f4 [80, 1]
0	0x3da6d76d	0.08146558
1	0x3ea83947	0.328562
2	0xbdd7c1e8	-0.105350316
3	0x3ed23cb1	0.4106193
4	0x3e7a4c66	0.24443206
5	0xbde16cc0	-0.110070705
6	0x3e686b93	0.22697286
7	0x3e8bb41a	0.27285844
8	0x3e076e70	0.13225722
9	0x3ec722cd	0.38893738
10	0x3d74c11a	0.05975447
11	0x3eb76593	0.35819682
12	0x3e112d87	0.14177524
13	0x3e4c16cf	0.19930576
14	0x3c1ce045	0.009574954
15	0xbc9acb6c	-0.018895827
16	0x3d51cd6c	0.051221296
17	0x3d7cb840	0.061699152
18	0x3f07170b	0.52769536
19	0x3ef44e93	0.47716197
20	0x3e219976	0.15781197
21	0xbe9f6643	-0.31132707
22	0xbe450b9f	-0.19242714
23	0x3e265552	0.16243485
24	0x3ec233e8	0.37930226
25	0xbede63e1	-0.43435577
26	0x3e8f3f97	0.27978203
27	0x3e3efbc9	0.18650736
28	0x3db2781d	0.08714316
29	0xbe1490a2	-0.14508298
30	0xbe6f9a63	-0.23398738
31	0xbea94a88	-0.33064675
32	0x3e945ef8	0.28978705
33	0x3eb8a0f9	0.36060312
34	0xbddec499	-0.10877342
35	0x3e15a685	0.14614303
36	0xbe33f7e3	-0.1757503
37	0xbe4e976d	-0.20174952
38	0x3ebc8ed4	0.3682772
39	0x3dddbb6e	0.10826765
40	0x3d7f5859	0.062340114
41	0xbee2a465	-0.44266048
42	0x3db6c6e7	0.08924656
43	0xbef1eb2c	-0.47249734
44	0xbeb9dce3	-0.36301336
45	0xbf0ffcbe	-0.5624503
46	0xbd2fb6f0	-0.042899072
47	0x3ed240d4	0.41065085
48	0x3f29030c	0.66020274
49	0xbf0975ad	-0.53695184
50	0xbf18d3e3	-0.59698313
51	0xbf0ec57a	-0.55770075
52	0xbeeb11b9	-0.4591196
53	0xbf03a545	-0.51424056
54	0xbe883061	-0.2659941
55	0x3eb14d10	0.34629107
56	0xbd15807b	-0.03649948
57	0x3e8ecc39	0.27890185
58	0xbf2a1410	-0.6643686
59	0xbf08278a	-0.5318533
60	0x3eb01d8f	0.3439755
61	0x3eb9bc27	0.3627636
62	0x3d59e5f5	0.05319782
63	0x3f0b5336	0.54423845
64	0x3e9da357	0.3078868
65	0xbe1c24f1	-0.15248467
66	0x3e90d31e	0.2828607
67	0x3e0df82b	0.138642
68	0x3e9dbd3e	0.30808443
69	0x3f18e86a	0.59729636
70	0x3e7748ec	0.24148911
71	0x3ecd6d43	0.40122423
72	0x3e3d9689	0.18514456
73	0x3e12a819	0.14321937
74	0x3c5afdab	0.013366143
75	0x3e0c750c	0.13716525
76	0x3df4a29c	0.11945078
77	0x3e8cbb11	0.2748647
78	0x3f05cc87	0.5226521
79	0x3ef96134	0.48706973

weight_hh_l0 f4 [80, 20]
0	0xbe972a2a	-0.29524356
1	0xbd9b680a	-0.07588203
2	0x3c4cffd5	0.012512167
3	0x3dd1bbe7	0.10240918
4	0xbcf6d6f0	-0.030131787
5	0x3e0f4f0f	0.13995002
6	0xbda5403b	-0.080688916
7	0xbe55541f	-0.20832871
8	0xbe8a2355	-0.2698008
9	0x3e72bc0e	0.2370455
10	0xbe539d8c	-0.20665568
11	0x3e4d28ae	0.2003505
12	0x3e5f0f6a	0.21783224
13	0x3e96fa6c	0.29487932
14	0xbe0d3af1	-0.13792016
15	0xbc1ca4d9	-0.009560787
16	0xbb43992a	-0.0029845932
17	0x3e716f55	0.23577626
18	0xbd2aa880	-0.0416646
19	0x3dddf2a8	0.10837299
20	0x3e35f888	0.17770588
21	0x3e659db1	0.22423436
22	0x3c4eb651	0.01261671
23	0xbde16a52	-0.11006607
24	0xbd30bdaa	-0.043149628
25	0xbd15fdd2	-0.036619015
26	0xbd6c462a	-0.0576841
27	0x3e8e01d2	0.27735764
28	0x3dd04965	0.10170249
29	0xbe9a90a8	-0.3018849
30	0xbd9cad8a	-0.076502874
31	0x3d27aed1	0.040938202
32	0xbe605081	-0.2190571
33	0x3e1d2f38	0.15350044
34	0xbd88f3a3	-0.06687095
35	0x3e67acc4	0.22624499
36	0x3e003e80	0.12523842
37	0xbd828049	-0.06372125
38	0xbd651f1a	-0.055937864
39	0xbec14698	-0.3774917
40	0x3d80b999	0.062854
41	0x3dc5a164	0.096499234
42	0xbd1bf9cc	-0.03808002
43	0x3d8b8c9a	0.06813927
44	0x3e0322ce	0.12806246
45	0xbe928e0c	-0.28623998
46	0x3d8c31be	0.06845425
47	0x3d266d27	0.04063144
48	0x3d5e7bcf	0.05431729
49	0xbe23460e	-0.15944692
50	0xbc925275	-0.017861584
51	0xbe2969f3	-0.16544323
52	0xbdeee641	-0.11665011
53	0x3e37e4eb	0.17958419
54	0xbe87ddb4	-0.26536334
55	0xbc382e5c	-0.011241522
56	0xbe27a7d2	-0.16372612
57	0xbc06ab02	-0.008219482
58	0x3e5cd9c0	0.2156744
59	0xbc5e62c7	-0.013573355
60	0x3e83d04a	0.2574485
61	0xbe29e2e0	-0.16590452
62	0xbe7ddada	-0.24790516
63	0x3e04cb1d	0.12968107
64	0xbc95a824	-0.018268652
65	0x3e386aa9	0.18009438
66	0x3e302795	0.172026
67	0x3d202013	0.03909309
68	0xbe42e679	-0.19033231
69	0xbdf0b68f	-0.1175357
70	0x3e62c473	0.22145252
71	0x3e9c7acf	0.30562446
72	0x3dd9fa74	0.10643473
73	0xbe620766	-0.22073135
74	0x3dcd8784	0.10035613
75	0xbd8f614e	-0.07000981
76	0x3e2a0432	0.16603163
77	0x3d7c01a1	0.06152499
78	0xbd9e3aae	-0.07726036
79	0xbe07dfe9	-0.13269009
80	0x3e93fb7a	0.289028
81	0x3ca7d96a	0.020489413
82	0xbcdd393e	-0.027004834
83	0xbd5f0cdb	-0.05445562
84	0xbc509dfd	-0.01273298
85	0x3e82e9c3	0.2556897
86	0xbe745d38	-0.23863685
87	0x3e576508	0.21034634
88	0xbe03c335	-0.12867434
89	0x3de1abca	0.11019094
90	0x3e4f9032	0.2026985
91	0x3dbf9ced	0.09356103
92	0xbe81ac8c	-0.25326955
93	0x3e3318ea	0.17489973
94	0x3cc918b7	0.024547918
95	0x3c9b1d70	0.018934935
96	0x3e6c9e44	0.23107249
97	0xbdd6eae8	-0.104940236
98	0x3c9ad7e6	0.018901777
99	0xbdf9c6b9	-0.121961065
100	0x3e8ca786	0.2747156
101	0xbdf17dad	-0.11791549
102	0xbdef0369	-0.11670572
103	0xbe70459e	-0.23464057
104	0xbee555e1	-0.44792083
105	0x3db7542a	0.089516
106	0xbeb54706	-0.3540575
107	0xbd00df94	-0.03146322
108	0x3cec23a5	0.02882559
109	0xbdbca0a9	-0.09210331
110	0x3d2272ea	0.03966037
111	0xbc694d47	-0.014239616
112	0xbd1a7ce1	-0.03771675
113	0x3d32a581	0.043614868
114	0xbe35f5c5	-0.17769535
115	0x3e4402af	0.19141649
116	0xbe791696	-0.24325022
117	0x3de790bd	0.113069035
118	0xbd0575a0	-0.03258288
119	0xbd66ea59	-0.056375835
120	0xbdf28e46	-0.11843543
121	0x3e0ca21a	0.13733712
122	0x3e649db1	0.2232578
123	0x3e9ccb84	0.3062402
124	0x3ea17675	0.31535688
125	0x3daf90cd	0.085725404
126	0xbd689a35	-0.05678769
127	0xbe898a27	-0.26863214
128	0xbe9ac5d3	-0.30229053
129	0x3c984b54	0.018590607
130	0x3e2f3952	0.1711171
131	0x3e44f940	0.19235706
132	0xbd3a734e	-0.04552012
133	0x3dc076ca	0.09397657
134	0x3d8c79fb	0.068592034
135	0xbdfaf79c	-0.12254259
136	0x3e3c997a	0.18417922
137	0x3df9cfe6	0.121978566
138	0xbd424aa3	-0.04743446
139	0x3e0d7ebe	0.1381788
140	0x3d4eefc6	0.050521635
141	0xbab1048b	-0.0013505382
142	0x3d5dc8f4	0.054146722
143	0x3c35c05d	0.011093226
144	0xbdc9a920	-0.09846711
145	0x3e901410	0.28140306
146	0xbe3f6d96	-0.18694147
147	0x3e17a1f1	0.1480787
148	0xbe5be10a	-0.21472564
149	0x3df0824c	0.11743602
150	0xbdb4a2ad	-0.088200904
151	0x3c5c2bc9	0.013438174
152	0xbc839729	-0.01606329
153	0x3d1d30e5	0.038376708
154	0x3d8fc9ef	0.07020938
155	0xbdf8a194	-0.121401936
156	0x3e4c7d88	0.19969761
157	0x3e01ff9a	0.1269516
158	0xbd8200ce	-0.0634781
159	0xbd1eb240	-0.03874421
160	0x3e6e9a8e	0.23301145
161	0x3e45bfbd	0.19311424
162	0xbed4601d	-0.4147958
163	0xbdddbf3f	-0.10827493
164	0xbe16d318	-0.14728963
165	0x3e3ac4d2	0.18239143
166	0xbdb13316	-0.08652322
167	0x3e94013b	0.2890719
168	0xbc61e99c	-0.013788607
169	0xbe0e6416	-0.13905367
170	0x3e8ce9f8	0.27522254
171	0x3d0cb8ce	0.03435593
172	0xbe11ad7e	-0.14226338
173	0xbe559b90	-0.20860124
174	0x3c81e10d	0.015854383
175	0x3eb027d4	0.34405386
176	0xbc448b60	-0.01199612
177	0x3d4a7d6b	0.049436014
178	0xbe8b5fe7	-0.27221605
179	0xbe5a978a	-0.2134687
180	0x3ee5c720	0.44878483
181	0x3d7787b5	0.060432155
182	0xbe61a1c6	-0.22034368
183	0xbf1aa213	-0.60403556
184	0xbeab8dc5	-0.335066
185	0x3f349b0d	0.7054909
186	0xbec035a1	-0.37540916
187	0x3e980eb5	0.2969872
188	0x3e464c44	0.1936503
189	0xbde2cf60	-0.1107471
190	0x3e38c756	0.1804479
191	0x3e3e67f2	0.1859434
192	0xbdd5cdd9	-0.10439653
193	0xbedc8cef	-0.43076274
194	0x3e6a0dcb	0.22856824
195	0x3ec137bb	0.3773783
196	0xbe430309	-0.19044127
197	0x3df5ba6a	0.11998446
198	0xbe75b4c5	-0.2399474
199	0xbe580292	-0.2109473
200	0x3e3e00ed	0.1855504
201	0x3e81139d	0.25210276
202	0x3b5bd3d1	0.0033543
203	0xbdeebe3d	-0.11657379
204	0xbec325a9	-0.3811467
205	0x3e95f8d6	0.2929141
206	0xbe38dca2	-0.18052915
207	0x3e8b63d9	0.27224615
208	0x3e1e466c	0.15456551
209	0x3c2cf656	0.010556778
210	0xbce5f1d4	-0.028069414
211	0x3e8e4ead	0.277944
212	0xbd090ae2	-0.033457644
213	0x3e1c6bbc	0.15275472
214	0x3e36e34f	0.17860149
215	0x3ce0b3a6	0.027429413
216	0xbe0f59e0	-0.13999128
217	0xbe074165	-0.1320854
218	0x3e577b23	0.21043067
219	0xbe9c7210	-0.30555773
220	0x3f022919	0.5084396
221	0x3e14914f	0.14508556
222	0xbdff9398	-0.12479323
223	0xbecc9638	-0.39958358
224	0xbecdf3c4	-0.4022504
225	0x3ef16308	0.47145867
226	0xbe9e90c5	-0.30969825
227	0x3ec2908d	0.38000908
228	0x3e51ca82	0.20487407
229	0xbe2be0da	-0.16784993
230	0x3e369dce	0.17833635
231	0x3e3085cd	0.17238541
232	0xbeaef021	-0.3416758
233	0xbe53b662	-0.20675042
234	0x3d5324ff	0.051548954
235	0x3e9caa3d	0.30598632
236	0xbe5cae53	-0.21550874
237	0x3e80da57	0.2516658
238	0xbc9bcc1d	-0.019018227
239	0xbee8c40c	-0.45462072
240	0x3dfafb6e	0.12254988
241	0x3d8aadf9	0.06771464
242	0xbe8a4ddf	-0.27012536
243	0xbdd6bee3	-0.104856275
244	0x3dd2cbd6	0.10292785
245	0x3e9b5c69	0.3034394
246	0xbdcad19e	-0.099032626
247	0xbe1395db	-0.14412634
248	0x3b4e455c	0.0031474447
249	0xbd6a1a16	-0.057153784
250	0x3e260074	0.1621111
251	0xbc8bb0fe	-0.01705217
252	0xbc486eaf	-0.01223342
253	0x3e392351	0.18079878
254	0xbda14fe9	-0.0787657
255	0xbd2ce9a2	-0.042214997

bias_ih_l0 f4 [80]
0	0xbe8f00ce	-0.279303
1	0x3e379e19	0.17931403
2	0xbd650e2e	-0.055921726
3	0xbe16274c	-0.14663428
4	0x3e8abd99	0.27097777
5	0xbd3eba7f	-0.046564575
6	0xbe2a56ae	-0.16634628
7	0xbd2d194b	-0.04226045
8	0x3efdcf81	0.49572375
9	0x3ee798cb	0.4523376
10	0x3edb831d	0.4287347
11	0x3ec96b73	0.3933979
12	0x3e8d2f14	0.2757498
13	0x3d2ee1b9	0.042695735
14	0x3e577580	0.21040916
15	0x3e60da29	0.21958221
16	0xbdb6269d	-0.08894084
17	0x3e82980a	0.25506622
18	0x3eeec915	0.46637788
19	0x3e930de7	0.28721544
20	0xbe394acb	-0.18094938
21	0xbcb91286	-0.02259184
22	0xbe6ee80f	-0.23330711
23	0xbe36ba86	-0.1784459
24	0xbb889f76	-0.0041694
25	0xbbbdf60f	-0.0057971547
26	0x3db217bb	0.086959325
27	0xbe3016a1	-0.17196132
28	0xbe56d671	-0.2098024
29	0xbd806d7a	-0.06270881
30	0x3dace12d	0.08441386
31	0x3c1e47a7	0.009660638
32	0x3dc766c4	0.09736398
33	0x3da90d48	0.08254486
34	0x3dbc31a6	0.09189157
35	0xbe4002c7	-0.1875106
36	0x3d033224	0.03203024
37	0xbecfd685	-0.40593353
38	0xbe9bedc6	-0.30454844
39	0xbe765a5f	-0.24057911
40	0x3e47dbf0	0.19517493
41	0x3d6a456d	0.057195116
42	0x3dd75fad	0.105162956
43	0x3c801278	0.015633807
44	0xbe287460	-0.16450644
45	0x3dd3033c	0.10303351
46	0xbdf8630c	-0.12128267
47	0xbd2f2839	-0.04276297
48	0xbe10823d	-0.14112182
49	0xbe03f122	-0.12884954
50	0x3df3c418	0.11902636
51	0x3e321064	0.17389065
52	0x3d18f0e6	0.037339114
53	0x3e2a78b5	0.16647609
54	0x3ba30eb0	0.004976116
55	0x3de567ca	0.11201437
56	0x3ddb62fd	0.1071224
57	0xbe245ee8	-0.16051829
58	0xbd90939b	-0.070594035
59	0xbd498bc0	-0.04920554
60	0xbbba3930	-0.005683087
61	0x3e9f56ac	0.31120813
62	0xbe8236e8	-0.25432515
63	0xbd80493f	-0.062639706
64	0xbd52fd0f	-0.051510867
65	0x3eac29ec	0.33625734
66	0xbdfbc9e1	-0.12294365
67	0x3daccc7a	0.08437438
68	0x3eea3d55	0.45749918
69	0x3f40ab27	0.7526116
70	0x3ee4af64	0.44665062
71	0x3ed8a31f	0.42311952
72	0xbd231696	-0.03981646
73	0x3ed5d1b2	0.41761547
74	0x3d4e89f4	0.05042453
75	0x3d5549aa	0.052072205
76	0xbe37e56b	-0.1795861
77	0xbe25a93d	-0.1617784
78	0x3ed184b1	0.40921548
79	0xbd32fca1	-0.043697957

bias_hh_l0 f4 [80]
0	0xbe7c188e	-0.24618742
1	0x3df7d8c7	0.12101894
2	0xbdb4927c	-0.08817002
3	0x3e6daaa6	0.23209628
4	0xbd70caea	-0.058787264
5	0x3eb07e9c	0.34471595
6	0xbe30cd62	-0.17265847
7	0xbd8af219	-0.06784458
8	0x3f0de1d6	0.55422723
9	0x3f295a8f	0.66153806
10	0x3e0a8a9f	0.13529442
11	0x3e8b7f68	0.2724564
12	0x3e165682	0.14681438
13	0x3d9423e9	0.07233412
14	0xbd3fb61a	-0.046804525
15	0xbcdb2214	-0.026749648
16	0xbe28b73e	-0.16476151
17	0x3e055561	0.1302085
18	0x3e7913d2	0.24323967
19	0xbd0ad9f8	-0.033899277
20	0xbe88bafc	-0.26705158
21	0xbe432a35	-0.1905907
22	0xbe7e44a6	-0.24830875
23	0x3d1946ef	0.037421163
24	0xbe907d76	-0.2822072
25	0x3e42deb2	0.19030264
26	0xbd893b0f	-0.06700718
27	0xbe806201	-0.2507477
28	0x3c7af3c0	0.015316904
29	0xbe66f182	-0.22553065
30	0xbdcd0b79	-0.10011954
31	0xbdd80e39	-0.10549588
32	0xbe6dfced	-0.23241015
33	0xbe91a932	-0.28449398
34	0xbc3243ae	-0.010880394
35	0xbdb6a46f	-0.08918082
36	0xbe005248	-0.12531388
37	0xbece766b	-0.4032472
38	0x3d829ba5	0.06377343
39	0xbd96207b	-0.07330414
40	0x3deaa9d8	0.114581764
41	0xbd232a4a	-0.039835252
42	0xbdd8f041	-0.105927
43	0xbe3d377c	-0.18478197
44	0x3e118458	0.14210641
45	0x3ca0f91e	0.019650038
46	0xbe3b76b6	-0.18307003
47	0x3dbe4ff0	0.092925906
48	0x3dc117c3	0.0942836
49	0x3e27cbb1	0.16386296
50	0x3d9dc637	0.07703822
51	0xbdba5289	-0.090977736
52	0xbda04fa3	-0.078276895
53	0xbe18b5fb	-0.1491317
54	0x3d4439f9	0.04790685
55	0x3c3f6380	0.0116814375
56	0xbdfae181	-0.12250043
57	0x3e5236ca	0.20528713
58	0x3e0e07f5	0.13870223
59	0xbc796f45	-0.015224283
60	0xbd179739	-0.03700945
61	0x3ec7b905	0.39008346
62	0xbe01f26a	-0.1269013
63	0xbd51eb29	-0.051249657
64	0x3d032891	0.03202111
65	0x3e58449e	0.21119925
66	0xbddcef6a	-0.10787852
67	0x3e655a42	0.22397712
68	0x3f08fd23	0.53511256
69	0x3f1b88b5	0.60755473
70	0x3eed2697	0.46318504
71	0x3e82c9e8	0.25544667
72	0x3e100487	0.14064227
73	0x3eee463b	0.46537957
74	0x3e38b132	0.18036345
75	0x3df7f633	0.12107506
76	0xbea008d6	-0.3125674
77	0x3ddce31a	0.10785504
78	0x3e95ce15	0.2925879
79	0x3d8debe2	0.06929757

weight f4 [1, 20]
0	0x3dd58298	0.104252994
1	0xbe88e6eb	-0.26738676
2	0x3d07c69d	0.033148397
3	0xbe6f49cf	-0.23368
4	0xbe921b39	-0.28536394
5	0xbe836971	-0.25666383
6	0xbdaaf50c	-0.0834752
7	0x3e102cb4	0.14079553
8	0x3e6109fb	0.21976463
9	0xbedfb76c	-0.43694627
10	0xbe1ba2f5	-0.15198882
11	0xbeb74519	-0.35794905
12	0xbe356b45	-0.17716701
13	0xbe346d81	-0.17619897
14	0xbe0d35b0	-0.13790011
15	0x3d9d4be3	0.0768049
16	0xbd7496c8	-0.05971411
17	0x3e4bcb34	0.19901735
18	0xbe962039	-0.2932146
19	0xbe7cac63	-0.24675135

hidden_cell f4 [1, 1, 20]
0	0x3d943907	0.072374396
1	0x3cefba48	0.02926363
2	0x3b7ea4b5	0.0038855497
3	0xbdd33996	-0.10313718
4	0xbd1ff1bb	-0.03904889
5	0x3decd89c	0.115647525
6	0xbdb8f1e3	-0.09030511
7	0x3cee28be	0.029072162
8	0x3c67dd56	0.014151892
9	0x3cefaca2	0.029257122
10	0xbbd91f86	-0.0066260723
11	0x3d09f22c	0.03367822
12	0xbc099a9e	-0.00839868
13	0xbc8ff3a3	-0.01757223
14	0x3c9d5846	0.019207131
15	0x3d43ea26	0.047830723
16	0x3ab42ebf	0.0013746842
17	0xbc00eefb	-0.007869477
18	0x3c322837	0.010873846
19	0xbdaabe1d	-0.083370425

hidden_cell f4 [1, 1, 20]
0	0x3e1aae8f	0.15105651
1	0x3d293969	0.041314516
2	0x3c202d16	0.009776374
3	0xbe59c792	-0.21267536
4	0xbd978373	-0.07398119
5	0x3e32936a	0.17439047
6	0xbe57946e	-0.21052715
7	0x3d4e35d2	0.050344296
8	0x3c964589	0.018343704
9	0x3d0dfb86	0.0346637
10	0xbc13509a	-0.008991385
11	0x3d3ca47d	0.046055306
12	0xbc74fb11	-0.014952437
13	0xbcc1c6f7	-0.023654444
14	0x3d0d3867	0.034477618
15	0x3db5090c	0.08839616
16	0x3b74299f	0.0037256253
17	0xbc8220da	-0.015884805
18	0x3c73e184	0.01488531
19	0xbe2486f7	-0.1606711
