mlruns/0/86f08c164fe849dba4b1fbd387723d8b/artifacts/model/data/model.pth (torch, 14120 bytes, 7 tensors)

weight_ih_l0 f4 [80, 1]
000000 77 1c 95 be df 4b ed bc dd 0e 87 be 37 dc ef bd
       -0.2912328 -0.028966842 -0.26378527 -0.117119245
000010 80 42 62 be b9 17 bf be 62 03 67 be 30 e5 89 bd
       -0.2209568 -0.37322786 -0.22559884 -0.06733167
000020 61 0e 67 3e 3e a2 c9 bd 69 d2 09 3e 81 dc 95 bd
       0.22564079 -0.09845398 0.13459171 -0.073174484
000030 8b 11 3f be 53 b9 87 bd 1a 51 13 bd ff 3a 4a 3e
       -0.18659036 -0.06627145 -0.035966016 0.19749068
000040 17 a6 56 3c 34 80 7a 3d b0 63 23 bd 60 23 73 bd
       0.013101122 0.06115742 -0.03988999 -0.059359908
000050 0e 34 41 be 75 d7 0c be 96 bf 4a be 3d 7c d7 3d
       -0.18867514 -0.13754065 -0.19799647 0.105217434
000060 e2 2e 86 bc 6f f1 77 be 03 46 b0 bd 17 8b 82 3d
       -0.016379777 -0.24213193 -0.08607104 0.063741855
000070 6b eb 3a 3e a5 76 5f be c3 7a c7 bd 64 34 95 be
       0.18253867 -0.21822603 -0.09740212 -0.29141533
000080 81 e1 29 be 48 ba 5b bd 2b d4 6a 3d d2 de 76 3e
       -0.16589929 -0.05364445 0.057331245 0.24108437
000090 77 89 e5 ba 6b 7d 27 3e 85 d2 81 be 97 d7 f7 bd
       -0.0017512281 0.16356437 -0.25355926 -0.121016674
0000a0 31 7f 38 be c4 7d 9e be ab 15 46 be a3 83 3b 3e
       -0.1801727 -0.30955327 -0.19344203 0.18311934
0000b0 20 dc 25 3d 65 88 9a bd b1 ea 6a be 16 74 82 3c
       0.04049313 -0.075455464 -0.2294109 0.015924495
0000c0 71 22 e0 3e e1 25 e3 3d 9e ae e7 bc ec 44 85 be
       0.43776277 0.11091209 -0.028281506 -0.26029146
0000d0 8d e5 8a bd e8 49 65 3e e5 46 91 bc 96 cd 17 3c
       -0.067820646 0.22391474 -0.017734 0.009265324
0000e0 36 84 5f bc ef 54 40 be f5 0b 10 3e d9 71 82 bd
       -0.013642361 -0.187824 0.14067061 -0.06369371
0000f0 18 07 06 3a a9 a2 f0 bd 5f d2 90 be a2 0d 7f be
       0.00051127514 -0.11749775 -0.282855 -0.24907544
000100 39 39 4b 3d c3 25 ab be eb 19 83 bd 12 17 53 bd
       0.04961512 -0.33427247 -0.06401428 -0.051535673
000110 68 59 4d 3e fa d2 4e be 1f cc 39 be 16 d8 61 bd
       0.20053637 -0.20197669 -0.18144272 -0.055137716
000120 9f a5 6f be 3d 62 ae bd 1a 0c 1a be af 8f 99 3e
       -0.23403023 -0.08514831 -0.15043679 0.29992434
000130 95 25 27 be 87 8b 6f 3d c1 43 64 be 1a 3f 63 3e
       -0.1632293 0.058482673 -0.22291471 0.2219204

weight_hh_l0 f4 [80, 20]
000000 90 b3 39 3e 6e 29 36 3e c9 ae fd 3d 40 32 e3 39
       0.18134904 0.17789242 0.12386853 0.00043334253
000010 c6 59 6c bd e3 95 fc bc ed 93 49 be 0d ec 4f be
       -0.057702802 -0.03083319 -0.19685335 -0.2030489
000020 41 6d 3b 3e 27 a1 03 3e d4 f5 87 bd 16 5b 2f 3d
       0.18303396 0.12854443 -0.06638685 0.042811476
000030 78 92 b5 3d d4 50 53 be ad 66 32 3e d4 a5 19 3e
       0.08865827 -0.20636302 0.1742198 0.15004665
000040 0f b4 13 3e dc 79 d2 3d d8 00 56 bd 46 01 dd bd
       0.14424156 0.10277149 -0.0522469 -0.107912585
000050 df 26 25 be fb fc 3c be e5 88 42 3e 9e 3e 4b 3e
       -0.1612811 -0.1845588 0.18997534 0.19848105
000060 fb 6a 48 3e 34 ca 20 3e cb a4 f5 3d af 82 41 be
       0.1957206 0.15702134 0.119943224 -0.18897508
000070 79 4f 11 be f5 ca 38 be b2 e4 bb 3b 64 e3 0d bd
       -0.14190473 -0.18046172 0.0057340497 -0.034640685
000080 54 09 33 be 52 25 1b 3e b3 da 7f 3d 14 a2 07 3e
       -0.17484027 0.15150955 0.062464427 0.13245422
000090 8b af 03 be 00 5f ef 3d 49 a8 89 bd 8e ee 06 bd
       -0.12859933 0.11688042 -0.06721551 -0.032942347
0000a0 fa 32 8b 3c e0 12 1a be a8 b0 4a 3e 67 19 c3 3d
       0.016992081 -0.15046263 0.19793952 0.095263295
0000b0 56 00 34 3d 8c b7 59 3e e7 fb 6d be b3 ed e3 bd
       0.043945633 0.21261424 -0.23240624 -0.11129322
0000c0 5e c6 1f be 5e 04 a0 bc ba d8 83 3e 1c 5c 30 3e
       -0.15603015 -0.019533332 0.25751287 0.17222637
0000d0 75 f5 38 be b7 ef 1a 3e 79 44 fa bd fb 90 ca bd
       -0.18062384 0.15130506 -0.122200914 -0.09890934
0000e0 e5 ea 4f 3e c7 21 ee bb 34 03 56 bd 61 c7 dc bc
       0.20304449 -0.00726721 -0.05224915 -0.02695054
0000f0 6a 69 a9 bd 91 1d e0 bc 81 22 9e 3c 63 bb 62 3d
       -0.08272059 -0.027357848 0.019303562 0.055354487
000100 0a 1b b0 3c fd 53 61 3e 66 e8 e3 bd 76 16 08 3e
       0.021497268 0.22004695 -0.11128311 0.13289818
000110 c2 0c 21 3d c2 53 40 be 2c 8c 8e 3d 96 61 09 3e
       0.039318807 -0.18781951 0.069603294 0.13416132
000120 21 1e 38 be 63 ec be 3d d2 12 56 3e 27 ca 38 be
       -0.17980243 0.09322431 0.20905617 -0.18045865
000130 ff 3e 3c be 4e d3 6c 3c a2 55 78 bc f5 51 20 bd
       -0.18383406 0.014454676 -0.015157135 -0.03914066
000140 6b 54 44 3d 37 83 33 3e 85 09 6e be 5b a5 01 3e
       0.04793207 0.17530523 -0.23245819 0.12660734
000150 65 c5 d4 bd 44 4c 29 3e b3 da 57 be 21 51 61 3b
       -0.103892125 0.16533 -0.21079521 0.0034380632
000160 30 c1 e4 bc 12 ab 1d bd 91 d1 48 3e e2 93 60 bb
       -0.02792415 -0.038493223 0.19611193 -0.0034267833
000170 c9 f2 7c be e9 28 64 be f3 24 c5 3d e1 0e df bd
       -0.2470199 -0.22281231 0.09626188 -0.1089151
000180 1e 96 0f 3e e8 18 28 be ab 64 24 be 48 5b c6 3d
       0.14022109 -0.16415751 -0.16054027 0.09685379
000190 d7 90 24 bd 24 46 0a be 9f 9d 7e bc d9 8e 6b 3e
       -0.040177193 -0.13503319 -0.0155405095 0.23003711
0001a0 f6 96 2d 3e 72 48 04 3e ef bb 2c 3b c2 59 4b 3d
       0.16952118 0.1291826 0.0026357134 0.049646147
0001b0 98 81 c5 3d e9 65 3e be 7b c0 f3 bc 5e a8 72 be
       0.09643859 -0.18593563 -0.029754868 -0.2369704
0001c0 0b b6 1b 3d 6f b6 4a 3e b8 b4 7e be 87 c8 5a 3e
       0.038015407 0.19796155 -0.24873626 0.21365558
0001d0 45 a5 83 bd 65 71 59 3d 08 45 cb 3d 2b f6 9a bd
       -0.06428007 0.053086657 0.09925276 -0.07566484
0001e0 98 f3 6f be ba c8 0f 3d b0 00 1b 3e 0b ff a9 3d
       -0.23432767 0.035103537 0.15136981 0.08300599
0001f0 76 d7 77 3d 30 2c 8b 3d 1c b6 b3 bd 1c 55 11 3d
       0.060508214 0.067955375 -0.08774969 0.035481557
000200 a3 8f 63 3d 32 9b 45 3e 8c bb 9c bd ad 74 52 3e
       0.055556905 0.19297484 -0.07652959 0.20552321
000210 18 17 4e 3e de 2f 1a 3d d6 74 6c be 63 36 0f be
       0.20125997 0.037643306 -0.23091444 -0.1398559
000220 7e ee 43 3e a4 dc 8b 3d 31 60 f2 bd f2 95 92 bd
       0.19133946 0.06829193 -0.11834753 -0.07157506
000230 e8 6e b4 bd 0e 62 0f bd 82 ba fe bd 7e 52 f8 bd
       -0.08810216 -0.03500562 -0.12437917 -0.12125109
000240 34 e8 6e 3e 44 54 d0 bd 31 ee 28 3e e3 da 25 bc
       0.23330766 -0.101723224 0.16497113 -0.010122987
000250 4f bf b2 bd 6b ea 57 3d d9 16 31 bb 61 79 91 bd
       -0.087278955 0.052713793 -0.0027021675 -0.07103229
000260 24 35 22 be e2 aa 92 3d 46 44 1b be c1 ad f3 bc
       -0.15840584 0.071614996 -0.15162763 -0.029745938
000270 65 e1 56 3e a7 d5 c2 3d 7d 52 cc bd 85 21 c3 3d
       0.20984419 0.09513407 -0.09976671 0.09527878
000280 ae 28 da 3d c5 83 ce bc be 09 e3 3c bc b4 69 be
       0.1065229 -0.025209317 0.027714606 -0.22822851
000290 3f 81 18 be b9 c0 d9 bd 04 74 8c 3e 5b 26 ad be
       -0.14893053 -0.10632462 0.27432263 -0.33818325
0002a0 81 cd 4c bd 65 81 a5 bc 87 dc 52 be 61 60 7f bc
       -0.05000067 -0.020203302 -0.20591937 -0.015586943
0002b0 0a bf 70 3e d9 2a 04 3e 7f 76 22 3e ef a2 e1 bc
       0.23510376 0.1290697 0.15865515 -0.027543513
0002c0 e0 c8 32 be 38 77 63 3d 4c 56 6c be 61 d8 22 3d
       -0.1745944 0.055533618 -0.23079795 0.039757136
0002d0 14 81 c8 3c d5 e9 22 be 97 be 07 3d 58 9d 53 3e
       0.024475612 -0.15909512 0.033140745 0.2066549
0002e0 c3 51 68 3e 96 64 e0 bd a6 ff 2b be a0 8c b0 bd
       0.2268744 -0.10956685 -0.16796741 -0.08620572
0002f0 da c4 b4 bd 18 34 de bd 5e 4d 8c 3d 87 f5 2e be
       -0.08826609 -0.1084978 0.06850694 -0.17085849
000300 36 b8 07 3e 8f a8 17 3e 16 e9 b7 39 3d 64 f0 3d
       0.13253865 0.14810394 0.00035078143 0.11737869
000310 4e dd c5 3c a5 f3 9a 3d f3 b8 8a bd dc d8 ad bd
       0.024153378 0.07566003 -0.067735575 -0.08488628
000320 82 16 b6 bc bc 04 50 be 97 1c 12 be 03 7f 99 bc
       -0.02222753 -0.20314306 -0.14268719 -0.018737322
000330 f4 59 e7 bd 4b 01 14 be 94 cb dc bd d5 99 a8 3d
       -0.11296454 -0.14453618 -0.10781017 0.08232466
000340 4e 7d 0a 3e 3c 93 a0 3d 6e 78 01 bd 3d 65 8e be
       0.13524362 0.07840583 -0.03160899 -0.27811614
000350 d2 2f 38 be df 0d 45 be b1 3a 49 be 2c 42 2c bd
       -0.17986992 -0.19243573 -0.19651295 -0.042055294
000360 08 92 f4 3d 81 17 14 be 2d d3 81 3e 7c 40 88 be
       0.11941916 -0.14462091 0.25356427 -0.26611698
000370 2e 40 3b 3c 22 02 13 be 9f b0 05 be da db 41 3e
       0.011428876 -0.14356282 -0.13055657 0.18931523
000380 e8 b5 12 3e 11 77 07 bc 9a a3 61 bc 39 75 01 be
       0.14327204 -0.008268134 -0.013771916 -0.12642373
000390 ae 6a 1d 3e 84 77 4c 3e bc 60 af bd 41 fe e2 bd
       0.15372726 0.19967467 -0.085633725 -0.11083651
0003a0 41 e8 57 3d 68 5d 26 be c5 8b 0a 3e 6a 41 f5 3d
       0.05271173 -0.16246569 0.1352988 0.11975367
0003b0 25 3e 9d 3c 89 96 97 bd 3a bc d4 bd d5 c9 43 bd
       0.019194672 -0.07401759 -0.10387464 -0.047799904
0003c0 db c1 78 3d 1e e6 52 3e 53 79 e3 3d 4e 74 21 be
       0.06073175 0.20595595 0.11107125 -0.15767023
0003d0 99 f5 7f bd ad 88 40 be 2f bf 40 3d 18 c0 44 be
       -0.06249008 -0.18802138 0.047057327 -0.19213903
0003e0 2c 85 47 be 9f 73 8c bd 84 a8 71 3e 6b 71 68 be
       -0.19484395 -0.068579905 0.2359944 -0.22699516
0003f0 0c 44 2e 3d a1 db 8b 3d 53 ae 24 3e 47 bc 4b be
       0.042545363 0.06829 0.16082124 -0.19896041

bias_ih_l0 f4 [80]
000000 35 e8 7f bd 67 87 98 3d 67 b6 af 3d f4 e2 3a 3e
       -0.06247731 0.07447701 0.08579712 0.18250638
000010 e1 e2 c0 3d 1e b7 74 bd 94 52 3e 39 ae 71 8b bd
       0.09418274 -0.059744947 0.00018150575 -0.06808792
000020 6b f9 91 3e 24 56 fc bc 05 68 e0 bc 41 0f 25 be
       0.28510603 -0.030802794 -0.02739335 -0.161191
000030 6d 20 d6 bd 8b 64 07 bd aa b9 13 be 0d 9b 4e bc
       -0.104554035 -0.03305487 -0.14426294 -0.012610209
000040 f5 d3 28 bc f0 0b 23 3e 62 37 56 be 50 a8 27 3d
       -0.010304441 0.15922523 -0.20919564 0.040932
000050 fd 1f 08 3e 08 7b 18 bd d2 19 c6 bc bc d3 6f 3d
       0.13293453 -0.037226707 -0.024182234 0.058551535
000060 27 40 f7 bd b9 63 94 bd a2 2e 80 bd b3 1f 7a be
       -0.12072783 -0.07245583 -0.062588945 -0.24426155
000070 d1 f5 43 3c a9 d8 3b bd 21 e7 7c 3c bd c5 09 be
       0.011960463 -0.04586092 0.015435965 -0.13454337
000080 56 fe 23 bc 99 92 4f bd d5 39 4d 3d 2a 0e 0d 3e
       -0.010009369 -0.050676916 0.05010398 0.13774934
000090 40 1b 9d bc f6 c8 b6 3b 17 36 10 be 3e 3a ea bd
       -0.019178033 0.0055781556 -0.14083134 -0.1143689
0000a0 08 e7 61 3d e6 65 04 3d a0 08 f7 3d 47 2d 0e be
       0.05515197 0.03232374 0.12062192 -0.1388446
0000b0 1f 35 80 bb 8a 2d 61 be f5 ad 88 3d fc 94 16 be
       -0.0039125825 -0.21990028 0.06673805 -0.1470527
0000c0 a1 2c e8 3d b2 a7 54 3e 4d af 2a be 86 df 60 3e
       0.11336637 0.20767096 -0.16668434 0.21960267
0000d0 b1 ec cf bd 9c c3 6b 3d d7 c0 9e 3d c1 97 e0 bd
       -0.10152567 0.057559595 0.07751625 -0.10966445
0000e0 f1 c9 63 3d fd d3 0f be e8 f5 3e bd 3b 16 4e 3e
       0.05561251 -0.14045711 -0.046621233 0.20125668
0000f0 62 31 51 3e 4b 5a c8 3c cc b2 16 be 40 f9 51 be
       0.20428994 0.024457118 -0.14716643 -0.20505238
000100 f5 da 24 be 1f a6 dd bd db c9 0a 3e 56 20 b5 3c
       -0.1609915 -0.10822701 0.13553564 0.022110146
000110 ef e9 a2 bc 3b e7 13 3e 0a 06 3e be 03 c2 bb 3d
       -0.019886939 0.14443676 -0.18556991 0.09167864
000120 81 ad a7 bd 1b 14 86 bb 3b dc 31 3e 04 f3 81 be
       -0.0818739 -0.004091752 0.17369168 -0.2538072
000130 60 f1 05 be dc 71 ff 3d a8 3f 62 bd f0 3b 82 be
       -0.13080359 0.12472889 -0.05523649 -0.25436354

bias_hh_l0 f4 [80]
000000 23 d2 31 be 77 6b a4 3d f9 cf 31 3e 77 17 44 bd
       -0.17365317 0.0802831 0.17364492 -0.04787394
000010 6d 87 d8 bd a3 bf 69 be 46 2c 08 3e 13 ed 1c be
       -0.105727054 -0.2282701 0.13298139 -0.15324812
000020 57 18 77 bd 22 70 8f 3d 4e 6a 58 be 71 c2 09 be
       -0.060325947 0.070038095 -0.21134302 -0.1345308
000030 f7 eb 30 3e cb 57 2f be 06 f9 18 3e b0 02 4c be
       0.17277513 -0.17123334 0.14938745 -0.199229
000040 90 0e 41 3d a7 75 90 3d bc ba c1 3d 2e b3 18 3e
       0.04713303 0.070536904 0.09459445 0.14912102
000050 2e db 07 3e 4a af 3e be 1f bf f7 3d de fc 72 3d
       0.13267204 -0.18621555 0.12097 0.059323184
000060 9f 63 4c be c6 db 3b be 1a a0 e7 bd 9a 19 8b 3a
       -0.19959877 -0.18345556 -0.11309834 0.0010612488
000070 51 5d bb bc 69 e9 9a bd 63 68 0f bd 3e c1 71 bd
       -0.022871645 -0.07564051 -0.03501166 -0.05902218
000080 0f a6 00 be bc 62 13 3e 11 da 14 3e 8a 26 d6 bd
       -0.12563346 0.14393133 0.1453631 -0.104565695
000090 90 9b f6 3d 2c ef a4 3d c5 f4 f7 bc 9f 92 38 3e
       0.1204139 0.08053431 -0.030268082 0.18024682
0000a0 0b 9a b9 3d 0f 09 22 3e 68 17 16 3e 79 a4 5a be
       0.090625845 0.15823768 0.14657366 -0.21351804
0000b0 f9 ce 01 3c 46 de 44 be 92 62 6f bb 71 f8 41 be
       0.007922881 -0.19225416 -0.0036527258 -0.18942429
0000c0 25 33 27 be cd 54 ca bd 2a 74 5c 3e 9a 2b 9e 3d
       -0.16328104 -0.09879456 0.21528688 0.0772316
0000d0 ee f8 0c 3e 40 cc ca 3d 61 54 2e 3e 41 68 e0 3d
       0.13766834 0.09902239 0.17024375 0.10957385
0000e0 f0 97 e2 bd 42 0b ce 3b cb 7f 02 be 17 74 52 bd
       -0.11064136 0.006287963 -0.12744062 -0.051380243
0000f0 dc dd 0e bd a7 a8 0f bc 45 2a 02 be 96 9d 62 3e
       -0.03487955 -0.008768237 -0.12711437 0.22130427
000100 65 f9 52 be e3 86 39 3e fe be 43 be 88 ed bb bc
       -0.20602949 0.18117861 -0.19115826 -0.022940412
000110 44 48 e0 3d a3 7a 3e bd d8 aa 9c 3c 0f b1 a0 bd
       0.109512836 -0.046503674 0.019124433 -0.07846271
000120 16 eb 12 be 97 c3 b0 bd 63 2f 0d be b2 46 ae bd
       -0.1434749 -0.08631056 -0.13787608 -0.08509578
000130 5d 93 7a 3d 7d d4 27 3b 50 c6 81 bc 24 4f 1f 3e
       0.061175693 0.002560883 -0.015841633 0.15557534

weight f4 [1, 20]
000000 8d 01 1e be 2b c3 dc bc 1f 75 90 bd 37 7e 0b 3e
       -0.15430279 -0.026948532 -0.07053589 0.13622366
000010 4d d3 94 3c be 9a 1f 3e 87 7d d2 bc df 9f 2b be
       0.018167162 0.15586373 -0.025694622 -0.16760205
000020 bb 0d ae 3d e3 79 3b be a1 fa e6 3c b4 67 1c be
       0.08498713 -0.18308215 0.028195681 -0.15273935
000030 4b d4 1c be 42 4a 55 3e a9 a6 fa bd a9 55 9f bd
       -0.15315358 0.20829108 -0.12238819 -0.0778001
000040 80 83 73 3c f1 07 05 bd 39 f4 3f 3e 5f 16 31 3e
       0.014862895 -0.032478277 0.18745507 0.1729369

hidden_cell f4 [1, 1, 20]
000000 ad 88 af 3d 03 c7 6c 3d d2 0d 01 3e da 60 38 be
       0.08570991 0.05780698 0.12602928 -0.18005696
000010 da 4c 52 bb ff f9 e2 bd 13 19 29 3c 61 04 02 be
       -0.0032089264 -0.11082839 0.01032092 -0.12696983
000020 c0 14 50 bc eb f1 5a 3d b1 68 c5 3a e0 9c 8c 3d
       -0.01270026 0.053453367 0.0015061108 0.06865859
000030 70 1e 1c 3d 72 7e 89 3d 87 80 c6 3d b9 51 9e bc
       0.038114965 0.06713571 0.096924834 -0.019326078
000040 af 6f b4 bb f8 96 85 bd f4 33 af bd 1e 9c 31 3d
       -0.005506478 -0.06522936 -0.08554831 0.043361776

hidden_cell f4 [1, 1, 20]
000000 93 00 24 3e 42 b7 f1 3d 5e 64 98 3e 7b 9f c0 be
       0.16015844 0.11802532 0.29764074 -0.37621674
000010 3a 3d 05 bc 39 73 60 be 47 1a ae 3c 4d e0 89 be
       -0.008132273 -0.21918954 0.021252764 -0.2692894
000020 b3 0c b8 bc f3 07 d5 3d d5 a0 61 3b 06 05 0f 3e
       -0.022466993 0.10401907 0.0034428139 0.1396676
000030 0a 00 ae 3d 01 72 15 3e 6c df 40 3e 5d 42 3f bd
       0.08496101 0.1459427 0.18835229 -0.04669415
000040 c8 ad 3b bc 9c a6 00 be 66 96 3f be 4b f1 b8 3d
       -0.011455007 -0.12563556 -0.18709716 0.09030398
