mlruns/0/66d1130b399c466aa7accc1dee6d35ee/artifacts/model/data/model.pth (torch, 14120 bytes, 7 tensors)

weight_ih_l0 f4 [80, 1]
00000000: fdfa a33e d6e5 b1bc 1cbf 8c3d f60f 9f3e
00000010: 26b3 0d3e 0d39 a63e 0e40 143e e6e6 903e
00000020: 3bab 2b3e 48fa a53e 2b0c b73d 4d41 a33c
00000030: 9589 3abd 27ae 7f3e 2d2d a43e 86ae 93bd
00000040: afbe 76bd c209 373e b9c2 2dbb aed5 903e
00000050: 5519 48bd 1dc5 2e3d 1986 0a3e f27b 06bd
00000060: a057 eabb d25a 9bbd 564d e83d a0a9 413e
00000070: 2d89 443e 5efd dc3d f0ff 37bd d6e6 7a3d
00000080: e2c5 a23e bc42 13bd 9d94 633e ec19 da3d
00000090: e266 803d 841d 44bd 43e3 00be b464 9e3e
000000a0: eb31 fdbd 0995 253e 4717 1bbd e35f 00bf
000000b0: 2bb7 0f3e f650 0ebe 53b3 933e 1d26 13bf
000000c0: a896 df3e f8be 973e 2a33 98be d4fe 813e
000000d0: 40a8 7a3d 9421 debd ac88 123d 4594 623e
000000e0: 86ff e73d f69c 7e3e f0fb b93e 8036 2bbe
000000f0: ed70 ae3e e5da 04bd 3ab3 95bd 6c33 8a3e
00000100: 2b72 cf3e 7ce5 c03e d63f 30bd a74a 0a3f
00000110: d9bd d43e 16eb 363e dac6 8d3e 4900 c53d
00000120: 6592 403e 9598 fc3d b353 5c3e 5a9d 643d
00000130: 4e97 433e dcb0 ce3e 639b 2a3d 5564 7c3e
0.32027426 -0.02171604 0.06872389 0.31066865 0.13837871 0.324654 0.1447756 0.28301162
0.16764538 0.32417512 0.08937868 0.019928599 -0.045541365 0.24968778 0.32065716 -0.07211022
-0.060240444 0.17874816 -0.0026513769 0.28288025 -0.048852284 0.04266845 0.13527717 -0.032833047
-0.007151559 -0.07585682 0.11342876 0.18912363 0.19192953 0.107905135 -0.044921815 0.0612553
0.31791598 -0.035952315 0.2222466 0.106494755 0.06269623 -0.04787971 -0.12586693 0.30936205
-0.12363037 0.16170134 -0.037863996 -0.5014631 0.14034717 -0.13898072 0.2884775 -0.5748003
0.4366963 0.29637885 -0.29726535 0.2538973 0.061195612 -0.10846248 0.03577487 0.22126873
0.11328034 0.24864563 0.36325026 -0.16720009 0.3407053 -0.032435317 -0.073095754 0.26992357
0.4051679 0.37675083 -0.04302963 0.5402016 0.41551092 0.17863116 0.27690774 0.09619195
0.18805845 0.1233379 0.21516304 0.055814125 0.19100687 0.40369308 0.041652095 0.24647649

weight_hh_l0 f4 [80, 20]
00000000: eb27 613e 8d15 d3bd 74e7 ad3d 86bd 8c3e
00000010: 22f6 1d3e c249 d43d 9010 a8bd 4462 f13c
00000020: 8232 7ebe 035f ca3d 6378 12be 351c 1bbd
00000030: 2ffd 6b3d 9205 323d 1137 fabd d13f 5bbb
00000040: edf9 03be 8b62 8d3d b581 56be cb71 54bd
00000050: a48c 6b3e 7bef 97bc 756f c5bd a494 b73c
00000060: 63bb 063e 220c 933d 5c11 82be 74a8 15be
00000070: 0c3f 9dbe 377c 5dbd 46ce 323e bbac 34be
00000080: ce99 83bd 64f6 90bc f318 10be 53e2 e03d
00000090: 6291 583d aed3 44be 67cf 82be 7500 de3d
000000a0: ad38 3bbe 81c9 663d 9d5d 563e c653 c4bd
000000b0: 5d18 5cbe e917 493e cfb4 50bd 63d3 423e
000000c0: b6f7 393e 304f 9b3d 99b8 2e3c 2b7d 933d
000000d0: 0550 233e 2f64 d2bc 3db8 46be 55f4 c83d
000000e0: 08b7 4a3e fc50 89bb d6c2 1c3e 8166 073d
000000f0: f832 27bd ab9a 55be aae6 2dbe 4188 b7bd
00000100: db5a db3e afa9 17bd 0175 e0bc 26a1 acbe
00000110: 4ce8 bc3e 26de 2c3d a6ed 89bd 74b6 f8bc
00000120: 0c85 b33e 545f 6dbc d4c7 943e 0593 863e
00000130: 8a86 86be 2cbc d43d 3685 d03d 93ae dcbb
00000140: 38f6 42be e749 4dbd 40d7 123e 7666 793e
00000150: ceb8 4fbe 0309 f43d 6bd1 193e 4ac5 583e
00000160: 9acc 53bd bc76 05be d583 e13d 3f57 86be
00000170: f7f5 72be 461a e9bc c19f e5bd bf3a 853c
00000180: 3c42 493d 0509 6bbd fce0 b6bd 0904 4c3e
00000190: fabc 443d 616f a53d e537 00be e62f 4cbe
000001a0: aa2c 0b3e 9ab7 53be ed2f a6bd 428d a0be
000001b0: d10e 263e a04c a93d 86f6 3cbe b1b4 9a3e
000001c0: 70a9 6abc c16d 973d 6179 c0bd 00d8 293e
000001d0: f180 183e 2fa6 3cbe daf2 b33c c33c 173e
000001e0: 74f1 1bbd 6c82 403d 3856 a43d 908e 8fbd
000001f0: d671 a93e 5999 0ebe 05b8 833e 07f9 6f3c
00000200: 8c83 333d a298 933e f08d 1cbe fe64 e3bd
00000210: b8b8 923e f173 83bd a9c6 6e3d 77fe 933e
00000220: c508 6dbd 3221 a13e fc63 633e 8f01 20be
00000230: d76d e9be cd3a 03be 9697 2abe b4c4 ffbd
00000240: 3757 603e 451f babe 5dbc 6b3e ba35 8bbe
00000250: 21dd 4a3e 86f2 613e c243 e8be 5681 153e
00000260: 4460 963d 09a5 91be 2c2b a93e 99dc dd3e
00000270: 376c 34be 48a2 8e3e 1bb8 1d3e 7e6f a6be
00000280: a337 93be af4c 44be 68fa 14be 79a7 ca3d
00000290: 2553 87bd 7309 3cbe 5a9d e1bd 3f72 fc3a
000002a0: 1eeb a93d 62a1 bebd 6655 4dbe 0f89 15be
000002b0: d101 d33c c5af 38be 771d 14be d053 863e
000002c0: 2171 e3bd a344 1bbe 2a84 b93d 32be 05be
000002d0: 42ec 42be 2a2a 2fbe f941 0b3e 3ba9 c2bd
000002e0: 984c 353e 24b0 1ebd cbd1 bdbd a422 fb3d
000002f0: 5446 a9bd af9d 313e 2f87 0abe dc9f 143e
00000300: 57fb 75bd e274 b1bd a381 02be 1c7e 723d
00000310: d768 243e 499d 893d 825d 873d 4782 63be
00000320: 12e5 39be 23d7 413e 1184 093e 92a9 463d
00000330: 70a7 073e 1c18 113e bad4 8ebd 11a1 9a3e
00000340: ea2e 213b 17d7 06be 6286 373e 5cbd 86be
00000350: 3c18 723d 484a cb3d 9e11 9bbd c319 083d
00000360: d4db 5a3c a579 3a3e 83db 88be 8bc4 153c
00000370: c47e ba3d 4d7b 153e 6d70 57be ca57 363e
00000380: e5a2 853d c3a6 863e da61 4e3d cee9 663e
00000390: d44f 4d3c aeb6 3bbe 1543 c8bd 0655 ba3d
000003a0: 75c3 48be 4c12 2fbe 1a6d 0d3d a005 ee3d
000003b0: 7399 f6bd 6046 243e 5735 5abe 8e24 5abe
000003c0: 9a17 09be 73ac 503e fbb8 17be a455 6d3e
000003d0: 3485 123e f92e 51bd 80d1 de3c 35e6 82bb
000003e0: cf87 dd3c e872 26be 3653 c13d 1800 6abd
000003f0: 4665 a3bd 5447 933e e9f8 21be cb65 833d
0.21987884 -0.10306845 0.08491412 0.27488345 0.15425923 0.10365631 -0.08206284 0.029465802
-0.24823955 0.09881403 -0.14303736 -0.037868697 0.0576145 0.043462344 -0.12217534 -0.0033454786
-0.12888308 0.06903561 -0.20947917 -0.051866334 0.23002869 -0.01854681 -0.09640399 0.022409745
0.1315742 0.071800485 -0.2540387 -0.14615041 -0.30712163 -0.05407354 0.174615 -0.17644016
-0.0642582 -0.017695613 -0.14072017 0.10980668 0.052873023 -0.19221374 -0.2554886 0.10839931
-0.18283339 0.056344513 0.20934148 -0.09586291 -0.21493669 0.19638027 -0.050953683 0.1902595
0.181609 0.07583463 0.010664129 0.07201608 0.15948494 -0.025682537 -0.19406219 0.09812228
0.19796383 -0.0041905623 0.15308699 0.03305674 -0.040820092 -0.20859782 -0.16982523 -0.08961535
0.42842755 -0.037027057 -0.027399542 -0.33716697 0.36895978 0.042204045 -0.06734781 -0.030360438
0.35062444 -0.01448806 0.29058707 0.26284042 -0.2627452 0.103874534 0.10181658 -0.006734678
-0.19039237 -0.050119307 0.14339924 0.24355492 -0.20285341 0.11915781 0.15021293 0.2116901
-0.051708795 -0.13033575 0.11011473 -0.26238438 -0.2372664 -0.028454911 -0.11212111 0.016263364
0.04913543 -0.05738165 -0.08929631 0.19923414 0.048031785 0.080778845 -0.12521322 -0.19940147
0.13591257 -0.20675507 -0.0811461 -0.3135777 0.1621659 0.08266568 -0.18453416 0.30215982
-0.014322624 0.07393981 -0.09398151 0.16586304 0.14892937 -0.18422769 0.021966387 0.14769273
-0.038072065 0.04699938 0.080242574 -0.070096135 0.33094662 -0.13925685 0.25726333 0.014646775
0.043826625 0.28827387 -0.1528852 -0.11103247 0.28656554 -0.064185984 0.058294926 0.2890508
-0.05786969 0.3147064 0.2220611 -0.15625595 -0.45591614 -0.128154 -0.16659388 -0.1248869
0.2190827 -0.36351982 0.23021074 -0.27189428 0.19810916 0.22065172 -0.45364195 0.14600119
0.0734258 -0.28446224 0.3304075 0.43332365 -0.17619406 0.27858186 0.15402262 -0.32506937
-0.28753385 -0.19169877 -0.14548647 0.09895224 -0.066076554 -0.1836298 -0.110163406 0.0019260122
0.08296798 -0.09308125 -0.20052108 -0.14603065 0.025757702 -0.18035801 -0.14464365 0.2623582
-0.11105562 -0.15162902 0.090584114 -0.13060835 -0.19035438 -0.17105928 0.13599385 -0.095049344
0.17705 -0.0387422 -0.092685305 0.122624665 -0.08265367 0.17345308 -0.13528131 0.14514107
-0.06005415 -0.08664872 -0.12744765 0.0592023 0.16055618 0.06719453 0.06609632 -0.22217666
-0.1815379 0.18929724 0.13429286 0.04850156 0.13247466 0.14169353 -0.06974168 0.3020101
0.0024594613 -0.13167988 0.17922357 -0.26316345 0.059105143 0.099262774 -0.075717196 0.033227693
0.013358075 0.18210466 -0.26729974 0.009141098 0.0910621 0.14597817 -0.21038981 0.17806926
0.0652521 0.26299104 0.050386287 0.22550127 0.01253124 -0.18331406 -0.0977842 0.09098248
-0.19605811 -0.17096823 0.034527875 0.11622167 -0.12040987 0.16042471 -0.2130941 -0.21303007
-0.1338791 0.20378284 -0.14816658 0.231772 0.14308625 -0.051070187 0.027199507 -0.003994728
0.027042298 -0.16254771 0.09439699 -0.057128996 -0.07978301 0.28765357 -0.15817608 0.064159

bias_ih_l0 f4 [80]
00000000: 309b 8abd 5f4e 0a3e 1e9b f43d 5770 493e
00000010: e1cc 833d 26f9 9a3d 9ad8 4f3e eb7b c23e
00000020: 17c7 023e 79a1 dc3b 26cd ec3d 0959 2fbd
00000030: bd14 b9bd da3c 1abe 2440 433c c742 3cbc
00000040: a9e8 52be c494 443e 0a23 453e 7089 c3bc
00000050: b81c 51be 38df c9bd b46c f63b a927 4a3d
00000060: 6c97 4bbe 1b03 0dbe fab9 fd3c 37b5 023e
00000070: 2a90 abbc 66f8 823d 1efc c33d 52b6 aabd
00000080: cdbd 393e 40a6 a4bd 2d3d 323e a29a b1bc
00000090: 64c5 0cbe eff7 313d f11b d8bd 7cf6 283d
000000a0: 0bfe 7abc e254 48be 977b 2a3d 1962 b73d
000000b0: c0fa 403e ccb0 d1bd d013 903d d082 823c
000000c0: be6e fb3d 0e61 47be 2bd8 3d3d da63 89bd
000000d0: 3f72 903d e3d9 5f3d a12b 30be c2be 3dbc
000000e0: ae75 f8bc da4a 843c ae2e 46be 82b0 45be
000000f0: fca8 35be b9ab 2bbe 7313 65be a26e b23e
00000100: 4209 3c3e db1a d4bd bb29 383e 1bc8 1b3e
00000110: 6501 9e3e 8145 14be e46e 81bc 5be0 2ebe
00000120: 858e 33be 054e 1cbe ccde e63d 8ab5 533d
00000130: 24d7 6b3d 7e2b d03d 9a12 123d 0126 703d
-0.06767881 0.13506459 0.11943649 0.1967176 0.06435562 0.075670525 0.2029747 0.37985167
0.12771259 0.006733116 0.115625665 -0.04280952 -0.09037159 -0.15062276 0.011917148 -0.01149053
-0.20596565 0.19197375 0.19251648 -0.023869246 -0.20421112 -0.09857029 0.0075202826 0.04935423
-0.19881982 -0.13770716 0.03097247 0.1276444 -0.020942766 0.063950345 0.09569572 -0.08335556
0.1813881 -0.08039522 0.17406149 -0.02168018 -0.13747174 0.04344934 -0.105522044 0.04125069
-0.015319358 -0.1956363 0.04162177 0.089542575 0.18845654 -0.102387995 0.07035029 0.015931517
0.12276982 -0.19470617 0.046348732 -0.06708498 0.07053041 0.054651152 -0.17204143 -0.011581125
-0.030329552 0.016148973 -0.19353744 -0.19305614 -0.17740244 -0.16764726 -0.223707 0.3485003
0.18362907 -0.10356685 0.17984669 0.15213053 0.3086044 -0.14479639 -0.015799947 -0.17077772
-0.17534836 -0.15264137 0.11272964 0.0516868 0.05757822 0.101645455 0.03566227 0.058629993

bias_hh_l0 f4 [80]
00000000: 57ca 7fbc 352d 4bbd ea9c 1bbe fc43 9b3e
00000010: f481 2b3e bd9b 37be 3ae3 b4bd e955 d43e
00000020: 925e 1c3d 9a02 6c3e 9138 073e 293b 2e3e
00000030: f24a 813d 96a8 13be 8669 3bbd 1dcb 3dbe
00000040: 67fb 76be cf12 9eba 55d2 2bbd d05e 4a3d
00000050: 846e d83d 0c90 c9bd 5a3b 653d 3739 143e
00000060: feec 4a3e b547 143d 3f50 2cbe afa7 cebc
00000070: b513 a13d 64b5 bebd 4a9e 0f3e f8df 33be
00000080: 9057 953b 521f 3fbe dbb3 ebbc 75ac 7d3d
00000090: 432a 19bc 6d07 643d c302 90bd 18d4 e03d
000000a0: c8e0 62be ec5f 363e 1029 27be 603c 4abc
000000b0: 70c5 d63d 919d 143e 9256 dfbd 860c fe3d
000000c0: b789 05be 3cdd 493e b019 d8bd 29bb 89bc
000000d0: bb76 923d a3a6 27bd 6ca0 0b3e ef1f d23d
000000e0: 8174 2bbe d238 fc3d a2b5 833d 36a0 febd
000000f0: caeb a8bd 10c3 97be 9f73 f63d f555 d23e
00000100: a4db b83d ae00 d3bd e539 d53d dd7b 453d
00000110: b31d 8c3e feb6 61bd ff39 32be 2e70 213d
00000120: dd98 74be de0c 4e3a a043 023e 59f6 073e
00000130: 8d7b 513d 4565 5cbd 2f6e 353e aca8 e0bb
-0.015612206 -0.04960366 -0.15196577 0.30325305 0.16748792 -0.17930503 -0.088324025 0.41471794
0.038176127 0.23047867 0.13205172 0.17014755 0.06313123 -0.14419779 -0.045754932 -0.18534513
-0.2411934 -0.0012060049 -0.041948635 0.049406826 0.10567954 -0.09841928 0.055964805 0.1447495
0.19816968 0.036201198 -0.16827486 -0.025226442 0.07865087 -0.09311941 0.14025226 -0.17565906
0.0045575574 -0.18664292 -0.028772285 0.061932046 -0.009348455 0.055671144 -0.07031777 0.10977954
-0.2215606 0.17810029 -0.16324258 -0.012343496 0.10486877 0.14513232 -0.10905184 0.124047324
-0.13040815 0.197133 -0.105517745 -0.016812878 0.07151552 -0.0409304 0.13635415 0.10259997
-0.16743661 0.12315525 0.06431128 -0.124329016 -0.08248098 -0.29641008 0.12033772 0.41081205
0.09026268 -0.10302864 0.10411433 0.04821383 0.2736641 -0.055106156 -0.17404936 0.039413624
-0.23886438 0.0007860194 0.1272111 0.13277568 0.051143218 -0.053807516 0.17717813 -0.0068560448

weight f4 [1, 20]
00000000: 5fc7 99bd 5da7 273d 9bf5 5cbd 0367 8dbe
00000010: a9e6 6d3e 2ae5 1dbe 9177 a53e a321 6dbe
00000020: 4302 453e 0ef3 163e 87bf 60be eb7d 533e
00000030: db15 2f3e f0f8 f2bd e8b2 aa3d e4a9 133d
00000040: 7dd9 17bc 22a6 8d3e 200a 333e 4bb5 45be
-0.0750873 0.040931094 -0.053945165 -0.27617654 0.23232521 -0.1541945 0.32317784 -0.23157363
0.19239144 0.14741156 -0.21948062 0.20653503 0.17098181 -0.11863887 0.08334905 0.036050692
-0.009268162 0.27665812 0.17484331 -0.19307439

hidden_cell f4 [1, 1, 20]
00000000: d498 dabd 196e 89bc c6f4 8dbd a445 573d
00000010: 786e 6e3e 4df3 26bc 325c 59bc e3f1 d43d
00000020: c1ab 0e3c 123d 0a3d c0f8 7fbd 38de 9ebc
00000030: 913c ba3d 0929 0d3a c57d a43c 7ca1 a03d
00000040: eaa6 90bd c523 3a3d 2d55 44bd 4b28 16be
-0.10673681 -0.016776131 -0.069314525 0.05255665 0.23284328 -0.010189843 -0.01326661 0.10397699
0.0087079415 0.033749647 -0.062493086 -0.019393072 0.090935834 0.0005384838 0.020079503 0.07843301
-0.07063086 0.04544427 -0.047932792 -0.14663808

hidden_cell f4 [1, 1, 20]
00000000: 3b4d 80be 538a 34bd 0b41 19be 6a8c 973d
00000010: 62e6 dd3e fffc bfbc c74d bbbc 4d33 353e
00000020: fe44 583c 8365 9b3d e87b 0fbe 862d 2abd
00000030: 2f6d 7d3e 9379 973a 766c 193d 8a8f 143e
00000040: cb13 10be 1c10 b33d 9ea7 aabd 86be 93be
-0.25058922 -0.04407723 -0.14966218 0.07399829 0.4333983 -0.023436068 -0.022864236 0.17695351
0.013200043 0.07587721 -0.1401211 -0.04154732 0.24748681 0.0011556618 0.037456952 0.14507881
-0.1407005 0.08743307 -0.08332752 -0.28856295
