mlruns/0/40e9ea7a928843c3a8c768f3c01248c3/artifacts/model/data/model.pth (torch, 14120 bytes, 7 tensors)

weight_ih_l0 f4 [80, 1]
0	0x3d91e5ff	0.071239464
1	0xbe21f212	-0.15814999
2	0xbed47c67	-0.4150116
3	0x3dbce264	0.09222868
4	0x3c9c6591	0.0190914
5	0xbe099013	-0.13433866
6	0xbd31f059	-0.043442104
7	0xbead2821	-0.33819678
8	0xbd60d266	-0.05488815
9	0x3da56f91	0.0807792
10	0xbe54d016	-0.20782503
11	0x3cbddf7c	0.023177855
12	0xbee6953a	-0.45035726
13	0xbdd46b0c	-0.1037198
14	0xbe73449a	-0.23756638
15	0xbe5153cc	-0.20442122
16	0xbec6e142	-0.38843733
17	0xbe1a6319	-0.15076865
18	0xbe5b7261	-0.21430351
19	0xbec045d1	-0.37553266
20	0x3c77c37f	0.0151222935
21	0xbd23c1af	-0.039979633
22	0xbdbfb082	-0.09359838
23	0xbd44b70e	-0.048026137
24	0xbe529c20	-0.2056737
25	0xbda25222	-0.07925822
26	0x3de6b4c8	0.1126495
27	0xbec97a1a	-0.3935097
28	0x3dc8b50e	0.098001584
29	0x3d3865c5	0.04501893
30	0xbe9c3cfa	-0.3051527
31	0xbdb96799	-0.09052963
32	0xbe5673c3	-0.20942597
33	0xbe3519da	-0.17685643
34	0xbe99c1c5	-0.30030647
35	0xbe7ec895	-0.24881203
36	0xbee5c698	-0.44878078
37	0xbea01737	-0.31267712
38	0xbe083452	-0.13301209
39	0xbed4069a	-0.41411287
40	0x3ec0c910	0.376534
41	0x3b8a43bb	0.0042195
42	0xbea22412	-0.31668144
43	0x3e745974	0.23862249
44	0xbed676fc	-0.41887653
45	0x3edb2936	0.4280488
46	0xbed9a0cc	-0.4250549
47	0xbe66b409	-0.22529615
48	0xbd35178e	-0.044211917
49	0x3d0cac9c	0.0343443
50	0x3e28b68b	0.16475885
51	0xbea7dfa1	-0.32787803
52	0x3e90421c	0.28175437
53	0x3ecd4b2f	0.40096423
54	0xbe98a038	-0.29809737
55	0xbe1138a5	-0.14181764
56	0x3d641dec	0.0556926
57	0x3c84a908	0.016193882
58	0xbe46c606	-0.19411477
59	0xbe75d277	-0.24006067
60	0xbe4b438b	-0.19849984
61	0xbe051f25	-0.13000162
62	0xbed17b5f	-0.40914437
63	0xbcb6b1fd	-0.022301668
64	0x3c8ca066	0.017166328
65	0xbd3b20bf	-0.045685526
66	0x3e2c7e97	0.16845165
67	0xbca201e5	-0.019776294
68	0x3e559660	0.20858145
69	0x3e1c63a1	0.1527238
70	0xbe70d6b5	-0.23519404
71	0x3cc1fcef	0.023680178
72	0xbe9efef2	-0.31053883
73	0x3d2c54c6	0.042073034
74	0xbe365dc0	-0.178092
75	0xbe7e2231	-0.2481773
76	0xbe8c582e	-0.27411026
77	0xbe6f9403	-0.23396306
78	0xbec18571	-0.3779712
79	0xbe850d43	-0.2598668

weight_hh_l0 f4 [80, 20]
0	0x3e5b3cb5	0.21409877
1	0x3cbcaf7b	0.023032894
2	0xbdfad702	-0.12248041
3	0xbd116765	-0.035498995
4	0xbdd645cc	-0.104625314
5	0x3e691ec4	0.22765642
6	0xbe72f85a	-0.23727551
7	0xbc8d7a1d	-0.017270142
8	0xbe55392c	-0.2082259
9	0xbe1811c1	-0.14850523
10	0xbd6f6d82	-0.058454044
11	0xbe051cc3	-0.12999253
12	0x3dafdb23	0.08586719
13	0x3d22ddcb	0.0397623
14	0xbe100d21	-0.14067508
15	0xbda1d191	-0.079013
16	0x3db2f6ca	0.087384775
17	0x3d4fb2da	0.050707676
18	0xbdbc3e30	-0.09191549
19	0xbe34e0ae	-0.17663833
20	0x3d9dab77	0.0769872
21	0x3ddb5a06	0.1071053
22	0xbe955fc1	-0.29174617
23	0xbd949aa2	-0.07256056
24	0x3d50c81d	0.050972093
25	0x3dffcc11	0.124900945
26	0x3e1033d0	0.14082265
27	0xbe184b20	-0.14872408
28	0xbd56835d	-0.05237137
29	0xbdd006bc	-0.101575345
30	0x3e9d206a	0.30688792
31	0xbe842ae6	-0.2581398
32	0x3d169659	0.036764476
33	0x3c091293	0.008366245
34	0x3dd4f55c	0.10398361
35	0xbd1e86d7	-0.038702812
36	0x3e6f00da	0.23340169
37	0x3e77e7c0	0.242095
38	0xbdbedbdf	-0.09319281
39	0x3c6651cc	0.014057588
40	0x3e58ea81	0.21183206
41	0xbea70bc7	-0.32626173
42	0xbe8bf732	-0.27337033
43	0xbebe9508	-0.37223077
44	0xbe337813	-0.17526273
45	0x3de712a7	0.112828545
46	0x3cc90f72	0.024543498
47	0x3e0cbf38	0.13744819
48	0xbe0e97fb	-0.13925163
49	0x3d78c6cf	0.060736474
50	0x3d01ffb0	0.031737983
51	0x3e11c9cc	0.14237136
52	0x3d9acd59	0.07558698
53	0xbe42543d	-0.18977447
54	0x3d86a4d8	0.0657441
55	0xbdf3485c	-0.11879036
56	0xbdecbd2a	-0.11559518
57	0x3dffda68	0.124928296
58	0x3cfe915e	0.031075176
59	0x3d8ffb76	0.07030384
60	0xbd9dab59	-0.076986976
61	0xbea837eb	-0.32855162
62	0x3e459c41	0.19297887
63	0xbe0a23fd	-0.13490291
64	0xbdff6da0	-0.12472081
65	0xbe3d8931	-0.18509366
66	0x3e4ad1af	0.1980655
67	0xbc9d85cd	-0.01922884
68	0xbe8f5f03	-0.28002176
69	0xbe647bc3	-0.22312836
70	0x3e8521af	0.2600226
71	0x3e696c30	0.22795177
72	0x3e83f619	0.25773695
73	0xbdeb5e45	-0.1149259
74	0x3cdda629	0.02705677
75	0xbe1b205e	-0.15149066
76	0xbd1ca11c	-0.038239583
77	0xbe8b8dc7	-0.27256605
78	0xbde56ffc	-0.11203
79	0xbd94a3d4	-0.0725781
80	0x3c1cc907	0.009569413
81	0x3e76821a	0.24073067
82	0xbe41453f	-0.18874072
83	0xbe0c29f8	-0.13687885
84	0xbe086d2a	-0.13322893
85	0x3e441bae	0.19151184
86	0xbe17352c	-0.14766377
87	0xbe082ff3	-0.13299541
88	0xbe23cd65	-0.1599632
89	0xbd0a3ff1	-0.033752386
90	0xbe95d589	-0.29264477
91	0xbd5b3fd7	-0.05352768
92	0x3dc2401e	0.09484886
93	0x3e94fd0b	0.29099306
94	0xbd6d4011	-0.057922427
95	0x3d82fdd5	0.06396071
96	0x3d76dd2a	0.060269512
97	0xbba13665	-0.0049198144
98	0xbd4f09d1	-0.05054647
99	0x3daf3226	0.08554487
100	0x3e42e2a5	0.1903177
101	0x3e58ecdd	0.21184106
102	0xbe99c528	-0.3003323
103	0xbe546e0c	-0.20745105
104	0x3dc71328	0.09720451
105	0x3cd6e3cf	0.026231674
106	0x3e110e96	0.1416572
107	0x3dc01b34	0.093801886
108	0xbdf6c3ed	-0.120490886
109	0x3c3013f2	0.010746943
110	0x3ea8ed52	0.3299356
111	0xbdbf9358	-0.093542755
112	0x3d8b119b	0.06790467
113	0x3e8783cf	0.2646775
114	0x3d76c936	0.060250483
115	0xbd9be802	-0.07612611
116	0xbe317961	-0.17331459
117	0x3e2fff7c	0.17187303
118	0x3bdeed73	0.0068032085
119	0xbe1096bf	-0.14120005
120	0xbd949f0c	-0.07256898
121	0xbe231c04	-0.15928656
122	0xbe8b7233	-0.27235565
123	0x3ce2d23b	0.027688136
124	0xbe42b0d4	-0.19012767
125	0xbe005f11	-0.12536265
126	0x3d24ba8b	0.040216964
127	0x3d60700c	0.054794356
128	0x3d746d8a	0.059674777
129	0x3d9ff42a	0.078102425
130	0x3de8df79	0.11370749
131	0xbe40aa86	-0.1881505
132	0x3cc2adb8	0.023764476
133	0x3dfcf064	0.123505384
134	0x3db50ffd	0.0884094
135	0xbe953314	-0.29140532
136	0xbe963d56	-0.2934367
137	0x3da0b4fe	0.078470215
138	0xbdd9d9d2	-0.10637249
139	0xbe2691b5	-0.1626652
140	0x3cebc29e	0.028779324
141	0xbeaafb18	-0.33394694
142	0x3dec39b2	0.11534442
143	0xbe5356b3	-0.20638542
144	0xbe4db182	-0.20087245
145	0x3def29c5	0.11677889
146	0xbd1397be	-0.036033385
147	0xbe79eacd	-0.24405976
148	0xbea1688d	-0.31525078
149	0xbd8a5215	-0.06753937
150	0x3dac8624	0.08424023
151	0x3df5dc8e	0.12004958
152	0x3e9beb55	0.30452982
153	0xbe2bb2bf	-0.16767405
154	0x3d5bc66e	0.053656034
155	0xbe42c565	-0.19020613
156	0x3d2ca047	0.04214504
157	0xbd8f63a4	-0.07001427
158	0x3dbf904b	0.093536936
159	0xbe218613	-0.15773802
160	0x3e7354d4	0.23762828
161	0xbe67cd8a	-0.22637
162	0x3e56d5fa	0.20980063
163	0xbec3b226	-0.38221854
164	0xbdcd9dcb	-0.10039862
165	0xbd1ec390	-0.03876072
166	0xbd839ffd	-0.06427
167	0x3cc70f1f	0.024299202
168	0xbd276010	-0.040863097
169	0x3c5ecf7a	0.013599271
170	0x3dfd6a5b	0.12373801
171	0x3e517503	0.20454793
172	0xbe017b04	-0.12644583
173	0xbe56c79a	-0.2097458
174	0xbe6eb4e0	-0.23311186
175	0xbe1e7bd3	-0.15476923
176	0x3c8ee621	0.017443718
177	0x3d234bb5	0.03986712
178	0x3da9268b	0.082593046
179	0x3cced023	0.025245732
180	0x3d27d82f	0.040977653
181	0xbe5274c3	-0.20552354
182	0xbe3cbe25	-0.1843191
183	0xbe287b60	-0.16453314
184	0x3d8d2326	0.0689147
185	0xbdf228a0	-0.11824155
186	0xbd79c253	-0.060976338
187	0x3e199945	0.14999874
188	0xbeb47c2e	-0.35250992
189	0xbe1c0a5f	-0.15238331
190	0x3c6ff264	0.014645193
191	0x3cc21686	0.02369238
192	0x3e108558	0.14113367
193	0xbdf91f0b	-0.12164124
194	0x3ddf4d07	0.10903364
195	0xbdf7eef3	-0.12106123
196	0x3e20ec5f	0.15715168
197	0x3e1727bf	0.14761256
198	0xbc8a7d62	-0.01690549
199	0x3e03f9a5	0.128882
200	0x3db20dd6	0.08694045
201	0xbe2e4a7a	-0.17020598
202	0x3dc8f4ec	0.0981234
203	0xbd3a5bbc	-0.04549764
204	0xbe23a634	-0.1598137
205	0x3e78ca8e	0.24296018
206	0x3dac1273	0.084019564
207	0xbd8858fd	-0.06657598
208	0xbe3df93a	-0.18552104
209	0xbe8b2bf3	-0.27181968
210	0x3e9bb293	0.3040968
211	0xbde17ebf	-0.11010503
212	0x3e8a0217	0.2695472
213	0xbe8bb0eb	-0.27283415
214	0xbd790285	-0.06079342
215	0x3c152224	0.009102378
216	0xbe3a8fb5	-0.18218882
217	0xbe1983c9	-0.14991678
218	0x3e241a8e	0.16025755
219	0xbeaf258a	-0.34208328
220	0x3dd2632e	0.10272823
221	0xbe0b53c5	-0.13606174
222	0xbd8dab8f	-0.06917488
223	0x3dba1aa1	0.0908711
224	0x3dba67e5	0.091018476
225	0xbdaa1080	-0.083039284
226	0xbe331453	-0.17488222
227	0x3dc7e32e	0.09760128
228	0xbc6f0020	-0.014587432
229	0x3d832ac4	0.06404641
230	0x3d09dd31	0.03365821
231	0xbc3f6770	-0.011682376
232	0x3c3b6ee1	0.01144001
233	0x3e6b5a00	0.22983551
234	0xbd34dc26	-0.044155262
235	0xbe3349eb	-0.17508666
236	0xbe1774cc	-0.14790648
237	0xbda21f4d	-0.079161264
238	0xbd874919	-0.06605739
239	0xbe1c2dd2	-0.15251854
240	0x3e2c0257	0.16797768
241	0xbe8776eb	-0.26457915
242	0xbd87e6fa	-0.06635852
243	0xbe2297be	-0.15878198
244	0xbe24d8e4	-0.16098362
245	0x3e0bd080	0.13653755
246	0xbd0cafda	-0.034347393
247	0x3dd69ed5	0.104795136
248	0xbcce1ef7	-0.02516125
249	0xbe6aeb22	-0.22941259
250	0x3da17574	0.078837305
251	0xbe6986ef	-0.2280538
252	0xbc710c16	-0.014712354
253	0x3e868023	0.26269636
254	0xbe13a6d0	-0.14419103
255	0xbd8d53dc	-0.069007605

bias_ih_l0 f4 [80]
0	0xbe8f3c0a	-0.27975494
1	0x3d3a477e	0.045478337
2	0xbec4aed2	-0.38414627
3	0xbe78d2a9	-0.2429911
4	0x3d1b29c7	0.03788164
5	0xbe418fd5	-0.18902524
6	0x3cb9726e	0.022637572
7	0xbea653e2	-0.32485873
8	0xbeb6b74f	-0.35686728
9	0xbe29d2bf	-0.165843
10	0x3d5bcbc8	0.053661138
11	0x3cab3e25	0.020903656
12	0xbe58d2ab	-0.21174113
13	0xbe0f851b	-0.1401562
14	0x3ba4a55e	0.005024596
15	0xbeb13c48	-0.34616303
16	0xbde8e48a	-0.11371715
17	0xbda1650c	-0.07880601
18	0xbe1f9cb1	-0.15587117
19	0xbbfd6393	-0.0077328174
20	0x3da37ae5	0.07982425
21	0xbe8129eb	-0.25227293
22	0xbeb377db	-0.3505238
23	0xbe173938	-0.14767921
24	0x3cf91e46	0.030409943
25	0xbe92daad	-0.2868246
26	0x3b31192d	0.0027023063
27	0xbda1be20	-0.078975916
28	0xbc27c1d9	-0.010239088
29	0xbeb3eb66	-0.35140532
30	0xbe778e49	-0.24175371
31	0xbea34809	-0.31890896
32	0xbe753145	-0.23944576
33	0xbe82de73	-0.2556034
34	0xbe0888f3	-0.13333492
35	0xbe8d9a28	-0.27656674
36	0xbe490b94	-0.19633323
37	0xbc99382a	-0.018703539
38	0xbe12c86a	-0.14334264
39	0xbe079951	-0.1324208
40	0xbcc48837	-0.023990734
41	0xbd1d8078	-0.038452595
42	0x3deb5d78	0.11492437
43	0x3dead1d2	0.11465801
44	0x3d8a14f4	0.06742278
45	0xbe557c5d	-0.20848222
46	0x3bfad1d7	0.0076544094
47	0xbd13b092	-0.036057062
48	0x3df9e938	0.12202686
49	0x3d3fd763	0.04683627
50	0x3d2ba24b	0.04190282
51	0x3d4b2f26	0.04960551
52	0x3c259a0c	0.010107528
53	0xbe36bbf5	-0.17845137
54	0x3d785a3f	0.06063294
55	0x3d804389	0.06262881
56	0x3e0ae6ea	0.13564649
57	0xbda01039	-0.07815594
58	0x3e3b0445	0.18263347
59	0xbd7fac64	-0.062420264
60	0xbcf4079f	-0.02978879
61	0xbdde53c8	-0.10855824
62	0xbec999b0	-0.39375067
63	0xbd435842	-0.04769159
64	0xbe630cb3	-0.22172813
65	0x3df017ce	0.117232904
66	0xbe2267cd	-0.1585991
67	0xbeb92ff0	-0.36169386
68	0x3cbf68b0	0.023365349
69	0xbe13585a	-0.14389172
70	0xbe84eedc	-0.25963485
71	0xbe66294c	-0.22476691
72	0xbeaa0c58	-0.33212543
73	0xbe644fc7	-0.22296058
74	0xbebec280	-0.37257767
75	0xbca84f4a	-0.02054562
76	0xbe0ab0fe	-0.1354408
77	0x3dc0f843	0.09422352
78	0xbe438234	-0.19092637
79	0xbea04573	-0.31302986

bias_hh_l0 f4 [80]
0	0xbe5582f1	-0.20850731
1	0xbe818794	-0.2529875
2	0xbdd1b113	-0.10238852
3	0xbe4b403d	-0.19848724
4	0xbe1d3f6e	-0.15356228
5	0xbd943c94	-0.07238117
6	0xbdca4df2	-0.09878148
7	0xbe9c41aa	-0.30518848
8	0xbe6fc28a	-0.23414055
9	0xbe5e9d75	-0.21739753
10	0xbec01bb9	-0.3752115
11	0xbd2a92d1	-0.04164392
12	0xbde02c91	-0.10946
13	0xbe6ef1c6	-0.23334417
14	0xbd8ecc0d	-0.06972513
15	0xbebfec46	-0.3748495
16	0xbeb09926	-0.34491843
17	0xbdae862d	-0.08521686
18	0xbe6e7e3b	-0.2329034
19	0xbdaa9dcc	-0.083308786
20	0xbd4fd3b7	-0.050739016
21	0x3da2edbc	0.079555005
22	0xbe5ffc09	-0.21873488
23	0xbdd522c4	-0.10407022
24	0x3bdf9fff	0.006824493
25	0xbea8453d	-0.32865325
26	0xbe287186	-0.16449556
27	0xbe21968b	-0.15780084
28	0xbe58c16d	-0.21167536
29	0x3c5fd202	0.01366091
30	0xbe1dae8b	-0.15398614
31	0xbe9ca049	-0.30591038
32	0xbe8bf9c3	-0.2733899
33	0xbe2f2ce7	-0.17106973
34	0xbda1b415	-0.07895676
35	0xbe121c25	-0.14268549
36	0xbe668018	-0.22509801
37	0xbc453a62	-0.012037845
38	0xbebbfbfc	-0.36715686
39	0xbe06ecdf	-0.13176297
40	0xbe15e1ba	-0.14636889
41	0x3e37e355	0.17957814
42	0x3cbbeb15	0.022939244
43	0x3cf3873e	0.029727574
44	0x3dbe605a	0.09295721
45	0x3d2e8afc	0.042613015
46	0x3e254e82	0.1614323
47	0x3dfb44e1	0.12268997
48	0x3cbca43f	0.023027537
49	0xbc939a00	-0.018017769
50	0xbe070ceb	-0.13188522
51	0x3db81be2	0.08989693
52	0xbe285166	-0.16437301
53	0x3d4549a4	0.048165932
54	0x3dbfd08b	0.09365948
55	0x3d8706d5	0.065931
56	0xbe18e812	-0.14932278
57	0x3da9b13c	0.08285758
58	0xbdda462d	-0.10657916
59	0x3e4923f8	0.19642627
60	0xbe82f874	-0.2558018
61	0xbe864960	-0.26227856
62	0xbe33e5e8	-0.17568171
63	0xbea3080b	-0.31842074
64	0xbe6a7689	-0.2289678
65	0xbe8081ad	-0.25098935
66	0x3dfad804	0.12248233
67	0xbe94acf6	-0.2903821
68	0xbdd93dd9	-0.106075
69	0x3cc0acd5	0.023519913
70	0xbe37075d	-0.17873903
71	0xbe9bd760	-0.30437756
72	0xbda8313a	-0.08212514
73	0x3dafbac4	0.085805446
74	0x3c88c6d8	0.016696379
75	0xbe59a6ab	-0.21254985
76	0xbe0b3918	-0.13595998
77	0xbe0d6e15	-0.13811524
78	0xbe88f650	-0.26750422
79	0xbe2f94e8	-0.17146647

weight f4 [1, 20]
0	0x3d95f332	0.073217764
1	0xbd252ef0	-0.040327966
2	0xbd608bb4	-0.05482073
3	0x3e019947	0.12656127
4	0xbdf9f792	-0.122054234
5	0x3e012c01	0.12614442
6	0xbde86e28	-0.11349136
7	0xbbf372a0	-0.007429436
8	0x3d3445fd	0.04401206
9	0x3d004b4f	0.03132182
10	0x3d25cf60	0.04048097
11	0xbd83c6f3	-0.06434431
12	0x3d80499f	0.06264042
13	0x3e467b67	0.19383012
14	0xbd60b759	-0.054862354
15	0x3b2692b2	0.0025417027
16	0x3af8ef26	0.001899217
17	0x3cf6a916	0.030109923
18	0xbd7283f5	-0.059207875
19	0xbd22a956	-0.039712273

hidden_cell f4 [1, 1, 20]
0	0xbd04d091	-0.032425467
1	0x3d0b6600	0.03403282
2	0x3c8e6a46	0.01738466
3	0x3d1abd5e	0.03777825
4	0x3d22fc47	0.03979137
5	0xbcda2e0d	-0.026633287
6	0x3d2b0796	0.04175528
7	0x3a2f14f4	0.00066788425
8	0x3d2a75c6	0.041616224
9	0xbaaa9892	-0.001301544
10	0xbc6b7ddd	-0.01437327
11	0x3c93c839	0.01803981
12	0xbc8bf0b2	-0.017082546
13	0xbcfc1fa8	-0.030776814
14	0x3ccdc534	0.025118448
15	0x3bc77457	0.006086867
16	0xbad2319e	-0.0016036516
17	0xbb26ce58	-0.002545258
18	0x3c4b51d6	0.012409648
19	0x3c7e39e3	0.015516731

hidden_cell f4 [1, 1, 20]
0	0xbda07d08	-0.07836348
1	0x3db005f8	0.085948884
2	0x3d4f9f02	0.05068875
3	0x3dbe9a71	0.09306801
4	0x3dcf9dae	0.10137497
5	0xbd716577	-0.058934655
6	0x3daf256b	0.08552059
7	0x3b02ca3f	0.0019956974
8	0x3db25133	0.08706894
9	0xbb3572ba	-0.002768679
10	0xbd1d85bd	-0.03845762
11	0x3d4743ca	0.048648633
12	0xbd3c1374	-0.04591699
13	0xbd87e901	-0.06636239
14	0x3d824917	0.06361597
15	0x3c707082	0.014675261
16	0xbb82074e	-0.003968156
17	0xbbaf3b73	-0.005347663
18	0x3d0c5b0a	0.03426651
19	0x3d30640e	0.04306417
