mlruns/0/a30edd96dea5400cbcf0b88e4ed457c6/artifacts/model/data/model.pth (torch, 14120 bytes, 7 tensors)

weight_ih_l0 f4 [80, 1]
000000 17 39 60 be 55 f0 4b 3e 23 54 9f bd c5 4f 91 be
       -0.21896778 0.19915898 -0.0777972 -0.28381172
000010 82 e0 ab be e9 24 b6 3e 6b f7 8e be a0 2d c4 3d
       -0.33569723 0.35575035 -0.2792314 0.09579015
000020 89 86 ac be cc 2e 80 bd e3 86 6d 3d 6f 94 fb 3c
       -0.33696392 -0.06258926 0.057989966 0.030710427
000030 7b bd 43 be 8e 61 32 be 49 03 08 be e1 32 15 3e
       -0.1911525 -0.17420027 -0.13282503 0.1457019
000040 29 c9 f4 3d 76 57 98 bd 05 77 83 be 87 6d 86 3b
       0.11952431 -0.07438557 -0.25676742 0.004102412
000050 a3 0c 25 be 12 46 85 3e ba 3c a6 be ab 03 41 be
       -0.16118102 0.26030022 -0.32468206 -0.18849055
000060 05 99 d0 be 69 e6 bb 3e 4f b7 f8 3d a2 36 5b 3d
       -0.40741745 0.36699226 0.12144338 0.0535189
000070 73 e1 af bd c3 d7 ca bd 51 c6 e4 3b 83 84 ef 3d
       -0.08587923 -0.099044345 0.006981649 0.116951965
000080 2b 93 23 be 83 15 88 bd 58 59 4d bd a9 0a 30 3e
       -0.15974109 -0.06644728 -0.050134033 0.17191567
000090 6f 9a ed 3c af e4 2c bd 57 22 63 bd ec 17 08 3d
       0.029004304 -0.042210277 -0.05545267 0.03322594
0000a0 82 d4 e6 3e 54 5f 0e 3f f1 a9 6c be 77 76 6a 3e
       0.45084006 0.5561421 -0.23111703 0.22896753
0000b0 5a 20 76 be 83 cf 0f 3f 23 4a 52 3e ab 82 94 3e
       -0.24035779 0.5617601 0.20536093 0.29005942
0000c0 6b eb b9 3e db 39 13 ba 6f f1 18 be cf 63 27 3b
       0.36312422 -0.0005616226 -0.1493585 0.0025541668
0000d0 8f 15 68 bd f2 68 50 bd 18 8e 26 3e fc 7d ff 3e
       -0.056661185 -0.050881334 0.16265142 0.49900806
0000e0 93 b0 c8 be 91 c5 77 bd 45 68 c6 be 34 e8 c1 3d
       -0.39197215 -0.06049115 -0.38751426 0.09468117
0000f0 74 2a 3e 3d f7 d9 24 3e 73 a4 f7 3b 7b 60 df bb
       0.046427205 0.16098772 0.0075574457 -0.0068169213
000100 60 c3 85 be 17 d9 70 3e e5 16 fa 3d 05 6d 57 be
       -0.26125622 0.23520313 0.12211398 -0.21037681
000110 ad c7 ed bb e0 6f ba 3d f8 4e 3c be c1 49 1d be
       -0.007256469 0.0910337 -0.18389499 -0.15360166
000120 c5 c5 88 3d 2d 6f 8a bd 5e 6e c5 bd 81 ea 7c 3d
       0.066783465 -0.06759486 -0.096401915 0.061747078
000130 6a f5 95 3c 91 7b 55 3e f8 da ca bc 0a 62 29 be
       0.0183055 0.20847918 -0.024762616 -0.16541305

weight_hh_l0 f4 [80, 20]
000000 f2 04 0d 3d a9 10 8d bb e4 18 06 3d b9 46 1d be
       0.034428544 -0.0043049646 0.03273858 -0.1535901
000010 75 3e e1 3d 60 e5 cd 3b ae f4 8a 3d 3f 53 64 3e
       0.10998241 0.006283447 0.0678495 0.22297381
000020 02 3b 93 3d c9 06 55 bc 4c 4e 84 3d bd 70 76 be
       0.07188989 -0.013002106 0.064602464 -0.24066444
000030 6d 4b eb bc 17 3b d8 3d 89 aa 65 3d 22 4d ac bd
       -0.02872249 0.105581455 0.056070838 -0.084131494
000040 df 83 81 3e e9 c0 de bd 00 d8 39 bd bf 06 8c bd
       0.25295922 -0.108766384 -0.04537201 -0.06837224
000050 8d 56 da bd d4 16 29 be 0f 05 31 3d d4 30 39 3e
       -0.106610395 -0.16512614 0.043217715 0.18085033
000060 0f a5 f0 bd ad 20 c2 3d 44 cd a4 be 14 84 d0 bd
       -0.117502324 0.09478889 -0.32187855 -0.10181442
000070 89 88 ad bc 3d 0c 11 be eb 13 d2 bd 69 c8 b8 3c
       -0.02118327 -0.14164825 -0.10257705 0.0225565
000080 77 76 c9 bc 9b 89 8e 3c 76 2d 57 be ad c7 1e 3e
       -0.024592621 0.0173996 -0.21013436 0.15505858
000090 3f 0e 34 3e fd 7a 71 bb 7d 37 2f 3e d9 76 ec bb
       0.1758356 -0.0036846988 0.17111011 -0.007216316
0000a0 38 83 08 be c1 cd 97 3c 2b 82 06 3c 7b bb d2 bd
       -0.13331306 0.018530728 0.008209745 -0.10289665
0000b0 8b bf 07 be f5 d8 78 3d d1 1f ce 3d 39 12 27 be
       -0.13256662 0.06075378 0.10064662 -0.16315545
0000c0 c9 d7 13 be 7a e0 ec bd 31 9d 00 bc ed a7 14 3d
       -0.14437784 -0.11566253 -0.007849977 0.03629296
0000d0 1a 6b 38 be 73 06 01 be 18 54 e7 bd da 1e a1 3d
       -0.18009606 -0.12600116 -0.112953365 0.078672126
0000e0 05 6d 0b be 6e 7f b3 bd 66 a4 5a be 56 10 94 be
       -0.13615806 -0.0876454 -0.21351776 -0.28918713
0000f0 6b bf 51 be ec ed 2f 3d a3 69 5a bd 59 67 cb 3d
       -0.20483176 0.04295151 -0.0533234 0.099318214
000100 5c df d9 bd d0 61 69 be 3c 9a 53 be 01 e5 c2 bc
       -0.106383055 -0.22791219 -0.20664304 -0.023790838
000110 0e 7b 8f bb 62 0b 73 3d ce 68 f4 bd 28 f1 ce 3b
       -0.004378683 0.059337027 -0.119340524 0.006315369
000120 33 12 7c be 6e 8d 75 bd 70 5e 0c bd c1 3c 5f be
       -0.24616317 -0.05994933 -0.03426975 -0.2180052
000130 d6 23 8b 3c 75 8c 1a bc ee 9f e6 3d 7a 9c 9c 3d
       0.016984861 -0.009432902 0.11260973 0.07647033
000140 2a 83 42 be d5 bd 84 be fc 8a 90 be 1a d5 2a 3e
       -0.18995348 -0.2592608 -0.28231037 0.16682854
000150 b1 c7 94 be 47 bb 0b be 44 3d 5d 3e 3d 74 0e 3e
       -0.29058602 -0.1364566 0.21605402 0.13911529
000160 27 d8 88 be 96 39 8f 3e 34 4b 85 3c 07 4b 8f be
       -0.2672741 0.27973622 0.016271211 -0.2798693
000170 03 ae 8b be f6 d5 4d 3d c4 1b 09 3e 36 f4 67 be
       -0.27281198 0.050252877 0.13389498 -0.22651753
000180 2c 64 0f 3e d8 de c5 bd 3a d4 08 be 6a d3 38 3d
       0.14003056 -0.09661645 -0.13362208 0.045123495
000190 4f 39 23 be a1 e2 b4 3d ef ed 7a 3d ac 69 23 3e
       -0.1593983 0.088322885 0.061262067 0.1595828
0001a0 c6 37 4e 3e 5c cd 35 be 1d 49 b2 be cb 0b 6e be
       0.20138463 -0.1775412 -0.34821406 -0.23246686
0001b0 a0 11 28 3e 6e e4 89 3d 0b d9 36 3e 67 6c 6b be
       0.16412973 0.06733023 0.17856233 -0.22990571
0001c0 ad 51 7f be 33 50 16 3e c8 9c 7a be 1d 23 55 be
       -0.249335 0.14679031 -0.2447387 -0.20814176
0001d0 d1 c0 a4 3e c6 35 83 3e be 29 39 3e 10 15 b2 3e
       0.32178357 0.25626963 0.1808233 0.34781694
0001e0 10 1b 02 3e b7 b5 e3 3d 29 9f bb bd 7c 1b 95 3d
       0.12705636 0.11118644 -0.09161217 0.07280633
0001f0 4a b5 b9 bc ce 6a 54 3d 95 32 d9 bd b7 58 61 3d
       -0.022669453 0.05185967 -0.10605351 0.055016246
000200 1a 0f a9 3c 9d b6 9f 3d 67 c0 6f 3e 77 6c 3a be
       0.020637084 0.077985026 0.2341324 -0.18205439
000210 ca 82 3f bc a6 19 ff 3d ad 92 32 3e 8d 61 84 be
       -0.011688897 0.12456064 0.17438765 -0.25855675
000220 08 42 7e bc 14 35 ac 3d db e6 f0 3d 11 08 c7 3d
       -0.015518673 0.08408561 0.11762782 0.097183354
000230 6d 46 ab be fb f4 92 bd b5 d5 e1 bd 70 9a 37 be
       -0.33452168 -0.071756326 -0.110270895 -0.17930007
000240 6d 24 0f be e5 d5 4f bd 96 93 97 bd 3d d6 07 be
       -0.13978739 -0.050741095 -0.07401197 -0.13265319
000250 00 b5 e3 bd 14 75 82 be 1b 93 5a 3e c5 2a 65 be
       -0.111185074 -0.2547995 0.21345179 -0.22379597
000260 e0 bf 5d bd da f8 75 3e 43 7c 4f 3e 57 5e 51 be
       -0.054138064 0.2402071 0.20262246 -0.20446144
000270 ba cc 33 3e 6e 24 c4 bc 4e 31 55 3e e3 72 bb 3d
       0.17558566 -0.023943152 0.2081959 0.09152772
000280 0d 7e 22 3d 2f d2 b1 3c 29 a2 2d 3e 80 20 0e be
       0.039670993 0.021706669 0.1695639 -0.13879585
000290 50 fd d1 3d 91 89 60 be 96 4d 58 be 72 8a 50 bd
       0.10253394 -0.21927477 -0.21123347 -0.05091328
0002a0 02 96 99 bd 6c b1 44 be 9c f7 63 3b d9 d9 16 bd
       -0.07499315 -0.19208306 0.0034785038 -0.03682885
0002b0 e1 e2 8f bd fa c0 34 3e 38 96 03 3e ed bf 7c be
       -0.070256956 0.1765174 0.12850273 -0.24682589
0002c0 91 ac 5c 3e d9 7f 98 bd 9a 4a 66 bc 64 58 03 3e
       0.21550204 -0.0744626 -0.014055872 0.12826687
0002d0 b9 fa 44 be ed 92 8e 3d d7 33 6e be 2b 07 fd 3d
       -0.19236268 0.069616176 -0.23261963 0.12354883
0002e0 90 88 0d be d4 56 4c bd 2c 0b ae 3d 85 3d b3 3d
       -0.13821626 -0.049887493 0.084982246 0.08751968
0002f0 39 e5 b1 bd 18 a2 d0 3d c5 ac a1 bd d5 63 44 be
       -0.08686299 0.10187167 -0.07894281 -0.19178708
000300 38 35 41 be 36 93 79 3e 6a 47 30 be 62 e2 98 bd
       -0.18867958 0.24372563 -0.17214742 -0.07465054
000310 7e 07 b9 3c 2e fc 2f 3e 9a 12 32 be bb df 7a 3d
       0.02258658 0.17186043 -0.17389908 0.061248522
000320 f0 26 6e be 0f 89 ca bd ef d1 e5 bc dc a1 57 be
       -0.23257041 -0.09889423 -0.028054206 -0.21057838
000330 12 3d 16 3e 88 8a 21 be 59 da 94 be 46 2e cc bd
       0.14671734 -0.15775502 -0.29072836 -0.099697635
000340 02 0a 19 3e 40 18 90 bc 5c e0 6f 3e cd 66 e9 bd
       0.14945224 -0.017589688 0.2342543 -0.11396561
000350 ef 96 71 bd 74 68 16 3e a6 46 0c be 81 e2 67 bd
       -0.058981832 0.14688283 -0.13698825 -0.056612495
000360 cd 92 dc 3d b0 34 9a 3c e3 9a b7 3e 7b 51 f0 3d
       0.107701875 0.018823951 0.35860357 0.11734291
000370 ba 64 47 be b6 a0 57 3d f2 41 f0 3d e0 db 22 be
       -0.19472018 0.0526435 0.11731328 -0.15904188
000380 7e 10 44 be 09 a7 0b be 33 4c a5 bd 47 c6 4a 3e
       -0.19146916 -0.13637938 -0.080711745 0.198022
000390 6a f3 89 bd d8 b8 d2 3d 7e bd 3e be cb c3 05 be
       -0.06735881 0.102891624 -0.18626973 -0.1306297
0003a0 74 f1 a6 3d 35 78 48 3e 9d 17 41 3e 9e 42 8d 3d
       0.08151522 0.19577105 0.18856664 0.06897472
0003b0 f3 be dd bc 37 ae 84 3c b3 be 28 3e 68 3d 86 bd
       -0.02706859 0.016196353 0.16478996 -0.06554681
0003c0 14 00 92 be 74 4b 13 be 7c 9b 45 3e 00 a5 47 be
       -0.28515685 -0.14384252 0.19297594 -0.19496536
0003d0 ff b3 15 3d 67 63 85 be 26 80 55 be ab 01 aa 3d
       0.03654861 -0.260524 -0.20849666 0.083010994
0003e0 38 19 38 3e 9b 22 a3 be 2c 56 3a 3e 81 71 9e bd
       0.1797837 -0.3186234 0.18196934 -0.07736493
0003f0 5c d9 8b be 52 42 95 bd 11 c4 9b bd ca 3a 6d be
       -0.2731427 -0.0728804 -0.07605756 -0.23166957

bias_ih_l0 f4 [80]
000000 71 e4 d7 bc 1c 9a 85 3e 25 8d 44 3d 50 da 36 3d
       -0.026354047 0.2609414 0.04798617 0.044641793
000010 47 db ad bd e4 67 0d 3e e6 1b 64 be 4c 26 b6 3d
       -0.084890895 0.13809162 -0.22276267 0.08894023
000020 11 b4 56 3c 37 08 a1 be ce ae f0 3c fc 2f 28 3d
       0.013104455 -0.3145158 0.029380228 0.041061386
000030 17 9a 29 be be 6e b7 3d ad d5 9f 3b ab 90 52 be
       -0.16562687 0.08956669 0.004877767 -0.20562999
000040 1e 96 17 be 74 d8 80 3d ea 5e 21 3e 28 80 8c be
       -0.14803359 0.06291285 0.15758863 -0.27441525
000050 a8 3e 8f be 74 86 18 3d 89 cc f0 bd 47 fe 5c be
       -0.2797749 0.0372376 -0.11757762 -0.21581374
000060 72 32 87 be d3 43 e3 bd 0a 48 84 bb a1 b3 61 bd
       -0.26405674 -0.11096921 -0.004036908 -0.055102948
000070 16 5b 65 be 89 81 1d be 07 eb 82 be e2 0d 1b bd
       -0.22398028 -0.15381445 -0.25569937 -0.037855037
000080 a8 3c c5 bc 55 fa 03 be 67 02 ab bd 9d 11 64 3d
       -0.024076775 -0.12888463 -0.083500676 0.05568086
000090 15 7c 0e 3e c1 13 a1 be 4d 9f 56 3d c0 14 95 bc
       0.13914521 -0.31460384 0.052398015 -0.018198371
0000a0 2b 5a b1 bd 98 71 1d be 7a 33 e8 3c df 39 64 bd
       -0.08659776 -0.15375364 0.028344858 -0.055719253
0000b0 99 d9 ef 3c 87 ac 50 be 48 cc 23 3e 95 93 8e bd
       0.029278563 -0.20378314 0.15995896 -0.06961743
0000c0 c4 b5 2d 3d e2 8d 8e bd 0a 4f 22 be 83 f1 dd bd
       0.042409673 -0.06960656 -0.15850464 -0.1083708
0000d0 ba 23 0d bd fd f1 83 bd 22 11 0e 3e 7a e8 0d 3e
       -0.0344579 -0.0644264 0.13873723 0.13858214
0000e0 c2 18 7c 3e 94 4d bf bd 6c dd 29 bd 07 28 f6 bd
       0.2461882 -0.09340969 -0.04147093 -0.12019353
0000f0 76 29 1e 3b b1 77 67 3e 82 ed d8 3d d7 e1 af bd
       0.00241336 0.22604252 0.10592176 -0.085879974
000100 ca 70 13 be 22 ef 6a 3e 06 55 ae 3c 50 df 32 bd
       -0.14398494 0.22942784 0.021280777 -0.04367
000110 97 69 55 be d9 57 8a bd 00 42 4f be 4a 1a 29 be
       -0.2084106 -0.06755037 -0.20240021 -0.16513935
000120 b0 37 55 3d 4a 64 25 be 5b c4 d0 bc 96 d0 2c be
       0.05205506 -0.16151538 -0.025484255 -0.16876444
000130 79 8c 4f 3e 70 54 65 3d b4 6f 8a be e9 0e a1 3d
       0.2026843 0.05598873 -0.27038348 0.07864172

bias_hh_l0 f4 [80]
000000 1f 04 e6 bd b8 a4 79 bd 93 9a 39 be 75 4e f5 bc
       -0.11231255 -0.060948104 -0.18125372 -0.029944638
000010 e1 28 15 be 74 41 18 3e 3c c9 29 be a9 76 84 be
       -0.14566375 0.14868718 -0.16580671 -0.2587178
000020 44 09 f1 bd bd d8 96 be 3c ce b2 be a1 95 ce 3d
       -0.117693454 -0.29462233 -0.3492297 0.10087133
000030 bd 62 0f be 47 79 db 3d 57 29 a2 3d 0f 10 2a 3e
       -0.1400251 0.10716491 0.07918041 0.16607688
000040 1c 0c 66 3e 1d 8f 97 be 88 21 6d be f3 f5 1d 3b
       0.22465557 -0.29601374 -0.23157322 0.0024102896
000050 c2 09 b2 be 97 31 0b be b3 16 dc bd 76 e8 37 3d
       -0.3477307 -0.13593136 -0.10746517 0.044899426
000060 43 d0 81 be 88 d5 18 3e cc cd aa be 7e d7 8d 3d
       -0.25354204 0.14925206 -0.33360136 0.069258675
000070 df 5e 81 bd 21 8c 1e be 55 86 90 bd ff d2 76 be
       -0.06316923 -0.15483142 -0.07056872 -0.24103926
000080 70 e4 c5 bd 08 6e 30 be 7d bc a6 bc b3 d1 23 bc
       -0.096627116 -0.17229474 -0.02035355 -0.009998727
000090 22 3a e9 3c 0b fd be 3c 96 f6 0f be 6b d0 91 3d
       0.028470103 0.02331402 -0.14058909 0.07119831
0000a0 68 fc 0d bd 12 f7 26 3d a1 04 15 3d 4a ec c2 3b
       -0.03466454 0.04076297 0.036381368 0.005948578
0000b0 0c 5e 50 3d 3d 60 c5 3d ee c6 6b be 2f b0 f9 bc
       0.05087094 0.096374966 -0.23025104 -0.030479519
0000c0 91 fe 1d be 15 e8 92 3d 80 91 5b 3e 19 1c 0a 3d
       -0.1542914 0.071731724 0.21442223 0.033718202
0000d0 ef 78 95 3d c4 67 9a 3c 62 a9 63 be 0f 89 88 be
       0.07298457 0.018848307 -0.22232583 -0.26667067
0000e0 85 83 10 be e5 49 6c 3d 26 40 2b 3e 39 37 de 3d
       -0.1411267 0.05768766 0.1672369 0.10850377
0000f0 71 ef c0 bd a5 cd 1b 3e 95 04 90 be 7b 0e 00 be
       -0.0942067 0.15215166 -0.28128496 -0.12505524
000100 e3 b2 4c be 4a b5 c9 3d ac 7b 85 be 0e 4c 75 3d
       -0.19990115 0.09849031 -0.26070917 0.059886985
000110 2b 8a f0 3c 75 29 6b bc 1d f0 bc bc be 3d 99 3d
       0.029362759 -0.014353146 -0.023063714 0.074824795
000120 bf 5e 45 bd 22 7d 1c be 87 00 34 3c d8 25 89 bd
       -0.04818606 -0.1528211 0.010986454 -0.06696671
000130 87 1a 41 3d 9a 85 c8 3d ad 73 7f 3d c4 5c a4 be
       0.04714444 0.097911075 0.062366176 -0.32102025

weight f4 [1, 20]
000000 12 01 f4 3d 79 c2 99 3e 63 23 09 be c7 a3 7a bc
       0.11914267 0.30031183 -0.13392405 -0.015297837
000010 fa 51 3c bd bd 1c 51 3e 92 6d 14 3e 87 42 1f 3d
       -0.045976616 0.20421119 0.14494923 0.038881805
000020 87 1c 8a 3d d0 e7 ab 3c a3 f2 d3 bd 18 5f b4 3c
       0.067437224 0.02098456 -0.10349014 0.022018
000030 80 ac d1 ba a1 8e 37 bc f1 1e b8 3c 12 59 08 3e
       -0.0015996844 -0.011203439 0.022475692 0.13315228
000040 8c fc 73 be fb 3f 84 bd 2e 4d 29 be 09 a1 60 bd
       -0.23826808 -0.06457516 -0.16533348 -0.054841075

hidden_cell f4 [1, 1, 20]
000000 f4 1b 29 bc 78 31 60 bc 8a 7b 2a 3c 5c 5c 9c 3b
       -0.010321606 -0.013683669 0.010405431 0.0047717523
000010 7d 81 ff 3b 0e d5 e3 bb 3b 35 f5 bb 1f 45 ec bc
       0.0077974186 -0.0069528883 -0.007483152 -0.028841553
000020 e0 88 0f bc db af 22 3b 50 47 2f 3c 4c 16 1d bd
       -0.008760661 0.0024824056 0.010698155 -0.038351342
000030 af 0a 45 3c e2 31 60 bc 9e b6 9a bc 27 c6 86 bc
       0.012026473 -0.013683768 -0.018885907 -0.016451908
000040 e2 6c 72 3c a9 f1 a6 bc 99 aa cf 3c 86 0a 10 3c
       0.0147964675 -0.020378904 0.025349902 0.0087915715

hidden_cell f4 [1, 1, 20]
000000 05 3e af bc d3 8b ba bc 69 da ba 3c 17 4a 2f 3c
       -0.021391878 -0.022771752 0.022809224 0.010698817
000010 7c 38 9e 3c d8 7f 40 bc c1 5a 89 bc f5 fa 6c bd
       0.019314043 -0.01174923 -0.016766908 -0.05785652
000020 1d 01 9c bc 0b 27 a9 3b cc d3 c6 3c ff e1 a6 bd
       -0.0190435 0.005162125 0.024270914 -0.08148574
000030 1a b8 c0 3c c4 a8 06 bd a7 62 1e bd bf 49 16 bd
       0.023525286 -0.03287579 -0.0386683 -0.036691424
000040 5c 36 d6 3c 63 5d 18 bd 59 c4 68 3d 72 28 a6 3c
       0.026148967 -0.037198436 0.056827877 0.020282958
