mlruns/0/09e928881d7145f585a340166e0aa561/artifacts/model/data/model.pth (torch, 14120 bytes, 7 tensors)

weight_ih_l0 f4 [80, 1]
000000 cd 53 9b 3e 39 f4 94 be 13 87 56 3e 1f ae ef 3e
       0.30337372 -0.29092577 0.20949964 0.4681253
000010 f7 15 a9 3e cb d0 ec 3e 62 b8 f7 bc c3 53 8d be
       0.3302457 0.46253046 -0.030239288 -0.27602968
000020 33 cd 81 3e 18 38 33 3e 7b e6 8f 3e e9 0c b4 3e
       0.25351867 0.17501867 0.2810553 0.351661
000030 eb 0a 98 3d c8 9e f4 3e 25 27 c4 3e 1d 27 74 3e
       0.074239574 0.4777739 0.38311115 0.23843046
000040 3c 12 e4 3e 1d 09 d8 3d 17 00 d9 3b f9 bf 9e be
       0.44545162 0.10548613 0.006622325 -0.3100584
000050 7a 3b b5 3d ee 3f 07 be c0 03 ac 3e 88 d7 54 3e
       0.08849235 -0.13207981 0.3359661 0.20785344
000060 a9 8a 19 3e 4b a5 78 3e 13 3b 15 be 71 e2 fe be
       0.14994301 0.24281804 -0.14573316 -0.49782136
000070 14 45 1d 3e 37 86 fc bc 96 94 95 3e 3d d1 30 be
       0.15358382 -0.030825717 0.29214925 -0.17267318
000080 22 c5 01 3d 79 1c da 3e 75 03 85 3d ec 22 b6 3d
       0.03168214 0.42599848 0.064948 0.088933796
000090 72 83 ac 3e a6 d1 37 3e a8 ab 7b be 13 d4 09 bf
       0.33694035 0.17951068 -0.245772 -0.53839225
0000a0 be b0 f6 be 5f ff 5e be 74 8e 92 be db 92 f6 be
       -0.4818172 -0.21777104 -0.28624308 -0.48158917
0000b0 76 cb c7 3e 88 f8 34 3f a8 e2 fe be 62 3e 8d 3e
       0.39022416 0.7069173 -0.497823 0.27586657
0000c0 92 46 0a 3f 3f 54 0b bf a7 3c 42 be 59 de c7 3e
       0.5401393 -0.54425424 -0.1896845 0.39036825
0000d0 0b 5c 08 3f 08 be 19 be ba 17 0c be a7 0a 38 be
       0.53265446 -0.15013897 -0.13680926 -0.17972814
0000e0 39 38 ca 3d d0 d3 89 3e 8c f3 dd 3e 37 84 e2 3e
       0.09874005 0.26919413 0.43349874 0.44241497
0000f0 7d 93 44 3e c6 63 dc bd a5 c9 82 3c e9 06 ec 3e
       0.19196887 -0.10761218 0.015965292 0.46099022
000100 d4 07 bc 3e e7 6c 97 3d 03 d5 15 3e 4f 61 f1 be
       0.36724722 0.07393818 0.14632039 -0.47144553
000110 c2 87 fd 3e 67 f4 b4 3e 59 05 b5 3e a5 5c 5f 3e
       0.49517637 0.35342714 0.35355642 0.21812685
000120 af de d2 3e cb 33 99 3e c3 e0 a4 3e 52 ca 00 3f
       0.4118552 0.29922327 0.3220273 0.50308716
000130 c8 12 e5 3d 06 1e 04 3f 1a 0e 66 bd 09 37 c6 be
       0.11185223 0.5160831 -0.056165792 -0.38713863

weight_hh_l0 f4 [80, 20]
000000 5a 70 f2 3c 1f fa a2 3e 13 ff aa be 50 22 7c be
       0.029594589 0.31831452 -0.3339773 -0.24622464
000010 a0 6c ca 3d a9 00 81 3e 27 ad 98 3c 1a 3e 93 be
       0.09884 0.25195816 0.018637253 -0.28758317
000020 b0 1e 2c 3e 92 1e b1 bd c9 8c ba be a2 c9 69 3d
       0.16808581 -0.08648409 -0.36435536 0.057077058
000030 a1 68 34 3e f9 4c 2e be 64 eb f6 be 1f d0 20 be
       0.17618038 -0.1702155 -0.48226464 -0.15704392
000040 23 a8 46 3c d5 ef 88 3e be b2 14 be dd ff 5d be
       0.012125048 0.26745477 -0.1452131 -0.21679635
000050 55 c2 1a be c1 15 16 3e c0 48 34 be 32 b9 ec 3c
       -0.15113194 0.14656736 -0.17605877 0.028896902
000060 9c 6d 1d 3e df ad 39 3e 44 4c 35 be eb f3 0d be
       0.15373844 0.18132733 -0.17704874 -0.13862579
000070 11 6d 45 3e df ef c0 be 20 db 83 3e 12 1e 28 3e
       0.19279887 -0.37683007 0.25753117 0.16417721
000080 2d 21 ef 3d 01 08 47 be 16 9f 96 bd c5 75 2c 3e
       0.1167625 -0.19436647 -0.07354562 0.168418
000090 d1 4d 79 3d cb 49 68 3d 64 00 39 be 3b 7d ea bd
       0.060865227 0.056711 -0.18066555 -0.11449667
0000a0 d8 7e f0 bd b1 40 8b 3d e9 a9 0f bc 3c 60 a1 bc
       -0.117429435 0.06799448 -0.008768537 -0.019699208
0000b0 17 81 8a bd d8 63 61 3e fd b7 4b 3c c9 ca d3 3c
       -0.06762903 0.22010744 0.012434003 0.025853531
0000c0 81 dd 49 3e 13 6a 04 3b 23 f7 af bd ce ea 6d 3e
       0.19713403 0.0020204827 -0.085920595 0.23234102
0000d0 64 d7 62 bd 6e 0d a0 be 42 ce 32 3d 73 cb 88 bd
       -0.055381194 -0.31260246 0.043653734 -0.0667943
0000e0 c2 cc 98 3e 03 19 94 3d 8e bc 8d 3e 2f fb 83 be
       0.29843718 0.07231333 0.27682918 -0.25777575
0000f0 79 af 57 3b cb fb 5b 3d b2 8f 9f 3e 17 64 68 bc
       0.0032910986 0.053706925 0.31164318 -0.0141840195
000100 a2 9e 09 be 3b 94 68 be 26 06 44 3c 01 57 2c 3c
       -0.1343942 -0.22712795 0.0119643565 0.01051879
000110 9b a3 53 bd 11 81 c1 bd 32 c1 12 ba 47 c0 87 be
       -0.0516697 -0.094484456 -0.00055982464 -0.26513883
000120 10 de 8f bc a1 18 38 3e 91 c8 a3 bd c6 1e 05 be
       -0.017561942 0.17978145 -0.079972394 -0.1300002
000130 39 59 38 be e5 c7 1f be 93 46 1a 3d 18 7a d9 bd
       -0.18002786 -0.15603597 0.03766496 -0.10618991
000140 57 4e 4e 3e 58 43 02 be bc 01 11 3d 6f 14 9f 3c
       0.20147072 -0.12721002 0.035402045 0.019418923
000150 98 3b 50 be 69 45 5b be 34 dd ea 3d 43 87 8d bd
       -0.20335233 -0.21413197 0.114679724 -0.06910565
000160 bb d8 0a bd 5f d1 5a 3e 13 ee ad 3d 02 4e 26 3e
       -0.033898097 0.21368931 0.08492675 0.16240695
000170 24 e5 2a 3e 37 61 60 bd eb 4f e7 bd 69 73 19 3e
       0.16688973 -0.05478021 -0.1129454 0.14985432
000180 46 82 35 be 68 84 66 bc ce 5b bb 3d 84 04 d3 bb
       -0.17725477 -0.014069654 0.0914837 -0.0064397473
000190 16 12 e1 bc e2 04 e9 3e b7 1f 4a be 8c 57 e6 be
       -0.027474444 0.45511538 -0.19738661 -0.44988668
0001a0 d7 ab 47 3e b3 74 5b 3e d4 a1 79 be 83 4f b6 be
       0.19499145 0.21431236 -0.24378139 -0.35607538
0001b0 66 ed 6b 3e 52 b1 a0 3d ca 20 17 bf 01 6b 12 3e
       0.23039779 0.07846321 -0.5903441 0.14298631
0001c0 fa ce c9 3e e7 c7 d6 be a1 a6 e8 be 51 a9 c6 be
       0.39415723 -0.41949388 -0.45439628 -0.38801053
0001d0 10 2f f7 3e f9 2d 0d 3f 82 d8 44 be ba e6 9d be
       0.48278093 0.55148274 -0.19223216 -0.30840093
0001e0 11 a6 44 be f5 1d 48 3e a0 6d 05 be df 4f 8e be
       -0.19203974 0.19542678 -0.130301 -0.27795312
0001f0 53 0d ce 3d a2 6a fc 3d 02 0b 2c be 54 b9 5d be
       0.10061135 0.12325026 -0.16801074 -0.21652728
000200 57 7d 3d 3e 51 b8 83 3d 5d 19 55 be e6 4c 89 bd
       0.18504845 0.0643164 -0.20810457 -0.0670412
000210 4c 55 e5 3d 91 f5 ae be 16 14 7a be b1 32 c2 be
       0.1119791 -0.34171727 -0.24421725 -0.379293
000220 fc e5 34 3e a4 4e c5 3e 85 bf 1b be d1 41 db 3c
       0.17665857 0.3853656 -0.15209778 0.026764782
000230 bf 80 8e 3c b3 34 56 be 00 99 a1 3d ff 6d 32 be
       0.017395375 -0.2091854 0.078905106 -0.17424773
000240 de 36 5d 3e 69 56 13 3e 0a f8 a7 be f1 9d 76 3e
       0.21602961 0.14388432 -0.32806426 0.24083687
000250 c5 e8 81 bd c4 2a 49 be 8f 59 39 bc 40 42 5e 3e
       -0.063432254 -0.1964522 -0.011312856 0.2170496
000260 fa 95 7f 3e b2 3d 31 bd 47 ff c9 bd 7b 06 f4 bd
       0.24959555 -0.043271728 -0.098631434 -0.119152986
000270 45 8d 67 3e e0 36 11 be 39 b8 1d bd 32 28 7d 3d
       0.22612484 -0.1418109 -0.038505767 0.06180591
000280 b3 d3 a5 3d ba 92 1d 3c c1 3b 7b 3e 5d a2 a2 be
       0.08097019 0.009617502 0.24534513 -0.31764498
000290 6b b4 0d 3e 91 01 2a bd b5 5e 31 3e 0d 4c 81 be
       0.13838355 -0.0415054 0.17321284 -0.25253335
0002a0 0f eb ae 3d fc d6 be 3d fd a4 07 3d d6 23 92 b8
       0.085409276 0.09318349 0.03311633 -6.9684975e-05
0002b0 ea 77 67 3e ff cb b8 3d 06 b5 ed bd 45 86 82 be
       0.22604337 0.09023284 -0.11606793 -0.25493065
0002c0 be 6d 96 3e a2 64 47 bc ae ad 4b be f5 2a 6d be
       0.29380602 -0.012169989 -0.19890472 -0.23160918
0002d0 e1 2e 59 3d cd 5a d4 3d 9c 1a 75 be 9d 46 60 be
       0.053023223 0.103688814 -0.23935932 -0.21901937
0002e0 e3 bd b0 3e 74 67 b8 3e ca 80 32 be 58 fc 03 bf
       0.34519872 0.36016428 -0.17431942 -0.5155692
0002f0 cf 96 36 3e 0c 4c 7f be 5f 17 81 be 85 e8 06 3e
       0.17830966 -0.24931353 -0.25213143 0.13174637
000300 91 3a 8b 3d 7e 4d e7 be d4 e8 e0 be c9 6a 48 be
       0.0679828 -0.4517631 -0.43927634 -0.19571985
000310 86 8e 62 3e 8f 4f bd 3e 9b 10 27 be 49 05 a3 be
       0.22124681 0.3697476 -0.16314928 -0.3183997
000320 c9 1c 43 bd 84 1e 34 be a0 05 a6 3e c4 1d 1d 3e
       -0.047634874 -0.17589766 0.32426167 0.15343386
000330 dd 8d 0a 3e 79 8a 44 3d 9a 4b dd bd 08 bb ae bd
       0.13530679 0.04798362 -0.108054355 -0.08531767
000340 11 71 d5 3d 81 3c a3 3e 8c 41 8e bd f7 cb 17 3e
       0.10421956 0.31882098 -0.06946096 0.148239
000350 f3 55 4a 3d a2 35 38 be bc 71 7f 3d 5a 5a fa 3c
       0.049398374 -0.1798921 0.062364325 0.030560661
000360 6d c7 04 bc 7e 6a c8 bd 28 a1 11 3e a1 28 09 3d
       -0.008104187 -0.09785937 0.14221632 0.033486012
000370 3a bb a1 bd 98 7c ab 3e 23 6e a4 be d8 a1 0e be
       -0.07897039 0.33493495 -0.32115278 -0.13928926
000380 a7 15 04 3e 0d b7 a9 3e 5f 37 dd bd 19 14 1d be
       0.12898885 0.3314747 -0.10801577 -0.15339698
000390 30 9f 7e 3e 3a 15 95 be 84 cc e5 bd 42 74 d3 3b
       0.24865413 -0.29117757 -0.11220649 0.006453068
0003a0 d9 81 40 3e 35 a2 3c bd a2 e2 1b be df f8 ca bd
       0.18799533 -0.04605313 -0.15223172 -0.0991075
0003b0 c8 43 79 3d f1 83 6a 3e 1e ba 3e 3e 11 ac 40 be
       0.060855657 0.22901894 0.18625686 -0.18815638
0003c0 6a de 1d bd 0c 1f 7e 3e 83 38 14 bc ba 26 98 be
       -0.03854219 0.24816531 -0.009046677 -0.29717046
0003d0 29 1e 00 3f 77 ae 7b 3e a2 46 27 be 1c 50 8e be
       0.5004602 0.24578272 -0.16335538 -0.27795494
0003e0 4c 38 c2 3e 9e 77 5e bc 09 18 c3 be 1e b9 96 3e
       0.37933576 -0.013578324 -0.38104275 0.29438108
0003f0 c7 56 b4 3e 18 83 07 bf 7c 4d 48 be 23 b6 29 be
       0.35222456 -0.5293441 -0.19560808 -0.16573386

bias_ih_l0 f4 [80]
000000 17 cb d3 3e 3f d3 65 be 1c 43 c1 3e ca ac 83 3e
       0.41365883 -0.22443865 0.37746513 0.25717765
000010 6e 3a 3b bd 54 82 06 3f 66 6b ba 3e da 8d 5a be
       -0.04571002 0.52542615 0.36410064 -0.21343175
000020 52 4b e5 3d c3 61 ba 3e c4 5d 45 be 4b f2 93 3e
       0.11196007 0.3640271 -0.1927405 0.28895792
000030 12 6b 45 3e 09 f8 5a be d7 ba e1 bd 64 fb 4c be
       0.19279125 -0.2138368 -0.11021965 -0.20017773
000040 a1 ab a2 3d b6 c3 4b be fb ec 82 39 bc d5 9d 3e
       0.07942892 -0.19898877 0.00024972096 0.3082713
000050 8a 18 52 bc 84 af 05 3e 66 70 73 3e 04 92 ca bd
       -0.012823233 0.13055235 0.23773345 -0.098911315
000060 8f 2a 24 bb 23 cc ff 3c 46 cc 44 be 38 e1 1f be
       -0.002504978 0.03122527 -0.19218549 -0.15613258
000070 de ad 66 be e6 bb af be 3f 73 15 be 09 62 ac be
       -0.22527263 -0.34323043 -0.14594744 -0.33668545
000080 a0 eb 21 be 80 0c d3 bc 4e 68 86 be 4c b2 c0 bd
       -0.1581254 -0.025762796 -0.26251453 -0.094090074
000090 1d dc 9d 3d 7c c3 e8 3d 89 cf 5f 3d 80 98 9e be
       0.07707999 0.11365411 0.05464128 -0.30975723
0000a0 a0 f2 a8 bd 1c c5 31 be 7a b7 4c 3d aa fb 41 be
       -0.08249402 -0.17360348 0.049979664 -0.18943658
0000b0 c2 bb 5f 3c 13 da b8 bd 98 ee 2c 3e d8 7d 04 be
       0.013655605 -0.09025969 0.16887891 -0.1293863
0000c0 04 58 d1 3d 91 9d c4 3c 12 e2 12 be f4 58 10 be
       0.10221866 0.024000915 -0.14344051 -0.14096433
0000d0 9a cf 4b be 6b a5 3b be 15 25 80 bd 27 18 0f bc
       -0.19903412 -0.1832482 -0.06257073 -0.008733786
0000e0 7b 2a a4 bd 8a 57 2d 3e 75 59 8c 3d 4c fc c6 bd
       -0.08015915 0.16927925 0.06853 -0.097160906
0000f0 bc 1c f7 3e 6b 86 69 be 06 19 72 3e 5e c4 e4 bd
       0.4826411 -0.22805183 0.23642358 -0.111702666
000100 e1 8f 5a 3e a5 2c 01 3f 35 a4 88 3e ab 3e a5 3d
       0.21343948 0.5045875 0.2668778 0.080685936
000110 24 4a dd 3d 53 67 f6 3d 13 07 1b 3c 1b 06 f0 3d
       0.10805157 0.12031426 0.009462136 0.117199145
000120 00 4d df 3e d3 af 40 3e bb 3f 59 bd e6 d6 68 be
       0.43613434 0.18817072 -0.053039294 -0.22738227
000130 a4 41 7c be 15 b4 06 bd 1d a0 b9 3e 6b 4f 7d 3d
       -0.24634415 -0.032886583 0.3625497 0.061843317

bias_hh_l0 f4 [80]
000000 66 89 52 3e 91 d7 7e be c2 50 a6 3e d2 c2 54 3d
       0.20560226 -0.2488692 0.32483488 0.051943608
000010 5e 1b 7f 3e 73 7e 9d 3e 00 bb b9 3e 5b eb 24 bb
       0.24912784 0.30760536 0.36275482 -0.0025164697
000020 38 8a 92 3e 43 bf 21 3e 60 cc c8 bc 39 ca ad 3e
       0.28621078 0.15795617 -0.024511516 0.33943346
000030 a4 e1 11 3f fd 3b 4e be a5 02 fc 3d 50 b9 1f 3e
       0.56984925 -0.20140071 0.12305192 0.15598035
000040 e1 9d a0 bc ce 40 7b 3d 0a df 3d 3e 93 a9 3a 3e
       -0.019606533 0.0613411 0.18542114 0.1822875
000050 eb fa 64 bd 04 d3 0e 3c cc 88 f1 3e 32 d7 34 be
       -0.055903357 0.008717302 0.4717468 -0.17660215
000060 77 0a 03 be 98 85 de bd 43 0d 30 be 16 86 de bd
       -0.12796961 -0.10865325 -0.17192559 -0.108654186
000070 81 fb e2 3d 8d 2b 21 be b6 1e b4 3d 4a d4 8b bd
       0.11083127 -0.1573927 0.0879492 -0.068276
000080 2f be af 3d a0 ff 12 3b d3 4e 01 3e 1c b6 d2 3d
       0.085811965 0.0022430196 0.12627725 0.10288641
000090 e1 68 6b be 24 72 b6 3d 2e 04 73 be bc 78 9a be
       -0.22989227 0.08908489 -0.23732063 -0.30170238
0000a0 7e 00 1c 3e d2 ed 7a 3e 89 78 27 3d 63 26 f4 bb
       0.15234563 0.24504784 0.040886436 -0.007450865
0000b0 8b fc fd 3d c3 12 8d bd d2 28 a0 bc ea eb 1f be
       0.124016844 -0.06888344 -0.019550715 -0.15617338
0000c0 c4 6f 15 3b f5 04 35 3c 14 8e 32 be 94 22 17 3e
       0.0022802213 0.011048545 -0.17437011 0.14759284
0000d0 fe 2c 12 3e 35 74 5e be 6a 78 43 be 53 8a eb bd
       0.14274976 -0.21724017 -0.19088903 -0.115009926
0000e0 2c d5 11 3e 1f 00 6b 3d ca 12 41 be b9 87 45 be
       0.14241475 0.057373162 -0.18854824 -0.19290055
0000f0 f6 93 f6 3e 16 3e 16 be 72 57 b8 bc 3a 41 9f 3d
       0.4815976 -0.14672121 -0.022502635 0.07776113
000100 f5 d7 0d 3e b4 79 21 3f eb 0f 94 3e b5 da ba 3d
       0.13851912 0.6307633 0.28918394 0.09123746
000110 33 d9 7e bd 40 18 76 3e b4 7d 26 be 4f c6 c5 3e
       -0.062218856 0.24032688 -0.1625889 0.3862786
000120 7f bb b2 3e 56 96 09 be 4d ec 1d bd 19 7c 9d bd
       0.34908673 -0.13436255 -0.038555432 -0.076896854
000130 c5 08 39 3d d5 f5 5b 3d 51 aa 84 bb 9c e2 49 bc
       0.04517438 0.05370124 -0.0040486236 -0.012322094

weight f4 [1, 20]
000000 e3 1a 97 be 8a bb 8b bd 05 9d 12 be ba 2c 9d be
       -0.295127 -0.068228796 -0.1431771 -0.30698186
000010 b5 d2 8f 3e 8c 07 a0 3e 71 77 42 be b7 e9 44 3e
       0.28090444 0.31255758 -0.18990876 0.1922978
000020 d5 61 ab 3e 0b 2f a5 be 9a 57 23 be e7 72 1c 3e
       0.33473077 -0.32262453 -0.15951386 0.15278207
000030 eb 3f a9 3e cb 09 73 be 20 68 cd bd c0 85 37 be
       0.33056578 -0.23734204 -0.10029626 -0.17922115
000040 71 5e da 3d df 43 ee 3d 32 a8 1d 3e 29 49 8d 3e
       0.106625445 0.11634039 0.15396193 0.2759488

hidden_cell f4 [1, 1, 20]
000000 ef 46 23 3c 3c 54 d5 3b f4 33 05 be b9 66 b0 bd
       0.009965642 0.0065102857 -0.130081 -0.08613343
000010 03 1d cb 3d 3d 77 a5 bc 5b 77 a0 bc 8c c3 dc bd
       0.09917643 -0.020198459 -0.019588163 -0.10779485
000020 cf 38 2b 3d a7 ba 3f 3c bd 59 b4 bd bf 51 79 3c
       0.041802224 0.011702216 -0.08806179 0.015217244
000030 e3 b9 72 bd 6d 7f 27 be c6 37 ba bd 1e 30 57 bd
       -0.059259307 -0.16357203 -0.09092669 -0.052536123
000040 d7 9f b9 3c ec 2c bf 3d e4 e0 ed bc f1 c6 c6 bd
       0.022659225 0.0933474 -0.0290379 -0.09705914

hidden_cell f4 [1, 1, 20]
000000 02 16 50 3c b9 03 85 3c c9 7f 6a be 71 0f 31 be
       0.01270056 0.016237127 -0.22900309 -0.17291047
000010 9e 38 2c 3e c9 77 c7 bc f3 ad ee bc 9b b1 52 be
       0.16818473 -0.02434911 -0.02913568 -0.20575564
000020 e7 7c 9d 3d ff e3 91 3c a5 33 49 be 70 5b b8 3c
       0.07689839 0.017808912 -0.19648607 0.022504538
000030 98 fa 9e bd fd 67 a4 be d7 09 42 be fa 06 02 be
       -0.07762641 -0.32110587 -0.18949066 -0.12697974
000040 26 f0 4a 3d ef 2c 3b 3e d1 43 47 bd e5 38 3c be
       0.04954543 0.1827886 -0.04864866 -0.18381079
