mlruns/0/e5898e3eb3914504b95c620140c8b6e3/artifacts/model/data/model.pth (torch, 14120 bytes, 7 tensors)

weight_ih_l0 f4 [80, 1]
00000000: 6484 28bd 9e62 5d3a 6f7e 6c3e 6678 b8bd
00000010: cbeb 3b3d f714 08be 5a7e 22be ecbe 773d
00000020: 2bea 1a3e 319e 713e ba8c 913e 69b7 3bbc
00000030: 37e6 d13d a3d7 053e 92d6 0f3e 2a8d 1d3d
00000040: 6f8c 9cbd 3e60 923d 1939 5c3e 9ecd 1c3e
00000050: aa4a 8c3e fc3c 2fbd ea9f 013d 03ce 63bd
00000060: 44af 4fbe ac46 9d3d cea0 c73d 7e85 52be
00000070: dd55 013e 8c63 f53d 9472 9bbd 7683 513e
00000080: 7734 0b3e 12f2 923e 7064 b5bd 660f 083e
00000090: faba 8cbd dfb8 9abd 29ab b2bd 7dc7 113e
000000a0: e92a 85be f3e0 fb3d c6cb 183d b005 0abe
000000b0: d36b 103e accd 803e 1bfc 2abd b7b3 c23b
000000c0: bd0a e23d af14 6c3e 7a32 413d e57d 7abe
000000d0: 6b86 febd 3996 b7bd c833 a83c 5b0d afbd
000000e0: 9a28 0dbe c6cf 04be 9c06 ce3d e169 c43d
000000f0: 799c 383e e361 22bd a04e 5e3e b75a 743d
00000100: d5d1 a63d fc17 8c3d 3ddb df3d 7b86 14be
00000110: 1361 b9bc 3de0 a03e 805e 123e 9248 023e
00000120: 828a dd3d 37d0 86bd 2f26 01be 8e5f 9c3d
00000130: 20b3 703e 22de e8bd 0880 16be 8f03 4f3e
-0.041141883 0.0008445176 0.23095106 -0.09007339 0.045879167 -0.13289247 -0.15868512 0.06048481
0.1512839 0.23595501 0.28427678 -0.011457303 0.10248988 0.1307054 0.14046696 0.038464703
-0.07643973 0.07147263 0.21506156 0.15312812 0.27400714 -0.04278277 0.031646647 -0.05561639
-0.20281702 0.07679495 0.09747468 -0.20558736 0.1263041 0.11981878 -0.075902134 0.20460305
0.13594232 0.2870031 -0.088570476 0.13287124 -0.068716004 -0.075547926 -0.087240525 0.14236255
-0.260093 0.12298765 0.03730371 -0.13478732 0.14103632 0.25156915 -0.041744333 0.005941834
0.110372044 0.23054765 0.04716728 -0.24462087 -0.12427982 -0.089641996 0.020532504 -0.08547469
-0.1378502 -0.12969884 0.100598544 0.09590507 0.1802844 -0.039644133 0.2170968 0.059656825
0.08145491 0.06840512 0.10930488 -0.14504425 -0.022629296 0.3142108 0.14293861 0.12722996
0.10817434 -0.065826826 -0.12612222 0.07635413 0.23505831 -0.113704935 -0.14697278 0.20216201

weight_hh_l0 f4 [80, 20]
00000000: ccda 07be 1b48 28be b488 133e 4f6f 3cbe
00000010: eb1c 333e 7180 99bd efe8 e3bd 479b 02be
00000020: 6530 843d b4e5 113e c73a 803d d3a1 aa3d
00000030: ba49 e43d 6fe2 b33d a761 283e 9944 4e3e
00000040: f5b7 eb3c 9697 123e 7ca3 44be c5f4 823e
00000050: 6dc8 68be 8a4d debd ed2f 39bd 9044 563e
00000060: a292 433e 2f05 34be 94f5 143e c65e 193e
00000070: ca21 c93d 97ce 12bc fdbe 883d 77f8 68bd
00000080: 1021 3e3e 206a f5ba 2ba1 cc3d b610 823c
00000090: 165a 483c 1fd4 12be 1c58 ba3b 2c21 d93d
000000a0: 3854 02be 88aa aabd 33b2 bbbd d74e 363d
000000b0: 97a8 f1bd 6517 b1bd f599 073e a42f ac3d
000000c0: e904 2dbe 467f 31bd 613d 6f3c f2c7 1abd
000000d0: 607e 79be 0db9 1e3e 701d ec3d cc96 40be
000000e0: 8665 fcbd 63dc 53be e1ed 32be d883 31be
000000f0: 18b6 0ebe d429 c0bd 4144 06bd f697 d8bd
00000100: da9f 84bc d4f4 6ebd 13a5 4f3e 2b3c 2dbe
00000110: 7c72 13bd 30f0 0dbe b0d7 093d d4fd 473d
00000120: 8de8 18be c2df 083c 294d 26be af99 37be
00000130: 3ed8 ad3d 7e24 c6bd 1d2b 43bd 6f93 1c3e
00000140: 5cd1 f33c e1a3 52be 5595 053d 0e66 953c
00000150: d0d7 fb3d a192 a2bd 7eb6 c63d e114 833e
00000160: 06cd 143e 6491 73be aab0 843e 9fb6 8fbd
00000170: 07fa f6bd f3a1 633e 8ad0 e4bd 8364 3dbe
00000180: 45a6 0c3e ee7e 4c3d ab65 95bd 1a49 fdbd
00000190: 83c4 16be aa2b efbc e776 06be 4549 343e
000001a0: f264 58be 7446 8f3c b433 0abe 21b2 72bd
000001b0: 7b27 18bd 09b6 5e3e 1892 de3d 8dd9 58be
000001c0: 2b0c 1dbe 5801 3a3e 76ef 493e c2a7 363e
000001d0: 1ee4 27be 8624 56bb cd50 313e cc1e 80bd
000001e0: cffd 6e3e 40d5 8fbe 056e 6bbe 8074 09be
000001f0: 5ec0 0bbc a1c8 0e3e d025 08be 2a1c a6bd
00000200: 2dc0 cfbc 15e0 65be 2d93 4f3e 5532 903d
00000210: 2d1d f33d 0a20 3d3e ac47 8a3e cfd7 cf3d
00000220: 515f 043d 05ca 1fbe 8aec 11bd dd37 973c
00000230: e79e d9bc 320b 56be c60c 5fbd 7783 9cbd
00000240: 7c91 e93d a543 58be a583 313c 8fb6 16be
00000250: 507b 3dbe c40c f23d be47 dd3d bdb4 043e
00000260: c69c 903d 673e 863e a24b 5bbd b648 5c3c
00000270: 3420 6c3d e013 fb3d e52d 20be 72d6 12bb
00000280: ec51 35be 37f0 4d3e afb8 a23d 84bd e93d
00000290: 9867 0d3e d96f 003e 2cd6 d5bd de6e bc3d
000002a0: 939e 48be 6cd4 35be 2cf7 3abe 0dec 4d3e
000002b0: 8bcd 03be 68e4 07be 2db9 4a3e 08d1 e63c
000002c0: 9949 2cbe 319d 4f3e 5363 c2bc 2f8d 583e
000002d0: 4a26 223e a51c 263e 8d12 07be 813b b9bc
000002e0: 6c33 163e 9820 29bb d330 dc3d 2720 6abe
000002f0: 7e82 4bbe 9877 023e 3dfa fbbc b167 913d
00000300: 4dad 4d3e a0a8 ee3d b3d7 11be d135 a93d
00000310: dc68 b53d e878 1ebe b601 053e 992a cabc
00000320: 90b6 d93d 1dd5 2e3e 64d5 0b3e af85 04be
00000330: a1b0 8abd 212f 4b3d fd9e 13be 4d3c c9bd
00000340: d5f9 0f3e b63a 1dbd cb2d 613e 8c3a 0fbe
00000350: fc92 3aba 7f41 b53c 46b8 3a3d 6a82 69be
00000360: 1669 323e 9473 27be a6ff ddbd 29dd f9bd
00000370: b171 abbd 3622 b4bd 7d9d 323e 12e1 32bd
00000380: 6877 e93c cbeb acbd b91d 1d3d 9e40 55be
00000390: 592b b8bc b7b0 f9bd eb8f b53d 3126 8c3c
000003a0: 0864 0fbe ca01 bb3d 517f 3ebd 1f12 f0bd
000003b0: f502 233e e986 2cbe 8fa5 cdbd 0620 1dbe
000003c0: 3a5b 20be 47a5 fdbd 54f4 5dbe b88b 833d
000003d0: 59db a4bc b17c 8abc 5c2a 0ebe 9ae2 e4bd
000003e0: bd10 693a 201a b9bd 17e2 03bd 43b8 da3c
000003f0: b7a0 7abe 81a9 10be ef94 123d 1f18 e6bd
-0.13267058 -0.16433756 0.14407617 -0.18401836 0.174915 -0.074952014 -0.11128413 -0.12754546
0.06454543 0.14247781 0.06261211 0.08331647 0.11146875 0.08783423 0.16443501 0.20143355
0.028774241 0.14315638 -0.1920299 0.2557737 -0.22732706 -0.10854633 -0.04521172 0.20924592
0.19098905 -0.17580102 0.14546806 0.1497756 0.09820898 -0.008960388 0.06677053 -0.05687758
0.185673 -0.0018723644 0.09991678 0.015877109 0.012228509 -0.1433873 0.005686773 0.1060203
-0.1272744 -0.083333075 -0.09164848 0.04450878 -0.11799734 -0.0864704 0.13242324 0.08407524
-0.16896404 -0.043334268 0.014602036 -0.03778834 -0.24364614 0.15500279 0.11529052 -0.18807524
-0.123240516 -0.2068954 -0.17473556 -0.1733545 -0.13936651 -0.09382978 -0.032779936 -0.10575859
-0.016189504 -0.058338955 0.20277815 -0.16917484 -0.035997853 -0.13861156 0.03365296 0.048826054
-0.14932461 0.008354129 -0.16240372 -0.1792972 0.084885105 -0.09674929 -0.047648538 0.15290616
0.029762916 -0.20570327 0.032613117 0.01823714 0.12297022 -0.079381235 0.09702776 0.25601867
0.14531335 -0.23785931 0.25916034 -0.07017254 -0.12059408 0.22229747 -0.11172588 -0.18495373
0.13735302 0.049925737 -0.07294782 -0.12367459 -0.14723401 -0.029195625 -0.13131295 0.17606075
-0.21132258 0.01748965 -0.13496286 -0.05925191 -0.037147027 0.21749128 0.10867709 -0.21176739
-0.15336673 0.18164575 0.19720253 0.17837432 -0.16395614 -0.0032675578 0.1731598 -0.06255874
0.23339008 -0.28092384 -0.22991188 -0.13423347 -0.008529751 0.13943721 -0.13295674 -0.081108406
-0.025360191 -0.22448762 0.20270987 0.0704085 0.11870799 0.18469253 0.27007806 0.10148584
0.032317463 -0.15604408 -0.03562597 0.018459255 -0.026565028 -0.20902708 -0.05445554 -0.076422624
0.11404702 -0.21119554 0.010834609 -0.14718078 -0.18504071 0.11818841 0.10804699 0.12959571
0.07061152 0.26219484 -0.053538926 0.01344507 0.0576479 0.1225965 -0.15642507 -0.0022405651
-0.17707032 0.20111166 0.07945382 0.114131 0.13809049 0.12542666 -0.10441241 0.09200834
-0.19591741 -0.17756814 -0.18258351 0.20109577 -0.12871377 -0.13270724 0.19797201 0.028175846
-0.1682495 0.20274808 -0.023729002 0.21147607 0.15834919 0.16221865 -0.1319067 -0.022611381
0.14668053 -0.002580678 0.107515 -0.22863828 -0.19873998 0.12740934 -0.030758971 0.07099856
0.2008564 0.116532564 -0.14242439 0.08262218 0.08857891 -0.1547581 0.12988934 -0.024678515
0.10630524 0.17073484 0.13655621 -0.12941621 -0.067719705 0.049605493 -0.14416118 -0.098259546
0.14060147 -0.03838607 0.21990125 -0.13987178 -0.00071172393 0.022125958 0.045585893 -0.22803655
0.174229 -0.16352683 -0.10839777 -0.12200386 -0.08371294 -0.08795588 0.1744289 -0.043671675
0.02849932 -0.084434114 0.038358424 -0.20825431 -0.022481607 -0.12191909 0.08865341 0.017108055
-0.14003003 0.091312006 -0.046508137 -0.11722206 0.15919097 -0.16848339 -0.100413434 -0.15344247
-0.156598 -0.1238504 -0.21675235 0.064231336 -0.020124124 -0.01690516 -0.13883346 -0.11176033
0.0008890739 -0.09038186 -0.032198038 0.026699191 -0.2447537 -0.1412716 0.035786565 -0.112350695

bias_ih_l0 f4 [80]
00000000: 54eb c0bd ae85 3abe 3871 c7bd bb39 963c
00000010: 1174 01be a703 5a3e 252c bd3d 7d1d 86be
00000020: fe37 063d 358f 3c3e 3fac d8bd ea16 533e
00000030: 9661 44be 3eee d93c 1dba 08bc 478a fa3d
00000040: 7790 9c3c 24ba 39be de24 febd b804 f6bd
00000050: 1753 1bbe 4e9d 80bd 44cc 1abd 6255 e63d
00000060: cd30 2f3d eecd 1bbe 0fc8 71bd 27af 04be
00000070: 88a5 193c 2baa 29be fefc 1bbe 70eb 093e
00000080: db22 24be cb72 3e3e 99c1 583e a278 1ebe
00000090: 069f 36be bef0 363e 2564 fa3d a69b 68be
000000a0: 4a9f 75be 8599 13be 760d 393e 8781 a33d
000000b0: 6942 45be 555a f93d 2beb da3d 9982 29be
000000c0: d050 073e f67e 823e 45e8 37be 3f16 ad3d
000000d0: c81e f5bc 5980 44be cde1 a0bd 3f92 493e
000000e0: 3b7a a03d 14ae 843c 15dc d7bd dc9c 033e
000000f0: 48ad cfbb 305f cbbc d4bf c0bc 29ae 703d
00000100: fb67 c2bc 4dd3 c83b 266c 81be 3e40 1cbe
00000110: 8962 a93c f2fe 6abd 3a03 3dbe 0750 47be
00000120: 31c9 fe3d 1ff5 12be e58c af3d 79f5 19bd
00000130: ce7d cf3d e252 30be 871b d03d de77 ba3d
-0.09419885 -0.18215057 -0.09738392 0.018338075 -0.12641932 0.21290456 0.092369355 -0.26194373
0.032768242 0.18414004 -0.10579728 0.2061421 -0.19177851 0.02660286 -0.008345154 0.122334056
0.019111855 -0.18137413 -0.124093756 -0.12012619 -0.15168415 -0.062800035 -0.03779246 0.11246754
0.04277115 -0.15215275 -0.05902868 -0.1295744 0.009377845 -0.1656882 -0.15233228 0.13468719
-0.16028921 0.18598478 0.21167602 -0.15475705 -0.178341 0.17865273 0.12226132 -0.22715625
-0.23986545 -0.14414032 0.18071541 0.0798369 -0.19263615 0.121754326 0.10689386 -0.16553725
0.13214421 0.25487489 -0.17959698 0.08451509 -0.029921904 -0.19189586 -0.07855568 0.19684695
0.078358136 0.016196288 -0.10540024 0.12852806 -0.0063377954 -0.024825662 -0.02352897 0.058759842
-0.023731222 0.0061287046 -0.25277823 -0.15258881 0.020676868 -0.05737204 -0.18458262 -0.19464122
0.12440718 -0.14351319 0.085717954 -0.037587617 0.10131417 -0.17219117 0.101615004 0.09104894

bias_hh_l0 f4 [80]
00000000: e6ef 2abe 843b 1ebe d62a 4d3d afd3 0b3c
00000010: 9cd8 d23d fd9a 333e a15f 43be 6c69 1a3d
00000020: e59b 37be f174 333e 3c78 a7bd c8e0 ef3d
00000030: 6ca3 3bbe 9ed5 1bbe d0d7 8f3b db93 14be
00000040: 8585 aa3d c325 18bd 70d5 ae3d d1c8 2dbe
00000050: 1196 0a3e 1e3a 0cbe d98c 90bb a9ac 3fbe
00000060: 7f4b db3d 5e4f 77be 52ba 76be d14a f63c
00000070: 4f41 973d e47b 79bd a273 e73d e6e0 4f3e
00000080: 410e 153e 2bd4 0ebe 523f aa3d a625 27be
00000090: c8b3 083d f227 923d 9c1b da3d f08b 16be
000000a0: 827e 063e 0335 1e3e 5944 0bbd 31f6 30be
000000b0: 49ba 1c3e 5fdc 18be 0323 a93d 5310 1fbe
000000c0: b665 0fbd cc31 0d3e 423f 60bd 43c5 73be
000000d0: 45b1 4a3e 37e0 1fbe 5de7 96bd 2df9 4b3d
000000e0: 26db e8bd d6a4 3e3e e9ec 65be 6cfb bd3d
000000f0: 976e 4b3e 8644 8fbd 7378 fe3d fb15 083e
00000100: eed6 5cbe a17f d5bd b3bc 4dbe 7cd5 4ebd
00000110: efc1 8fbd 8c8e 733e f8f5 44be 09eb 61bd
00000120: abd7 cfbd 123f ebbd 99b1 ffbb ee98 2bbe
00000130: c161 18be 6f74 43bd 8c5c e83c f6ef 1c3d
-0.16693076 -0.15452391 0.05008968 0.008534356 0.10295221 0.17539592 -0.19079448 0.037698194
-0.17930563 0.17525078 -0.0817723 0.117127955 -0.18324059 -0.15218207 0.0043897405 -0.14509527
0.08326248 -0.037145387 0.08536804 -0.16971137 0.13533808 -0.13694045 -0.0044113216 -0.18718208
0.10707759 -0.2415137 -0.24094513 0.030064972 0.073855035 -0.060909167 0.11301352 0.20300636
0.14556219 -0.13948123 0.08312859 -0.16322955 0.033374578 0.07136525 0.10649797 -0.1470182
0.13134196 0.1544991 -0.03400073 -0.17281415 0.15305437 -0.14927815 0.08258631 -0.15533571
-0.03500911 0.13788527 -0.054747827 -0.23805718 0.19794185 -0.15612875 -0.07368348 0.04979818
-0.11369924 0.18617567 -0.22453655 0.092764705 0.19866405 -0.06995492 0.124253176 0.13289635
-0.21566364 -0.10424734 -0.20091514 -0.050496563 -0.07019412 0.23784846 -0.19234455 -0.055155788
-0.10148557 -0.11486639 -0.0078031537 -0.16757557 -0.1488104 -0.04771846 0.028364442 0.038314782

weight f4 [1, 20]
00000000: 3eb0 6abe 8f2b 3b3e 5390 de3d 5169 77be
00000010: 421e fcbc 399f c53d 9e4a b7bd 6432 313e
00000020: ec10 513e 2a83 3f3e d7e0 29be 2336 babd
00000030: e373 543e bfa8 a1bd e329 75bc d01a 0e3e
00000040: 49b3 4dbe a7fb b03c 88bb 20bc fc26 4cba
-0.22918794 0.18278335 0.108673714 -0.24161269 -0.030776147 0.0964951 -0.08949779 0.17304379
0.20416611 0.18702379 -0.16589676 -0.09092357 0.20747332 -0.07893514 -0.0149636 0.13877416
-0.20087923 0.021604372 -0.009810336 -0.00077877915

hidden_cell f4 [1, 1, 20]
00000000: b755 c8bd 4066 633d 4b14 613d f4ca a2bd
00000010: 6344 38bd 3efe 32bd d150 363d 0c9e c1bd
00000020: 888d 4b3d 695f 9b3e 8043 08be ac39 f8bd
00000030: 7975 dc3d bdb4 0bbe aca3 b0bd e0a2 e73d
00000040: 8b99 b9bc ca10 943d 6870 24be c62e 053d
-0.09781974 0.055517435 0.054950994 -0.079488665 -0.044987094 -0.043699495 0.044510666 -0.09453973
0.04969552 0.3034623 -0.13306999 -0.12120375 0.10764594 -0.13643165 -0.08624968 0.11310363
-0.022656223 0.07229765 -0.16058505 0.03251531

hidden_cell f4 [1, 1, 20]
00000000: 2397 32be 5931 e93d d8dd d63d beee 14be
00000010: f2d7 e2bd 3f7b b2bd cec8 003e 4525 7abe
00000020: 9d4a d33d 2d86 1b3f 079e b5be b487 98be
00000030: 6245 693e c6ad acbe 3d7f 29be 46fe 873e
00000040: 756d 34bd ea1d 2a3e 30f4 9cbe 8407 803d
-0.17440467 0.113863654 0.10491532 -0.14544198 -0.110763445 -0.087149136 0.12576601 -0.2442828
0.10316966 0.6075161 -0.35472128 -0.29791033 0.22780374 -0.3372633 -0.16552444 0.26561183
-0.0440497 0.16612974 -0.3065505 0.062514335
