mlruns/0/d3ff183b76974fdc837a629bedcbcdb2/artifacts/model/data/model.pth (torch, 14056 bytes, 7 tensors)

weight_ih_l0 f4 [80, 1]
0.075536996 0.06125349 0.42115283 0.28734612 0.070538834 0.45260486 -0.16465807 0.428145
0.42777178 -0.20597266 -0.22320096 0.02008848 0.37244782 0.42196476 0.4842962 0.29152265
0.426377 0.10259441 0.43340352 0.027958147 0.25025648 0.34103027 0.23566416 -0.14769363
-0.042916175 0.31144458 -0.2510996 -0.07928783 0.25954765 0.12920839 -0.27702928 -0.079684965
-0.2770845 0.19333789 0.15835091 0.052406937 -0.025862908 0.33166403 0.10383512 -0.029525554
0.22190918 -0.08173051 0.09413243 -0.4438734 0.42219478 0.40374562 0.12046732 0.42786813
-0.5726365 0.029077357 0.16651575 -0.3884972 -0.54059803 0.39000514 -0.46201313 0.18306388
0.37958166 -0.42376214 -0.60224324 0.22734597 -0.0008177892 0.25286153 0.4445449 0.50224286
0.4049751 0.3809051 -0.16788262 0.39388332 0.57354075 0.111953214 0.108238846 0.057326186
0.058141835 0.21954313 0.33310023 0.16423777 0.35387167 0.307931 0.25617293 -0.111107685
00000000: 24b3 9a3d f1e4 7a3d 58a1 d73e 081f 933e
00000010: aa76 903d d3bb e73e 209c 28be d235 db3e
00000020: e704 db3e 7fea 52be cb8e 64be 9990 a43c
00000030: 7bb1 be3e c40b d83e acf5 f73e 7542 953e
00000040: 164e da3e 051d d23d 11e7 dd3e 7c08 e53c
00000050: 9e21 803e 859b ae3e f251 713e 003d 17be
00000060: dfc8 2fbd aa75 9f3e 2090 80be a861 a2bd
00000070: 6ee3 843e 344f 043e c8d6 8dbe df31 a3bd
00000080: 05de 8dbe 5efa 453e be26 223e a8a8 563d
00000090: 73de d3bc decf a93e 82a7 d43d 93df f1bc
000000a0: 293c 633e 5362 a7bd 81c8 c03d 6043 e3be
000000b0: ea29 d83e bfb7 ce3e 92b7 f63d 8811 db3e
000000c0: 4e98 12bf a333 ee3c 1b83 2a3e 1be9 c6be
000000d0: a264 0abf c1ae c73e fc8c ecbe 1975 3b3e
000000e0: 8758 c23e 5af7 d8be 9d2c 1abf 62cd 683e
000000f0: e760 56ba 1177 813e 649b e33e fd92 003f
00000100: e558 cf3e fe05 c33e 6ce9 2bbe 13ab c93e
00000110: 91d3 123f ba47 e53d 54ac dd3d ddce 6a3d
00000120: 2226 6e3d eacf 603e 1d8c aa3e f22d 283e
00000130: ab2e b53e 22a9 9d3e 1929 833e 6d8c e3bd

weight_hh_l0 f4 [80, 20]
-0.10201295 0.08152843 0.15515125 0.052084304 0.122646846 -0.3390718 -0.08376892 -0.14651296
0.009706161 -0.21688573 0.0985542 0.209508 -0.05705782 0.080251135 0.011640616 -0.13944833
-0.30686608 0.051204436 0.30033174 -0.18888015 -0.23488411 0.26617613 -0.18617679 0.13016397
0.13960192 -0.1180389 -0.0041642976 -0.16677295 0.20460452 -0.10747214 -0.14474773 0.22169636
0.03482412 -0.02566337 0.116320685 -0.007864615 -0.23733795 -0.10435808 0.10356767 0.08983616
0.17007135 0.2851786 0.113369524 0.0806286 0.1538059 0.100953475 0.115804024 -0.07446273
0.037339013 -0.10407025 0.14918335 -0.061917007 -0.1446667 -0.10230287 -0.084098324 0.15764487
-0.0022446425 0.22863923 -0.2311405 0.16045046 0.1249807 -0.4090936 0.2129317 -0.15533744
-0.15691684 0.081659295 -0.33225563 -0.29195052 0.14806263 -0.13773316 -0.035169333 0.16595416
0.21319321 0.03271178 -0.19583344 0.23295157 0.29650646 -0.15600063 0.14522019 -0.18040971
0.22982922 -0.25618002 0.1720499 0.16441049 0.15012859 0.07835845 -0.07631982 -0.11634783
0.33561876 -0.25301293 0.22698097 0.31376582 0.16020332 0.19112793 -0.17779003 -0.05065
0.16308394 0.15655352 0.09671981 -0.08076466 0.08285008 -0.28883874 0.23123947 -0.07305611
0.23504089 -0.0018563169 -0.27807364 -0.13744 0.15811095 0.015371039 0.16679198 -0.01609831
0.023932237 0.094754525 -0.32709166 0.48577917 0.39708033 -0.3365335 -0.04162984 -0.18723378
0.094896644 0.158617 -0.29648343 -0.12129823 -0.20011629 -0.006212045 0.07659837 0.04867408
0.1951215 0.22936863 0.06641821 -0.13660799 -0.04935858 -0.067603655 0.2353409 -0.30115482
-0.093383096 0.14956455 0.16096145 0.1994527 0.3809573 -0.22365086 0.120887846 0.06600345
0.09752411 -0.0059569306 -0.05614518 -0.016973652 -0.052024636 -0.001472744 -0.02151707 -0.123315
0.13535644 0.27699602 -0.094967134 0.1720447 0.19915132 -0.18619305 -0.16414836 0.119830884
0.517607 -0.48343194 0.21251911 0.12366223 0.21667647 0.27937722 -0.07681823 -0.07330325
0.14221738 -0.24740277 0.19089341 -0.032551903 -0.106662415 0.21572694 -0.3124716 0.6398975
0.46375394 -0.29105723 -0.03121082 -0.15225509 -0.249395 0.13555948 -0.09543148 -0.102634914
0.0957954 -0.0861428 -0.030768387 0.24167208 -0.24899952 -0.080226704 -0.058893695 0.007369855
-0.17711839 -0.1765902 -0.0161865 0.051442105 0.18554688 -0.0015513956 0.122447714 0.11179169
-0.019915638 -0.08246667 0.02738398 0.087747514 -0.33285528 -0.3085264 0.16063619 -0.15765853
-8.068094e-05 0.10929554 0.0899964 0.23047405 -0.044609588 -0.16865683 -0.010644699 -0.29863247
-0.10621635 -0.011571433 -0.09589978 0.15526365 -0.1151375 -0.049481887 -0.14932218 -0.12463143
-0.0762038 0.008066309 0.21427307 0.014807686 0.1270413 -0.20612615 0.20428315 0.076615915
0.2588714 -0.022659646 -0.050226204 -0.13964313 -0.15598986 -0.1262995 0.05504148 -0.048460122
-0.030769125 -0.07316105 0.019551348 -0.0374835 -0.26509827 -0.14235441 -0.16493805 0.037185397
0.250424 -0.21785446 0.08544935 0.07287403 0.18425462 0.12407435 -0.05708148 0.24077304
00000000: 2aec d0bd 61f8 a63d f8df 1e3e 5a56 553d
00000010: 452e fb3d d29a adbe 0a8f abbd 7e07 16be
00000020: 9706 1f3c 4b17 5ebe c9d6 c93d 4489 563e
00000030: 76b5 69bd b55a a43d 48b8 3e3c 8bcb 0ebe
00000040: 8d1d 9dbe bebb 513d 15c5 993e cc69 41be
00000050: 7685 70be 3d48 883e 21a5 3ebe b449 053e
00000060: cef3 0e3e 61be f1bd a974 88bb 87c6 2abe
00000070: d983 513e 5a1a dcbd c038 14be 5f04 633e
00000080: bda3 0e3d fd3b d2bc 8a39 ee3d 96da 00bc
00000090: b808 73be b0b9 d5bd 491b d43d 05fc b73d
000000a0: 2f27 2e3e ee02 923e 482e e83d 9c20 a53d
000000b0: 4b7f 1d3e b2c0 ce3d a92a ed3d ea7f 98bd
000000c0: cbf0 183d c922 d5bd 85c3 183e b09c 7dbd
000000d0: 8223 14be 2b84 d1bd be3b acbd a86d 213e
000000e0: da1a 13bb 6720 6a3e 18b0 6cbe 204d 243e
000000f0: e2f5 ff3d b774 d1be c40a 5a3e c710 1fbe
00000100: cfae 20be fd3c a73d 691d aabe 8a7a 95be
00000110: bb9d 173e ec09 0dbe b80d 10bd e3ef 293e
00000120: 524f 5a3e cafc 053d 9088 48be db8a 6e3e
00000130: b2cf 973e a1be 1fbe 9ab4 143e 53bd 38be
00000140: 5a58 6b3e 072a 83be d92d 303e 395b 283e
00000150: 4fbb 193e 657a a03d 914d 9cbd c547 eebd
00000160: 39d6 ab3e e98a 81be b36d 683e eaa5 a03e
00000170: 570c 243e 0ab7 433e 970e 36be 6076 4fbd
00000180: 7aff 263e 914f 203e 0915 c63d f167 a5bd
00000190: 4ead a93d ace2 93be 0aca 6c3e 719e 95bd
000001a0: 8fae 703e a94f f3ba ab5f 8ebe 12bd 0cbe
000001b0: d6e7 213e cfd6 7b3c 84cb 2a3e 9ae0 83bc
000001c0: 8a0d c43c a90e c23d 8f78 a7be 0cb8 f83e
000001d0: 1d4e cb3e 1e4e acbe 0d84 2abd 36ba 3fbe
000001e0: 2c59 c23d 7f6c 223e adcc 97be 356b f8bd
000001f0: 49eb 4cbe 698e cbbb 9bdf 9c3d 795e 473d
00000200: eecd 473e 9cdf 6a3e 4506 883d f7e2 0bbe
00000210: 392c 4abd c973 8abd 34fd 703e f730 9abe
00000220: a33f bfbd 7327 193e 14d3 243e 543d 4c3e
00000230: d60c c33e bb04 65be 0c94 f73d d12c 873d
00000240: b8ba c73d 5b32 c3bb 7df8 65bd 540c 8bbc
00000250: c917 55bd 1709 c1ba 9144 b0bc 938c fcbd
00000260: e19a 0a3e 6cd2 8d3e 217e c2bd 7c2c 303e
00000270: 53ee 4b3e 64a9 3ebe 8216 28be e569 f53d
00000280: e481 043f 6484 f7be 9c9e 593e a042 fd3d
00000290: 70e0 5d3e 880a 8f3e e052 9dbd 0420 96bd
000002a0: 6fa1 113e 2757 7dbe 9079 433e 2555 05bd
000002b0: d371 dabd 86e7 5c3e 47fc 9fbe 53d0 233f
000002c0: 2871 ed3e 7405 95be d5ad ffbc c2e8 1bbe
000002d0: 6761 7fbe 1bd0 0a3e 9471 c3bd 4132 d2bd
000002e0: 6130 c43d a36b b0bd fc0d fcbc e378 773e
000002f0: bbf9 7ebe e64d a4bd 843a 71bd d37e f13b
00000300: 865e 35be 10d4 34be 8d99 84bc f5b4 523d
00000310: 0000 3e3e 3358 cbba dec5 fa3d 0bf3 e43d
00000320: 1f26 a3bc 49e4 a8bd 5e54 e03c f8b4 b33d
00000330: 026c aabe 2cf7 9dbe d07d 243e 3d71 21be
00000340: 4033 a9b8 57d6 df3d 0850 b83d 6401 6c3e
00000350: 8bb8 36bd 60b4 2cbe 1b67 2ebc 5be6 98be
00000360: f587 d9bd 1c96 3dbc 1b67 c4bd 6ffd 1e3e
00000370: 36cd ebbd 85ad 4abd eae7 18be c33e ffbd
00000380: bd10 9cbd 8d28 043c 666a 5b3e f09b 723c
00000390: 1d17 023e bc12 53be 9a2f 513e cee8 9c3d
000003a0: cb8a 843e b9a0 b9bc feb9 4dbd 9cfe 0ebe
000003b0: cebb 1fbe a854 01be 2d73 613d 1f7e 46bd
000003c0: 880f fcbc 76d5 95bd 262a a03c 4c88 19bd
000003d0: f6ba 87be 5bc5 11be 85e5 28be b74f 183d
000003e0: 9337 803e 3d15 5fbe 1200 af3d fb3e 953d
000003f0: 3ead 3c3e b11a fe3d 45ce 69bd 358d 763e

bias_ih_l0 f4 [80]
0.06610793 -0.09918309 -0.043796223 0.20796572 0.3073961 0.39678484 -0.086038716 0.484469
0.38585547 -0.19192328 -0.28252617 0.07163134 0.44919148 0.09401462 0.0028441781 0.1697697
0.077149265 0.081505746 0.527291 -0.15461949 -0.25397307 0.11685997 -0.22994429 -0.06599211
0.024299514 -0.27417707 0.059050377 0.16655344 0.048402093 0.08334057 0.014821909 -0.22676006
-0.14398767 0.046942037 -0.067114696 -0.22971913 0.07426542 0.24267302 -0.17893203 -0.17893533
0.02540713 -0.0808821 0.15177484 0.10636202 -0.1659274 0.026384398 0.13643566 -0.23225395
0.21631406 -0.007952728 0.04544208 0.102191284 0.13078573 0.027166607 0.03605905 0.14913905
0.11027692 0.026720462 0.11943172 -0.16271186 0.057992354 -0.16335131 -0.1265631 0.2309536
0.1247517 0.27527133 -0.31693256 0.3457164 0.3527626 -0.16034092 -0.21653658 0.16668414
0.30869955 -0.13625407 0.028613642 0.15261278 0.115452915 0.19664088 0.3594016 0.15535557
00000000: 9863 873d 8120 cbbd ab63 33bd f7f4 543e
00000010: 0663 9d3e 6227 cb3e 1135 b0bd 520c f83e
00000020: d98e c53e 8987 44be 45a7 90be 74b3 923d
00000030: 6dfc e53e bd8a c03d 6465 3a3b 1cd8 2d3e
00000040: 6f00 9e3d 7cec a63d 8bfc 063f 9254 1ebe
00000050: c208 82be 4854 ef3d 8476 6bbe df26 87bd
00000060: c60f c73c f060 8cbe cfde 713d fc8c 2a3e
00000070: 4641 463d 76ae aa3d 98d7 723c ca33 68be
00000080: 8171 13be 4b46 403d 6e73 89bd 7e3b 6bbe
00000090: 7818 983d 477f 783e f539 37be d33a 37be
000000a0: 9d22 d03c 84a5 a5bd dd6a 1b3e 55d4 d93d
000000b0: dfe8 29be 1824 d83c cab5 0b3e fbd3 6dbe
000000c0: 6f81 5d3e 294c 02bc 7921 3a3d aa49 d13d
000000d0: b2ec 053e 818c de3c a8b2 133d e8b7 183e
000000e0: ded8 e13d dfe4 da3c 9e98 f43d f09d 26be
000000f0: 6489 6d3d 9145 27be c299 01be 1a7f 6c3e
00000100: d27d ff3d 5df0 8c3e fc44 a2be bd01 b13e
00000110: 4d9d b43e 6930 24be c4bb 5dbe 3faf 2a3e
00000120: de0d 9e3e 3086 0bbe 2867 ea3c 8646 1c3e
00000130: 9472 ec3d 3a5c 493e 7d03 b83e 8815 1f3e

bias_hh_l0 f4 [80]
-0.20766348 -0.23137178 0.12691061 0.41888145 0.11194596 0.45811126 -0.25895518 0.13579983
0.5374155 -0.06558015 -0.28994957 -0.09608609 0.32348934 0.19880316 0.115338005 0.00795725
0.08842527 0.23967913 0.17928314 0.121150605 -0.13457137 -0.11733392 -0.17299935 -0.3157457
-0.2076658 -0.07059938 -0.01549107 -0.11559111 0.32377115 -0.26946253 -0.3322911 0.108867556
-0.17909272 -0.24021368 0.22823472 0.015048113 -0.27019763 -0.1680608 -0.12695996 0.05873705
0.09896076 -0.09232156 0.18503742 0.03911407 0.0589647 -0.0914726 -0.17197499 0.15997167
0.057303682 -0.056200597 -0.025349995 -0.036966305 0.078097865 -0.018163519 0.03731323 0.02782213
-0.18652254 0.06987679 0.09973183 0.00764197 0.062394924 0.047106408 0.15825729 0.26508325
0.32329744 0.5494092 -0.1825967 0.49996594 0.5504971 -0.24220254 0.11308385 0.26166606
0.35056883 0.08584579 -0.020295 -0.12108165 0.0800861 0.03140731 0.19818807 -0.11925751
00000000: bca5 54be b9ec 6cbe dbf4 013e a177 d63e
00000010: ec43 e53d 8f8d ea3e c695 84be 1c0f 0b3e
00000020: 1094 093f e34e 86bd 4574 94be c9c8 c4bd
00000030: 65a0 a53e 0e93 4b3e 5536 ec3d 205f 023c
00000040: 4f18 b53d 726e 753e 0096 373e cf1d f83d
00000050: 14cd 09be c44c f0bd be26 31be 6ca9 a1be
00000060: 58a6 54be 6896 90bd 42ce 7dbc 08bb ecbd
00000070: 55c5 a53e fef6 89be 0f22 aabe f4f5 de3d
00000080: 1564 37be 93fa 75be 5db6 693e 5c8c 763c
00000090: 5857 8abe 2118 2cbe cb01 02be 4396 703d
000000a0: f0ab ca3d 1613 bdbd 737a 3d3e 1336 203d
000000b0: f884 713d fd55 bbbd 361a 30be 9dcf 233e
000000c0: 44b7 6a3d 9932 66bd cbaa cfbc fb69 17bd
000000d0: c6f1 9f3d a9cb 94bc c2d5 183d 3ceb e33c
000000e0: c4ff 3ebe 901b 8f3d 3440 cc3d 7e69 fa3b
000000f0: d291 7f3d a6f2 403d 330e 223e feb8 873e
00000100: 3e87 a53e 15a6 0c3f a1fa 3abe 89fb ff3e
00000110: 61ed 0c3f f103 78be 8198 e73d 18f9 853e
00000120: c27d b33e ebcf af3d b341 a6bc a8f9 f7bd
00000130: 2e04 a43d f4a4 003d d0f1 4a3e 483d f4bd

weight f4 [1, 20]
0.05094493 -0.15358444 0.14643204 -0.2297799 0.32531297 0.53946036 0.027539376 0.3027645
-0.21389326 0.024469547 0.025570689 -0.101967245 -0.20121928 0.26642188 -0.37565315 0.17877468
0.28913638 -0.27522424 -0.20609275 0.105413854
00000000: a2ab 503d 3d45 1dbe 48f2 153e 6c4b 6bbe
00000010: 6c8f a63e 131a 0a3f 429a e13c f303 9b3e
00000020: d606 5bbe 5c74 c83c 9f79 d13c 34d4 d0bd
00000030: 6d0c 4ebe 7368 883e 9c55 c0be b610 373e
00000040: af09 943e 31ea 8cbe fa09 53be 38e3 d73d

hidden_cell f4 [1, 1, 20]
0.051112596 -0.06310169 0.10622704 0.0078943595 -0.020413013 0.048594687 0.0005315763 0.08499828
0.43088257 -0.030488709 -0.026011718 0.10080867 0.087742485 0.077244274 -0.03655079 0.10759694
-0.026996585 -0.089897014 0.12052813 -0.023143003
00000000: 715b 513d 753b 81bd 908d d93d 5857 013c
00000010: 3139 a7bc 390b 473d 7b59 0b3a 9413 ae3d
00000020: a49c dc3e 75c3 f9bc 8716 d5bc c774 ce3d
00000030: 55b2 b33d 3f32 9e3d 48b6 15bd c95b dc3d
00000040: f127 ddbc ed1b b8bd 74d7 f63d 6596 bdbc

hidden_cell f4 [1, 1, 20]
0.09856256 -0.12924504 0.21112515 0.012021953 -0.030246988 0.06729373 0.0014471998 0.11657998
0.63388985 -0.08400422 -0.053536065 0.16905972 0.12786314 0.14598997 -0.06515138 0.207903
-0.043172866 -0.15201867 0.17828418 -0.046934914
00000000: 2bdb c93d d058 04be 3131 583e baf7 443c
00000010: 88c8 f7bc 4cd1 893d f8af bd3a 7cc1 ee3d
00000020: 9b46 223f 680a acbd a248 5bbd fe1d 2d3e
00000030: 8eee 023e 657e 153e 166e 85bd 86e4 543e
00000040: 08d6 30bd c8aa 1bbe 2190 363e d33e 40bd
