mlruns/0/919f8f6f5ae74d1ba9b68ebe3b684670/artifacts/model/data/model.pth (torch, 14120 bytes, 7 tensors)

weight_ih_l0 f4 [80, 1]
0	0x3d898c0b	0.06716164
1	0x3c997e37	0.018736942
2	0x3e45830f	0.19288276
3	0x3d92d037	0.0716862
4	0xbeac0c07	-0.33602926
5	0x3ea2b202	0.31776434
6	0x3daceb13	0.08443274
7	0x3ea2a413	0.31765804
8	0x3e96cd8c	0.29453695
9	0x3ec116b3	0.3771263
10	0x3ee0ec78	0.4393041
11	0x3dcd56f4	0.100263506
12	0xbe125f3b	-0.1429414
13	0x3e1e146a	0.15437475
14	0xbe747789	-0.23873724
15	0x3ea31a3f	0.31855962
16	0x3ed66976	0.41877335
17	0x3d4875f7	0.048940625
18	0x3ef9aac0	0.48763084
19	0x3e2a2e82	0.16619304
20	0xbd2af2d2	-0.041735478
21	0x3e0b1d0f	0.13585304
22	0xbd2d269f	-0.04227316
23	0xbe98d998	-0.2985351
24	0xbe917c51	-0.28415158
25	0xbe011c99	-0.12608565
26	0x3c1c0cd9	0.0095245475
27	0x3de4eeac	0.111783355
28	0x3e593ddf	0.21215008
29	0x3eb45d6b	0.35227522
30	0x3d379c87	0.04482701
31	0x3e824dda	0.2545002
32	0xbf0ab63b	-0.5418431
33	0x3e5d786b	0.21627967
34	0xbf3e7f02	-0.7441255
35	0x3d8632a9	0.065526314
36	0x3d85f232	0.06540336
37	0xbdc24ff1	-0.09487904
38	0xbe9b0862	-0.30279833
39	0xbd7643c9	-0.06012324
40	0x3eaeabe9	0.34115532
41	0xbe137a6a	-0.14402166
42	0xbebc013a	-0.36719686
43	0xbe8dbc76	-0.27682847
44	0xbca14bd1	-0.019689472
45	0x3ede04c9	0.43363026
46	0xba9aa80b	-0.0011799348
47	0xbe5769a1	-0.21036388
48	0xbc24d859	-0.010061347
49	0xbeb43a96	-0.35200948
50	0xbf0cbbaf	-0.5497388
51	0xbcf0f461	-0.029413404
52	0x3f11340a	0.5672003
53	0x3c4a9e67	0.012366868
54	0x3f01d544	0.5071604
55	0xbedd45a9	-0.4321721
56	0xbeed9558	-0.46403003
57	0xbdfaf34d	-0.12253437
58	0x3f16ba0d	0.5887764
59	0x3f3c2c57	0.7350516
60	0x3e934977	0.28766987
61	0x3e440900	0.19144058
62	0x3c7d79fd	0.015470979
63	0x3d55d433	0.052204322
64	0xbeba8833	-0.36432037
65	0x3e0eab88	0.13932621
66	0x3e446375	0.19178565
67	0x3e82e65d	0.25566378
68	0x3dec9973	0.115527056
69	0x3f0a634d	0.5405777
70	0x3e1fa1c1	0.15589048
71	0xbd55ea52	-0.05222542
72	0xbe64f394	-0.22358543
73	0x3dbd1d8b	0.092341505
74	0xbf1605ce	-0.5860261
75	0x3e68c06b	0.22729652
76	0x3e72b413	0.23701505
77	0xbe7ad033	-0.24493484
78	0x3e2abfeb	0.16674773
79	0x3e1aa1d1	0.1510079

weight_hh_l0 f4 [80, 20]
0	0xbda1fa54	-0.079090744
1	0x3e250ea0	0.1611886
2	0xbdaa90ad	-0.08328376
3	0x3e106c15	0.1410373
4	0xbe86dc02	-0.26339728
5	0xbe2544b1	-0.16139485
6	0xbe750988	-0.23929417
7	0x3e74d894	0.23910743
8	0xbdbe4f2f	-0.09292447
9	0xbdf8b31c	-0.121435374
10	0x3e0fd3ce	0.14045641
11	0x3d32bdfb	0.04363821
12	0x3e0c03e5	0.1367336
13	0xbe1a9189	-0.1509458
14	0xbe3274cd	-0.17427368
15	0xbd3494bf	-0.044087168
16	0x3e030331	0.12794186
17	0x3d869233	0.06570854
18	0x3c8d2342	0.017228726
19	0xbe19086e	-0.14944622
20	0x3e2e4a91	0.17020632
21	0xbbe5991a	-0.0070067765
22	0x3dec933f	0.115515225
23	0x3c298be7	0.010348297
24	0x3d3a08fc	0.045418724
25	0xbe38fded	-0.18065615
26	0xbd6932ba	-0.056933142
27	0xbe414238	-0.18872917
28	0x3d34f48e	0.044178538
29	0xbe50b96e	-0.20383236
30	0xbe64c005	-0.22338875
31	0xbd24f0f7	-0.040268864
32	0xbe300a8c	-0.17191523
33	0xbe6aedab	-0.22942226
34	0x3d98dc71	0.07463921
35	0x3c572af7	0.013132802
36	0xbe96a2fe	-0.29421228
37	0xbdd5d237	-0.10440486
38	0x3e1b683d	0.15176482
39	0x3dc62421	0.0967486
40	0xbd4ad9c8	-0.0495241
41	0x3be0c491	0.00685937
42	0xbbf6c3f6	-0.0075306846
43	0x3e35a6e8	0.17739451
44	0xbe6dbcaa	-0.23216501
45	0xbd4d6047	-0.050140645
46	0xbdbd5991	-0.09245599
47	0xbd9b569d	-0.075848795
48	0xbd186bc3	-0.037212145
49	0xbe155bc6	-0.1458579
50	0xbe1099b4	-0.14121133
51	0x3d4d9fd4	0.050201252
52	0xbe89d9de	-0.26924032
53	0x3e4a40f8	0.19751346
54	0xbe90ceb8	-0.28282714
55	0xbe73c925	-0.238072
56	0xbe7a94c6	-0.24470815
57	0x3e666fc1	0.22503568
58	0xbe74fc41	-0.23924352
59	0x3e4336e9	0.19063915
60	0x3d2f0893	0.042732786
61	0xbd1b3f6b	-0.037902277
62	0x3d1d20d2	0.038361378
63	0x3d4aec4f	0.049541768
64	0x3cab4b5c	0.020909958
65	0x3d02f4db	0.031971794
66	0x3dcec849	0.10096795
67	0xbdbd4c95	-0.092431225
68	0xbd950de7	-0.07278042
69	0x3d2245e0	0.03961742
70	0x3e583197	0.21112667
71	0x3e0b559b	0.13606875
72	0xbecf0728	-0.40435147
73	0x3e198e18	0.1499561
74	0xbeccddeb	-0.4001306
75	0x3e29021b	0.1650471
76	0xbe62066e	-0.22072765
77	0x3e63a20d	0.22229786
78	0xbe927bd8	-0.2861011
79	0xbdebdd37	-0.11516803
80	0xbe747e22	-0.23876241
81	0x3e409a9f	0.18808983
82	0x3d216abb	0.039408427
83	0xbdb4357c	-0.08799264
84	0x3e2d90b5	0.16949733
85	0xbb6fada4	-0.0036572004
86	0x3e421eb0	0.18957019
87	0xbdb575cb	-0.08860358
88	0x3e340302	0.17579272
89	0x3d71a5d1	0.058996025
90	0xbe3f0bcc	-0.18656844
91	0x3e5bdab4	0.21470147
92	0x3d8759ea	0.066089466
93	0x3d7181f4	0.058961824
94	0x3e9e9ec3	0.309805
95	0x3e4aef7f	0.19817923
96	0x3da1278c	0.07868871
97	0xbdbc6d95	-0.092005886
98	0xbd3da323	-0.046298157
99	0xbd7c850a	-0.061650313
100	0x3f05b3b8	0.52227354
101	0x3d9728e1	0.07380844
102	0x3e807560	0.2508955
103	0x3e57772c	0.21041554
104	0xbeffd33c	-0.49965847
105	0x3def47e4	0.11683634
106	0xbea8a110	-0.3293538
107	0xbe719c26	-0.23594722
108	0xbe8050fb	-0.25061783
109	0xbecc5f9d	-0.39916697
110	0x3e6707af	0.22561525
111	0x3ddb6077	0.107117586
112	0xbed72172	-0.42017704
113	0x3ed66713	0.41875514
114	0xbf1be2b4	-0.60892797
115	0xbe8790d2	-0.26477677
116	0xbda9f3b2	-0.08298434
117	0x3d8de9d7	0.06929367
118	0xbea4c6fd	-0.32183066
119	0xbe8553cc	-0.26040494
120	0xbe12e9bd	-0.14346977
121	0xbe054b77	-0.13017069
122	0x3e6a93aa	0.22907892
123	0xbd078c2c	-0.033092663
124	0x3e2bb97b	0.16769974
125	0xbe2d74f8	-0.16939151
126	0x3e6e9304	0.2329827
127	0x3d209a26	0.039209507
128	0x3cdf8ba6	0.02728827
129	0x3db8e266	0.09027557
130	0x3e64c337	0.22340094
131	0xbe3fb3a8	-0.18720877
132	0xbe04c33f	-0.12965105
133	0xbe68293b	-0.22671978
134	0xbd1bf1df	-0.038072463
135	0x3cbe0264	0.0231945
136	0xbe2958f5	-0.1653784
137	0x3db21136	0.08694689
138	0xbe079e11	-0.13243891
139	0xbe2b2d33	-0.16716461
140	0xbd34d8c4	-0.044152036
141	0x3dd7ef71	0.10543717
142	0x3ea2870d	0.3174366
143	0xbdec0e43	-0.11526158
144	0xbe4a87bf	-0.19778346
145	0xbd4e267d	-0.050329674
146	0x3e381987	0.17978488
147	0x3e569990	0.20957017
148	0xbd8ed25a	-0.06973715
149	0x3e59e1e5	0.21277578
150	0x3d434b9a	0.04767952
151	0xbe3d48ad	-0.18484755
152	0x3e3822f5	0.17982085
153	0x3dc47f9e	0.095946535
154	0xbd76cf83	-0.060256492
155	0x3d59417a	0.05304096
156	0x3ebcea1f	0.3689737
157	0x3e033c30	0.12815928
158	0xbc4ca43b	-0.0124903275
159	0xbe6fdc6e	-0.23423931
160	0xbd9922c3	-0.074773334
161	0x3d6e5dcf	0.05819493
162	0x3e189fdd	0.14904733
163	0x3d92baab	0.0716451
164	0x3d197df3	0.03747363
165	0xbd9f4955	-0.07777659
166	0xbdd3039c	-0.10303423
167	0x3e8763cf	0.26443335
168	0x3e8bb004	0.27282727
169	0x3dbac3fd	0.09119413
170	0xbdf111fc	-0.11771008
171	0x3e3e2a59	0.18570842
172	0x3de0664d	0.10957012
173	0x3d314909	0.043282542
174	0xbdfb8115	-0.1228048
175	0x3d86a7c7	0.0657497
176	0xbd7eabff	-0.062175747
177	0x3dd05d1a	0.10174008
178	0xbc671fea	-0.01410673
179	0xbe4ae30e	-0.19813177
180	0x3d8b6068	0.068054974
181	0xbd539a91	-0.051661078
182	0x3e2686e4	0.16262394
183	0x3e93e36f	0.28884456
184	0xbe6d439b	-0.2317032
185	0xbec80279	-0.39064386
186	0x3e037a04	0.12839514
187	0xbe4a117f	-0.19733237
188	0xbd2a66f5	-0.041602094
189	0x3dd357f7	0.10319512
190	0x3e4bf150	0.19916272
191	0x3cb48a3d	0.022038573
192	0xbe175913	-0.14780073
193	0x3e5a4501	0.21315385
194	0xbe4f6646	-0.20253858
195	0xbd214372	-0.03937096
196	0x3eb57d40	0.3544712
197	0x3e0567c9	0.13027872
198	0x3d9f820c	0.07788476
199	0xbe3c225d	-0.18372484
200	0x3f0274be	0.50959384
201	0x3e75e545	0.2401324
202	0xbc4beab7	-0.012446097
203	0xbe89d04e	-0.26916736
204	0xbeb4830c	-0.3525623
205	0xbe1694b1	-0.14705159
206	0xbeb82b83	-0.35970697
207	0xbf2ed662	-0.6829587
208	0xbec811ea	-0.39076167
209	0xbecb3f0c	-0.39696538
210	0x3e5b0b0c	0.21390933
211	0xbeed574a	-0.4635566
212	0xbf0a4a7a	-0.5401989
213	0x3f09df6d	0.53856546
214	0xbf46a08d	-0.7758873
215	0xbf24a0ff	-0.6430816
216	0xbdb34f21	-0.08755327
217	0x3e4d695b	0.20059721
218	0xbe734aa7	-0.23758946
219	0xbd0e0304	-0.034670845
220	0xbe8cb3f5	-0.27481046
221	0xbcbf21e9	-0.0233316
222	0x3e587668	0.21138918
223	0x3e0420bb	0.1290311
224	0x3d7f8389	0.0623813
225	0xbe27e895	-0.16397317
226	0x3df4a006	0.119445845
227	0xbd10171e	-0.035178296
228	0xbd43ab21	-0.047770623
229	0x3e5ddf38	0.21667182
230	0xbc91c510	-0.017794162
231	0xbe2d3ece	-0.1691849
232	0x3e4fc9ea	0.20291868
233	0xbe24c49b	-0.16090624
234	0x3e3cda67	0.18442689
235	0xbe03e8bc	-0.1288175
236	0x3e3831eb	0.17987792
237	0x3dd9a42e	0.10627018
238	0x3dc155a4	0.09440163
239	0xbe345fc5	-0.17614658
240	0x3e81e47b	0.2536963
241	0x37fe5872	3.0320345e-05
242	0x3bffd219	0.007807028
243	0xbdd7b20e	-0.10532008
244	0xbc9162e3	-0.017747348
245	0xbc93703d	-0.017997855
246	0xbd26e88e	-0.040749125
247	0xbe86336d	-0.2621111
248	0xbeede27e	-0.46461862
249	0xbee4aca4	-0.44662964
250	0x3df7caf4	0.12099257
251	0xbe880266	-0.2656433
252	0xbbaeddf1	-0.005336516
253	0x3e3f8515	0.1870311
254	0xbe59016a	-0.21191946
255	0xbec7a9fc	-0.38996875

bias_ih_l0 f4 [80]
0	0x3d3ea8ab	0.046547573
1	0x3e2f00e3	0.17090182
2	0x3e69ac9a	0.22819749
3	0x3d8cb234	0.06869927
4	0xbe577284	-0.21039778
5	0x3ec35b44	0.38155568
6	0xbea312b0	-0.31850195
7	0x3c41b5b7	0.011823109
8	0x3e2ada34	0.166848
9	0xbe2140f3	-0.15747432
10	0x3f3cb801	0.7371827
11	0x3dd197a1	0.10233999
12	0x3e32f6f9	0.17477025
13	0xbdc96108	-0.0983296
14	0x3d8c708c	0.06857404
15	0x3c8e43c7	0.017366303
16	0x3e9b3c62	0.30319506
17	0xbe2620df	-0.16223477
18	0x3f20a6e9	0.62754685
19	0x3f5203ad	0.8203686
20	0x3e383ee8	0.17992747
21	0x3e00c53b	0.12575237
22	0xbd7edc90	-0.062222064
23	0xbe5aa1da	-0.21350804
24	0xbe6af69e	-0.2294564
25	0xbe2f434e	-0.17115518
26	0xbe6cbea0	-0.23119593
27	0x3d6c5483	0.057697784
28	0x3da960f4	0.082704455
29	0xbe85cf17	-0.2613456
30	0xbe1d1f15	-0.15343888
31	0x3e0a244f	0.13490413
32	0x3c5def5e	0.013545839
33	0x3d25f1c2	0.04051376
34	0x3d0efb87	0.034907844
35	0xbe4f3b77	-0.20237528
36	0xbed6141e	-0.41812223
37	0xbdecf61b	-0.115703784
38	0xbde1877e	-0.11012171
39	0xbe6b56d8	-0.22982347
40	0x3dcf105a	0.10110541
41	0xbd5a79df	-0.05333888
42	0x3e1ce2bc	0.15320867
43	0x3d3cfdb9	0.046140406
44	0xbe3c3a8b	-0.18381707
45	0xbe5757a7	-0.2102953
46	0x3e1b479c	0.15164036
47	0xbda5dd3f	-0.0809884
48	0xbd53766e	-0.051626615
49	0x3d6f3f5e	0.05841004
50	0x3dbaa29e	0.09113048
51	0xbdff0e57	-0.12453907
52	0xbde06070	-0.10955894
53	0xbe0ab812	-0.1354678
54	0xbe3e8c99	-0.18608321
55	0xbd945302	-0.07242395
56	0xbd3bca1e	-0.04584705
57	0xbd92753b	-0.07151266
58	0xbe2f460b	-0.17116563
59	0xbdbddf2c	-0.09271082
60	0x3e34421f	0.17603348
61	0xbd690dfd	-0.056898106
62	0xbc6a8e7f	-0.0143162
63	0xbda47dfc	-0.08031842
64	0x3cf2e3a3	0.029649561
65	0x3ec5fd7b	0.38669953
66	0x3d91b0d0	0.071138024
67	0x3e244f79	0.16045941
68	0x3d4bcd25	0.049756188
69	0xbe3bd388	-0.18342412
70	0x3ec2404a	0.37939674
71	0xbe8a3ced	-0.26999608
72	0x3d898732	0.067152396
73	0xbc81caa9	-0.015843706
74	0xbd0c2402	-0.034214027
75	0x3e18f81a	0.14938393
76	0x3f2127b3	0.629512
77	0xbe5cff5a	-0.21581784
78	0x3efa305b	0.48865017
79	0x3f71aba8	0.9440255

bias_hh_l0 f4 [80]
0	0xbe06a9c0	-0.13150692
1	0xbd224eda	-0.03962598
2	0xbdd5f274	-0.10446635
3	0x3c2c6a59	0.010523402
4	0xbe819e41	-0.2531605
5	0x3eefacdc	0.4681157
6	0x3d1a8acf	0.037730034
7	0xbdefc4b2	-0.117074385
8	0xbbad0990	-0.005280681
9	0xbd6df9b7	-0.058099475
10	0x3f27ec4d	0.6559494
11	0xbc46dbe9	-0.012137392
12	0x3df534ab	0.11972936
13	0xbea9ba2a	-0.33149844
14	0xbcc96eed	-0.024589026
15	0x3e1fc0a7	0.15600835
16	0x3f0a83a8	0.5410714
17	0x3d858d89	0.06521136
18	0x3ed56d53	0.4168497
19	0x3f2c28bf	0.67249674
20	0xbd1a1571	-0.037618104
21	0xbe2848df	-0.16434048
22	0xbce191db	-0.02753537
23	0xbe90d6bd	-0.28288832
24	0xbe2ce588	-0.16884434
25	0xbe554fee	-0.20831272
26	0x3e0cebbe	0.13761804
27	0x3dee430a	0.116338804
28	0x3dd4231f	0.10358261
29	0x3dec162c	0.115276664
30	0xbe3298d3	-0.1744111
31	0xbcace298	-0.021104142
32	0xbe5f4c90	-0.2180655
33	0xbe4a1740	-0.19735432
34	0xbe5ccc9e	-0.2156243
35	0xbe70cdb7	-0.23515974
36	0xbe51f1f2	-0.20502451
37	0xbe208e84	-0.15679365
38	0xbc8393e6	-0.016061734
39	0xbe337790	-0.17526078
40	0x3e13dfca	0.14440838
41	0x3da9dbbd	0.08293865
42	0x3c21b3c4	0.00986952
43	0xbc961b67	-0.018323613
44	0x3c45921a	0.012058759
45	0x3d9a0855	0.075211205
46	0xbe3445f6	-0.17604813
47	0xbdb5a045	-0.088684596
48	0xbe3d9945	-0.18515499
49	0xbe156762	-0.14590219
50	0x3d42b1ab	0.04753272
51	0x3deab241	0.114597805
52	0xbd097c8d	-0.033566047
53	0x3dca6590	0.09882653
54	0xbd9e7e88	-0.07738978
55	0xbcf50ec8	-0.029914275
56	0x3cea7328	0.028619364
57	0x3e2ac921	0.16678287
58	0x3dd6a03b	0.1047978
59	0xbd515c4b	-0.051113408
60	0xbd015cb8	-0.031582564
61	0x3d4cc4a7	0.04999223
62	0xbc4566d7	-0.012048445
63	0xbe218349	-0.15772738
64	0xbe74c56b	-0.23903434
65	0x3ef53f8b	0.47900042
66	0xbe4722df	-0.19446896
67	0x3e1e68c3	0.15469651
68	0x3e0c7778	0.13717449
69	0x3e164b42	0.14677146
70	0x3ed4f54e	0.41593403
71	0xbd1db4ec	-0.03850262
72	0x3e04e1a6	0.12976703
73	0xbe57d85e	-0.21078631
74	0x3de18c81	0.11013127
75	0x3e0f7114	0.1400798
76	0x3efa65f7	0.48905918
77	0xbdf539e7	-0.119739346
78	0x3f46d2b1	0.7766524
79	0x3f0fc4af	0.5615949

weight f4 [1, 20]
0	0x3e2e8eb9	0.17046632
1	0xbd359dec	-0.04434006
2	0xbe93f328	-0.2889645
3	0xbdef183d	-0.11674545
4	0x3ce58bda	0.028020788
5	0x3ec8ad3b	0.39194664
6	0xbd20e046	-0.039276384
7	0xbe698153	-0.2280324
8	0xbd0ef294	-0.03489931
9	0xbddb092f	-0.10695111
10	0xbf27d71b	-0.655626
11	0x3c219ec6	0.009864515
12	0x3ed32079	0.41235712
13	0x3d836316	0.064153835
14	0x3e28b1b3	0.16474037
15	0xbe2a4549	-0.16627993
16	0xbec3fe82	-0.38280112
17	0xbdba40c6	-0.09094386
18	0x3ec2c630	0.3804183
19	0x3ec73410	0.38906908

hidden_cell f4 [1, 1, 20]
0	0x3e173b9e	0.14768836
1	0x3b9dc06e	0.004814199
2	0x3c6fba3b	0.014631803
3	0x3b050022	0.0020294269
4	0xbc6376b0	-0.013883278
5	0x3c360b07	0.011111028
6	0xbb8c50a4	-0.004282074
7	0xbde918c1	-0.113816746
8	0xbe0e9944	-0.13925654
9	0xbda7c088	-0.08191019
10	0x3c9c42d0	0.019074827
11	0x3b93d311	0.004511245
12	0xbd4f94fe	-0.0506792
13	0x3b5c982c	0.0033660037
14	0xbd67aa93	-0.056559157
15	0xbdb8af96	-0.09017865
16	0xbba623eb	-0.0050701997
17	0xbad0f8dc	-0.0015943306
18	0xbc491854	-0.012273867
19	0x3c64f2d5	0.013973911

hidden_cell f4 [1, 1, 20]
0	0x3e8e089b	0.2774094
1	0x3c1ba7e6	0.009500479
2	0x3cf13244	0.029442914
3	0x3b9790a1	0.0046253954
4	0xbd0ee618	-0.034887403
5	0x3c6e132c	0.014530938
6	0xbc18b368	-0.0093201175
7	0xbe4908bb	-0.19632237
8	0xbe81de88	-0.2536509
9	0xbe218fb1	-0.1577747
10	0x3ccd50da	0.025062967
11	0x3c3ad633	0.011403608
12	0xbdb12e08	-0.08651358
13	0x3c00a595	0.007851978
14	0xbde688ff	-0.11256599
15	0xbe1b6300	-0.15174484
16	0xbbce2c1e	-0.0062918803
17	0xbb889a4c	-0.0041687842
18	0xbc6f62da	-0.01461097
19	0x3c817083	0.01580072
