mlruns/0/ab0d8240a5f64eee89dc1b659d43fbdc/artifacts/model/data/model.pth (torch, 14120 bytes, 7 tensors)

weight_ih_l0 f4 [80, 1]
00000000: 6d4f eb3c 9b1a 9d3e b0a0 843e 910a b83b
00000010: 2fd5 52be 9bb5 463e 9fce 003c b11a b63e
00000020: 713b 5d3e 3a83 c43c aa28 493c 59b9 cd3d
00000030: 6d57 f83d 8713 3e3d 50e9 783d a447 0b3e
00000040: 4967 ba3e 49d1 c83e d634 beba 0aff d0bd
00000050: fbf4 4a3d c6f0 593e 86b7 3e3e 8022 c6bc
00000060: 0a9a f9bd 3758 c63e f6db 263e 75da 663e
00000070: 563f 7dbc 578e 983e 3b16 923d d50e 7d3e
00000080: c727 ac3d 3125 013e 9e5a 72bd c4e7 2b3d
00000090: bc77 0a3e fbf5 c03d 56cf 963d bbea 05be
000000a0: 1008 9f3e 4562 713e 8341 c0be b8f2 8abe
000000b0: 0a55 563c e94c 943e ef58 d73c 4a4f 8bbc
000000c0: de9e b33e 4555 68be 413a a33d f96e 823d
000000d0: a0d2 613e c20e a63c cc1b 4a3e d81c 973e
000000e0: 8b13 2fbd c61a e03e 7b2f 953e 31ad efbd
000000f0: 02a7 5bbd 5758 393d 9285 313d fb62 4bbe
00000100: e9da e53c 7d8e ebbb 5186 173e 6a9b 833e
00000110: 9f9b b33d 2b58 cd3d 7e77 833e 9b03 dabd
00000120: e2c9 763d 1312 03be 9649 0bbd 533e b6bc
00000130: 7ea7 c43e a443 cd3e 7008 9b3d 998c 3fbe
0.028724397 0.3068436 0.25903845 0.005616494 -0.20589136 0.19405214 0.007861762 0.3556724
0.21604706 0.023988355 0.0122777615 0.10045118 0.1212605 0.04640534 0.06076938 0.13601547
0.36406925 0.39222172 -0.0014511596 -0.10204895 0.049550038 0.21283254 0.18624696 -0.024186373
-0.12187584 0.38739178 0.16294846 0.22544272 -0.015456995 0.29796097 0.071331464 0.24712689
0.084060244 0.12611844 -0.05916845 0.041969076 0.13522238 0.09421917 0.07363765 -0.13077824
0.3106084 0.23572643 -0.3754998 -0.27138305 0.013081798 0.28964928 0.026287524 -0.017005581
0.35082144 -0.22688778 0.079700954 0.063688226 0.22053003 0.020270709 0.19737166 0.29514194
-0.042743247 0.43770427 0.29137787 -0.117029555 -0.053626068 0.045250263 0.043340273 -0.19861977
0.028058486 -0.007188617 0.14797331 0.2570451 0.08769917 0.10026582 0.25677103 -0.10645219
0.060251124 -0.12799864 -0.034005724 -0.022246515 0.38409036 0.40090668 0.07569969 -0.18705977

weight_hh_l0 f4 [80, 20]
00000000: 1308 13be 3e7e a9bb df60 4c3d fec8 dcbc
00000010: b44c 8b3d 1af0 21be 7db2 52be 2766 e0bc
00000020: cbb6 1cbe 5653 c5bb f767 b1bd d3fa 623d
00000030: 8f24 2abe 6133 b1bd 432e 1dbe 3730 2fbe
00000040: 76fe 5c3d 2656 9a3d 948e c4bd 5f55 2a3e
00000050: 3230 1dbd c6b8 0abe 25f9 f2bd d34b 773d
00000060: 3d38 5d3d 0035 ddbc 374f 9dbb 0ce3 823e
00000070: 3699 c53c 48f3 823c f205 4c3d b93b cc3d
00000080: f3ba 3a3d fafe a83d e82c 1bbe 10df 2cbe
00000090: 37fd 06be 745d 563e 2b0e 883c cc93 28bd
000000a0: fb71 b33d 214f b63b 8f94 cf3d 4f05 3ebd
000000b0: 127b 693d 082a 7d3e 7e1c ffbd e058 47bc
000000c0: 36ed 843e db90 03be 6a8f fc3c 40c9 4e3e
000000d0: 51ff 49be a72e 8dbe 34c3 493e 1e5e 1c3d
000000e0: 11c4 7cbe faf0 35be 4498 d53c 66ff 5fbe
000000f0: 3aad 5fbe ea77 6ebe 5989 96bd d507 d3bc
00000100: 3adc 883c 01aa 7ebe 841a 9dbc 1980 993c
00000110: 8684 71be a6ef cbbd 1015 31be 27f8 3cbe
00000120: 825d 70be 2620 643e 7ccf 823d ae0c f8bd
00000130: 0950 a7bd 1a2f 0fbe 57fe 5cbc a3d8 16be
00000140: bb13 fcbd 1e42 36be e7ec a1ba 0dcc 87bd
00000150: c8f3 c6bd 66e5 ea3d 43c3 0e3e b20c 3c3d
00000160: e6c1 53be 7a53 24be 8c89 38be c9e2 b1bd
00000170: 6b1e eebc bd91 02be 29a1 1cbe 1827 303d
00000180: 6049 713e 72c8 773d 1965 133e 20cd eb3c
00000190: 9491 4dbe 1f41 5abb 4e78 123e f26f 41be
000001a0: c753 1fbe a3be 5a3d b661 1e3d c696 5cbe
000001b0: 5aa9 c4bd d04b e3bc 0279 f03d 5c96 39be
000001c0: cad8 76bd aedd 1cbd 2e43 13be 21e4 91be
000001d0: af64 61be cca3 5f3e 7836 853e de63 ca3c
000001e0: 0aec 803d 3ee8 003e c73d 0b3e b2de fb3d
000001f0: 2759 51be 3bd0 8c3d a635 edbd 11ef eebd
00000200: a220 393e 41bc 453e 1ad3 093e 7f8a 76bd
00000210: 6a2b 143e 3bc2 1dbd 75a1 f33d 913f b33c
00000220: de1b ccbd 7b63 963d 0db6 713e b6f0 75be
00000230: 3dc6 0fbe f2ab 29be 4090 8f3d b3a6 e13d
00000240: c336 29be 1adf 673e 0c11 14bd 939a 7d3d
00000250: 5488 d6bd f0cd 543d 51fe 083e 644e 23be
00000260: 4f6c 523d 0c39 e73d 61d7 d93d 870d 2bbd
00000270: 0c2f 04be 7107 e13d 4ff9 523e 9f7b a4be
00000280: a84c 953d c247 5cbe 76f3 6d3c 5b6b 45bd
00000290: 3efb 73be 96e6 a2bd 7727 3d3d 9e38 ce3d
000002a0: dee7 12bc 737b 3f3d 90b0 903e 90a4 1dbe
000002b0: 800b f1bd dea2 e9bd 6409 273e b9f1 bfbd
000002c0: 76d1 463e 5744 173e 98e8 afbd 64b0 9dbe
000002d0: fb28 47be c3d4 efbd 6db4 26be 1824 2c3e
000002e0: 775f e73d 48b9 9ebd ab77 14be f35a 243e
000002f0: cfc5 09be 1c29 febb c161 343e 76f1 153e
00000300: ba99 15bc c9a0 b73d 1925 d83d 3f6d 35be
00000310: c454 e93d 4e8c 88be c151 423e 9861 a0bc
00000320: 2ef9 323e b668 c23d 5ebf 7c3e da7c 5cbe
00000330: cea7 3fbd a308 8bbe f581 86be 84bc a63d
00000340: 1660 45be f550 80bd 0df4 b8bd ae72 203c
00000350: 7582 7a3d c68c 5f3e 22d0 1f3e aeba 883b
00000360: 0202 8f3e 3079 60bd 791e 04be 7585 313e
00000370: 4bea e13d 630d 8fbd 702c cd3c d06d f2bc
00000380: b5bf 8c3d b2d7 5dbe 1f67 9e3d 5a9f e33d
00000390: 605f b13d 4368 be3c 934f e23b 7e73 51be
000003a0: 16ea 80be ae47 39ba c311 6c3d cac2 38bd
000003b0: 1b22 01bd 6410 86be 89b5 16be 17f2 46bd
000003c0: ccfb 853d 17da b1bd 166f 763c 297e e8bd
000003d0: 14f2 ce3d 78ea fb3d 481c 0a3e d1d2 c63d
000003e0: 688e 843d 1535 31be 0c13 863d a4ec afbd
000003f0: 7351 003e 08ed f43d 97b8 eabd 3f5b 2ebe
-0.14358549 -0.00517252 0.04989707 -0.02695131 0.06801739 -0.15814248 -0.205759 -0.02739246
-0.15304105 -0.0060218973 -0.08662408 0.055414986 -0.16615508 -0.08652378 -0.15349679 -0.17108236
0.05395361 0.07535963 -0.09597507 0.16634129 -0.03837604 -0.13547048 -0.11863927 0.060375046
0.05400871 -0.027002811 -0.004800703 0.25563848 0.024120908 0.015985146 0.049810357 0.09972329
0.045588445 0.08251758 -0.15153849 -0.16881967 -0.13182531 0.20934087 0.016608318 -0.041156575
0.087619744 0.005563632 0.10135757 -0.04639178 0.057002135 0.24723065 -0.12456606 -0.012167186
0.25962228 -0.12848227 0.030830104 0.20193958 -0.19726302 -0.27574655 0.1970337 0.038175695
-0.24684168 -0.17767707 0.026073582 -0.2187477 -0.21843424 -0.23287931 -0.07350416 -0.02576057
0.016706575 -0.24869539 -0.019177683 0.01873784 -0.2358571 -0.09957819 -0.17293191 -0.18454038
-0.2347317 0.22277889 0.06387231 -0.121117935 -0.08169562 -0.13982812 -0.013488374 -0.14731078
-0.12308451 -0.17798659 -0.0012353928 -0.066307165 -0.09714466 0.114695355 0.13941674 0.045910545
-0.20679435 -0.16047469 -0.1802122 -0.08685834 -0.029067239 -0.12750907 -0.15295853 0.043006033
0.23563147 0.060493894 0.14394034 0.028784335 -0.20075065 -0.0033302975 0.14303705 -0.1889036
-0.15559302 0.05340446 0.038667403 -0.2154189 -0.09602614 -0.027746111 0.117418304 -0.18123764
-0.06026534 -0.038297348 -0.14381096 -0.2849436 -0.22011064 0.21839827 0.2601812 0.024705824
0.06295021 0.12588593 0.13597785 0.12298335 -0.20444165 0.06875654 -0.11582498 -0.11666692
0.18078855 0.19310094 0.13459435 -0.060190674 0.14469686 -0.03851531 0.1189603 0.021880897
-0.09966253 0.07343193 0.23604603 -0.24017605 -0.14040466 -0.16569498 0.070099354 0.110181235
-0.16524796 0.226437 -0.03614907 0.06191499 -0.10475221 0.05195421 0.13378264 -0.15947872
0.051372822 0.11290178 0.106367834 -0.041760948 -0.12908572 0.109877475 0.20602916 -0.32125565
0.07290012 -0.21511748 0.014523378 -0.048198085 -0.2382631 -0.07954137 0.046180215 0.100693926
-0.008966414 0.04674859 0.28259706 -0.15394807 -0.117697716 -0.114080176 0.16312176 -0.09372277
0.1941584 0.14772163 -0.085892856 -0.30798638 -0.19449227 -0.11710503 -0.16279764 0.16810644
0.11297505 -0.07750183 -0.14498775 0.1605032 -0.13454364 -0.0077563655 0.17615415 0.14642891
-0.00913089 0.08966214 0.10553951 -0.17717455 0.11393121 -0.26669544 0.18976499 -0.019577786
0.17477867 0.09492628 0.24682376 -0.21532002 -0.04679089 -0.27155027 -0.26271024 0.08141425
-0.19274935 -0.06265441 -0.09030924 0.009792967 0.06115957 0.21831045 0.1560674 0.0041726446
0.2793122 -0.054803073 -0.1290225 0.17336066 0.11031016 -0.06984975 0.025045604 -0.029593378
0.06872503 -0.21664312 0.077345125 0.11114378 0.086607695 0.023243075 0.0069064586 -0.20454213
-0.25178593 -0.0007067871 0.057634126 -0.04510764 -0.031526666 -0.2618438 -0.14717688 -0.04857072
0.06542167 -0.086841755 0.015041133 -0.11352188 0.101047665 0.12300581 0.13487351 0.09708179
0.06472474 -0.17305405 0.06546602 -0.085900575 0.1253107 0.119592726 -0.11460989 -0.17026995

bias_ih_l0 f4 [80]
00000000: 42f8 8ebe af14 43be bb1f 653d 8c8f 13be
00000010: 89ce ca3c 7f17 61bd 52cd 243e f9de b33d
00000020: 76ee 523e 763b 4abd 9c91 bdbc 5a09 323e
00000030: 3a82 cabd 38ac 00bd 6a4e cb3d 69e8 40be
00000040: 9311 e23d dc2c 883d f6f8 52bd 193b 98be
00000050: 902d f9bd 01ec 8bbe 9630 003c 1fcc 70ba
00000060: bee4 64be bbda 8fbd ffde 243e 522d 7b3e
00000070: cd5d 43be caad 15be 9356 2abe 8adf 36bd
00000080: 2588 193d 974e 80be 51c2 263d 302c 65bd
00000090: 2044 30be 5464 50be cdbd 453e 1a30 293d
000000a0: 6b65 3dbe 89aa 7fbb b440 73bd f924 55bd
000000b0: c350 c5bd d309 1cbd 7787 353d ec0c 6dbc
000000c0: eb3c 4b3e dc1e ebbd a65e fabd 73ab 3d3e
000000d0: 7d9d c6bc c142 9cbd f8c7 63bd c34e 29be
000000e0: b227 89be 368a 2fbd 08ac 243e edbe 6b3d
000000f0: 0f1f a4bd b5fb 18be c4d9 2a3e 3082 40be
00000100: f102 a2bd 44a4 c43d 7807 e9bd 509b a8bc
00000110: 920c 803d 0993 5d3b 18e9 3bbe b0ef c2bb
00000120: bb6f 083e 415f 57be db1d 26be 7f5c ab3d
00000130: 26ab 393e db28 0e3e 2b44 173e bd9e 8abe
-0.2792378 -0.19050859 0.055938464 -0.14410228 0.024756687 -0.05495405 0.16093948 0.08782763
0.20598778 -0.049373113 -0.023140721 0.1738638 -0.0988812 -0.03141424 0.09927066 -0.18838657
0.11038508 0.06649181 -0.05150696 -0.29732588 -0.121668935 -0.27328494 0.007824084 -0.000918569
-0.22352883 -0.070241414 0.16100691 0.24529007 -0.19078751 -0.14617077 -0.16634588 -0.044646777
0.037483353 -0.2505996 0.04071266 -0.055950344 -0.17213488 -0.20350772 0.19310685 0.04130564
-0.18495719 -0.003901156 -0.059387878 -0.052037213 -0.09634545 -0.038095307 0.044318642 -0.014468413
0.19847457 -0.11480495 -0.12225084 0.18522434 -0.024245018 -0.0762992 -0.055610627 -0.16533951
-0.26788098 -0.042856418 0.1608125 0.057555128 -0.080137365 -0.14939769 0.16684633 -0.18799663
-0.07910717 0.09601644 -0.11378378 -0.020581871 0.062523976 0.0033809564 -0.18350637 -0.005948983
0.13323872 -0.2103243 -0.16222326 0.083672516 0.18131694 0.13882773 0.14772098 -0.27074233

bias_hh_l0 f4 [80]
00000000: 091b 88be edbe a13d 3975 693e 0def a23d
00000010: efbe 1e3e f0b5 fa3d 6790 853d ed35 a0bd
00000020: 2dcc a0bd 57db ebbd ec64 8c3d 5ed8 fe3d
00000030: e819 393e 41af aabc 4e3c 223d b311 b73d
00000040: 099b 593d c928 9abd 265d 03be 1ce0 44bc
00000050: cf2f 5fbe ea57 983b dc7f bd3c 348f 3ebd
00000060: 986e 19be e504 813e 7d69 75bd 9580 03bd
00000070: c1bf 023e 879c babc b53d 53be c072 523e
00000080: f630 46bc 1d99 1e3d 0ea9 cebd cee9 dfbd
00000090: 6c36 153e 84f4 f1bc 04fd 1f3d e121 be3d
000000a0: d10a 3b3e 66b8 83bd 7740 17be 5fbf 2cbd
000000b0: adb4 063e 39b2 153e 3e00 1b3e 06fe 85be
000000c0: 310e 263c 16c8 23be 16de 073d 3b6d 2abe
000000d0: 16b7 0fbd 6ae4 ebbb 0eba b53d b560 0e3d
000000e0: bfc0 bdbd d849 f4bc 105e 193e c534 a6bd
000000f0: 2055 a83d b22e bcbd a5ab 683d 00bf 0e3e
00000100: f8f6 b9bc 8e41 373e f88d 4abd 8702 99bd
00000110: b077 5d3e 0a2a 523e 9a76 9f3d 77d1 373d
00000120: 3eaa abbd 964a 093e eb98 a0bd f1fe 093e
00000130: 8703 2f3d 2feb 053e a772 1f3e 8390 bc3d
-0.26583126 0.07897744 0.22798623 0.079557516 0.15502523 0.12241733 0.06521683 -0.078227855
-0.078514434 -0.11516445 0.06855187 0.124436125 0.18076289 -0.02083552 0.039608292 0.08938923
0.05312637 -0.075273104 -0.12828502 -0.012016322 -0.21795581 0.004649152 0.023132257 -0.046523288
-0.14983594 0.25199047 -0.059915055 -0.032105047 0.12768461 -0.022779716 -0.20629008 0.20551586
-0.012096634 0.03872024 -0.100908384 -0.109332666 0.14571542 -0.02953554 0.039059654 0.09283806
0.18265845 -0.064316556 -0.14770685 -0.042174693 0.1315486 0.14618768 0.15136811 -0.26170367
0.010135219 -0.15994295 0.033170782 -0.1664323 -0.035086714 -0.00719886 0.08873378 0.034760196
-0.09265279 -0.029820368 0.14977288 -0.08115534 0.08219361 -0.09188594 0.056804318 0.13940048
-0.022700772 0.17896101 -0.0494518 -0.07471185 0.21627688 0.20523849 0.07786293 0.044877496
-0.083820805 0.13407359 -0.07841667 0.13476159 0.042727973 0.13077997 0.1557108 0.09207251

weight f4 [1, 20]
00000000: 212b 4d3d 38f5 1c3e 4089 4bbe 618d 84bc
00000010: e020 9d3d 7745 f33d 225d 713d 8fca fbbd
00000020: 7f78 463e 4880 15bd 0d35 debd 1afc 013d
00000030: bc79 dc3d 028b 2d3d 86d0 6b3d 9fb1 4b3e
00000040: 0387 12be c8b9 493e ccb2 273e 1918 543d
0.05008996 0.15327919 -0.19876575 -0.016180696 0.07672286 0.11878484 0.05892671 -0.12294494
0.19381903 -0.03649929 -0.108499624 0.031734563 0.107654065 0.042368896 0.05757191 0.19891976
-0.14309315 0.19699776 0.163768 0.051780794

hidden_cell f4 [1, 1, 20]
00000000: 9016 d6bc 5f97 263b ab2c 15be 2713 eb3c
00000010: 661e 4d3c 6c77 3d3e 28da 343e ca84 40be
00000020: 6f26 003e 027d febd ff69 91bc 452e 843d
00000030: bc27 85bc 18eb f1bb 5724 9fbc 389b fabb
00000040: 6b84 43be c381 6bbc 2909 5f3e e363 a03c
-0.026133806 0.0025419814 -0.1456782 0.028695656 0.012519455 0.18502587 0.17661345 -0.18800655
0.12514661 -0.12426187 -0.017750738 0.06454138 -0.016254298 -0.0073827617 -0.019426508 -0.007647898
-0.19093482 -0.014374199 0.21780838 0.01957888

hidden_cell f4 [1, 1, 20]
00000000: ec9a 61bd 0c8e c13b 27d3 8abe e20a 7d3d
00000010: 5d9a de3c 7e73 b43e 2e90 da3e 485c dbbe
00000020: 3133 5e3e 7332 6bbe 8d29 27bd 8c70 063e
00000030: d66c 02bd afc2 77bc cad2 43bd 36ad 67bc
00000040: 9f42 b4be 4634 cbbc 9c32 cc3e 376e 4c3d
-0.055079386 0.005906826 -0.2711422 0.061777957 0.027173216 0.35244364 0.42688125 -0.42843843
0.21699215 -0.22968464 -0.04081111 0.1312887 -0.031842075 -0.0151221 -0.047808446 -0.014140418
-0.35207078 -0.0248052 0.39882362 0.049909797
