mlruns/0/5b2122cade484ba0b2a9382fcf092789/artifacts/model/data/model.pth (torch, 14056 bytes, 7 tensors)

weight_ih_l0 f4 [80, 1]
000000 0d 1d 28 3e 76 24 dc 3d 28 51 a5 3e 29 78 e7 3e
       0.16417332 0.10749142 0.3228848 0.45208862
000010 16 00 43 be d4 12 65 3e d2 99 ad 3e 13 57 35 bd
       -0.19043002 0.22370464 0.33906418 -0.044272494
000020 f8 2c 2a 3e 9e 44 3e 3e b7 44 8b 3e 67 f6 18 be
       0.16618717 0.18580863 0.27200863 -0.14937745
000030 70 53 31 3f c7 03 81 3e a7 a7 70 3d f1 71 05 3e
       0.6926794 0.25198194 0.058753636 0.13031746
000040 a1 d9 c7 3e e7 81 90 3e ad f4 b2 3e 22 73 90 3e
       0.39033225 0.28224108 0.34952298 0.2821284
000050 4b 03 e4 3d 7c 9e 27 3e a6 ce d8 3e b5 5e 07 be
       0.111334406 0.1636905 0.4234516 -0.13219722
000060 37 e6 de bd 90 a3 c6 bc ed fe fd 3e c6 f3 2e be
       -0.10883754 -0.024247915 0.49608555 -0.1708518
000070 a1 dd e7 3d f9 9c b2 3d 80 4c d5 3e ee 3c 01 3d
       0.11321569 0.087213464 0.41659927 0.031552248
000080 62 e1 0d 3f 49 38 94 3e 05 79 d3 3d f9 c2 14 bb
       0.5542203 0.28949192 0.10325817 -0.002269922
000090 e6 ba 37 3e 51 a8 be 3e 1a 0b f7 3d 70 f5 53 bd
       0.1794239 0.3723779 0.12062664 -0.05174774
0000a0 34 1a f8 bd f7 86 e6 be c6 c9 c2 be db 2e 09 bf
       -0.12114373 -0.45024845 -0.38044566 -0.5358712
0000b0 a6 7c ac bd 4e 6c 8f be 1f bd 5a be dd d4 92 3e
       -0.08422212 -0.28012317 -0.21361206 0.28678027
0000c0 00 6b d1 be a6 b5 48 be 3a 13 d6 3e e6 02 8b 3d
       -0.40901947 -0.19600543 0.41811544 0.06787662
0000d0 d9 21 ad 3e a3 d6 d4 be f9 fe 3a 3e 7f ce 4c bd
       0.33814886 -0.41570005 0.18261327 -0.050001618
0000e0 44 2b 80 bc 99 76 4f 3e 82 9f 0c bf c2 70 55 3e
       -0.01564563 0.20260085 -0.5493089 0.20843795
0000f0 69 d1 91 3d 18 3e c5 3e 66 07 f3 3e f8 fa 01 3f
       0.0712002 0.38523936 0.47466582 0.5077357
000100 11 c4 83 bd a0 73 2d 3e 0b 80 70 3e 6e e2 87 3d
       -0.06433881 0.16938639 0.23486345 0.06634985
000110 38 1d 09 3e 5c da a0 3d 69 c6 02 3f 5f 9f 96 bc
       0.13390052 0.07854149 0.51084 -0.018386541
000120 22 6f 2b 3f 85 71 56 3e 5c 20 1e be 4c 93 74 3e
       0.6696645 0.20941742 -0.15442032 0.23884314
000130 f2 57 fb 3d 72 21 aa 3d 8f 71 c3 3e 5a 8f 63 3d
       0.122726336 0.083071604 0.38172576 0.055556633

weight_hh_l0 f4 [80, 20]
000000 33 a6 3f 3e 1c 96 44 bc 37 a9 38 be fe e9 0d 3e
       0.18715744 -0.0119986795 -0.180333 0.13858792
000010 2a 31 ea 3d c5 09 a5 3e c2 f8 31 3d f9 41 7f 3e
       0.114351586 0.32234016 0.043450125 0.2492751
000020 88 96 ca 3c 9e 42 d0 bc fa 34 59 3e 5e 90 6b 3e
       0.024729982 -0.02542239 0.21211615 0.2300429
000030 05 2d 8f be 16 26 ed bd 2f 24 86 3e e8 1d 43 3e
       -0.27964035 -0.1157953 0.2619948 0.19054377
000040 89 d9 6b bd 94 2b 1b 3d 3d 8c 7b bd 1f 47 2d 3e
       -0.057580505 0.037883356 -0.06141304 0.16921662
000050 83 81 86 be b7 5f cf bb d8 5b b2 3b 56 df 32 be
       -0.26270685 -0.006328549 0.0054430775 -0.17468008
000060 58 21 7d be 92 94 0f bd a2 40 c1 bd 55 ba 42 bb
       -0.24719751 -0.035053797 -0.09436156 -0.0029713113
000070 d1 3b 8a be 0d b9 0b 3e c1 8e 7b 3c 23 bb a0 3d
       -0.2699876 0.1364481 0.015353859 0.078481935
000080 b0 aa 40 be 25 24 91 3e bd ef f4 3d 23 21 7b 3e
       -0.18815112 0.2834789 0.11959789 0.2452436
000090 77 1b 35 3e ca ac e4 3c 6a f8 18 3e 72 23 9d 3d
       0.17686258 0.027914423 0.14938512 0.07672776
0000a0 20 2c 3f 3e 54 94 48 3e 5f cb 7b bd 83 19 d4 bc
       0.18669176 0.19587833 -0.061473247 -0.025891071
0000b0 de 7e fc bc cd 6d 21 3e d1 49 1e be 34 a2 3c be
       -0.030822214 0.15764542 -0.15457846 -0.1842125
0000c0 5e 44 de bd 65 d4 a0 bd 71 63 20 bc 73 6d a1 bd
       -0.10852884 -0.07853011 -0.009789334 -0.07882204
0000d0 20 61 0e be ca ce 3f 3e f9 ad 75 bd 23 41 05 be
       -0.13904238 0.18731228 -0.059980366 -0.13013129
0000e0 02 18 42 3e 8b 1e 2f be ec 18 c5 3d f5 18 50 3e
       0.18954471 -0.17101495 0.09623894 0.2032202
0000f0 2d c0 9e be 98 bc 36 bd 77 37 c2 be ed 99 56 bd
       -0.31005993 -0.04461345 -0.3793294 -0.05239289
000100 b9 37 a9 3e 10 f4 2e 3e 78 0f 80 b9 28 3c f9 bd
       0.33050326 0.1708529 -0.00024425588 -0.12169677
000110 15 19 d8 be 88 bc b7 bd c6 2b 9a 3e 33 76 f5 3d
       -0.42206636 -0.08971506 0.3011152 0.11985435
000120 59 43 89 3e e9 c9 84 be 76 60 49 be 49 d0 89 3b
       0.26809195 -0.25935295 -0.19665703 0.0042057377
000130 8c f4 db be da dd ac 3e aa 6d be bd e3 3a ed bd
       -0.42960012 0.3376301 -0.092982605 -0.115834974
000140 68 d6 92 3e 0d 46 e8 3c 39 d8 07 3d 49 73 fd 3c
       0.28679204 0.028353715 0.03316519 0.030938761
000150 bd 96 51 3e ea 60 77 be 67 f4 81 be 77 79 5e 3d
       0.20467658 -0.24158064 -0.25381777 0.054315057
000160 b5 28 8b 3d ff d3 04 3e fe 5d 1b 3e 94 33 25 3e
       0.067948736 0.12971495 0.15172574 0.16132957
000170 1b c2 26 be 1d 89 5e be 16 66 34 be 19 9d c2 bd
       -0.16284983 -0.21731992 -0.17617068 -0.0950262
000180 17 9e 5c 3e 92 ab 9f 3c b3 0e a5 be 86 b4 5c 3e
       0.21544681 0.01949099 -0.32237777 0.21553239
000190 25 48 e9 bd 53 b5 34 be 59 b3 24 be 88 9c 8a bc
       -0.113907136 -0.17647295 -0.1608404 -0.016920343
0001a0 c9 3d 1c 3e 2f de 21 be 40 dc 58 be 0f c1 81 3c
       0.15257944 -0.15807413 -0.21177769 0.015839128
0001b0 d8 54 e3 3d 88 4a 2c be 4a ca 47 bd 11 9f 1d be
       0.11100167 -0.16825306 -0.048776902 -0.1539271
0001c0 0e e8 ac 3e c2 ef af be 25 3a 6f be bf 94 eb 3d
       0.33770794 -0.34362608 -0.23362024 0.115029804
0001d0 eb 0e ed 3d 46 fd 1c 3e b8 56 c8 bc b2 ff 9f bd
       0.11575111 0.15330991 -0.024455413 -0.07812442
0001e0 43 05 3f be 3a c4 d2 bd 5d f3 25 be a9 48 0b be
       -0.18654351 -0.102913335 -0.16206117 -0.13601936
0001f0 f4 c4 af 3d 81 d1 b6 3c 73 4f b1 ba 79 d1 78 be
       0.08582488 0.022316696 -0.0013527706 -0.24298657
000200 83 99 7e be e5 bd 70 bd da 7e 19 3e 0b 0d 38 3e
       -0.24863248 -0.058774848 0.14989796 0.17973725
000210 09 73 be 3e 9d 48 5a be 68 9c 28 3e 50 3a 6c 3e
       0.3719714 -0.21316762 0.16465914 0.2306912
000220 89 b2 28 be de 93 07 3d 80 22 b2 be c1 63 9d 3c
       -0.16474356 0.0331 -0.34791946 0.019212605
000230 b6 3d ab bd b8 44 79 be 10 73 f1 3d d5 d1 68 be
       -0.0836138 -0.2434262 0.117895246 -0.22736295
000240 69 8a 22 bd 02 49 02 3d 32 05 71 be f0 7d 02 bd
       -0.03968278 0.031807907 -0.23537138 -0.031858385
000250 32 a3 93 3d 20 ef 1a 3e 6f 29 e5 bd 59 47 90 3c
       0.072088614 0.15130281 -0.111895435 0.017612146
000260 05 2f 14 3e bf 33 01 be d5 25 ee bd 8d d8 97 3d
       0.14471062 -0.12617396 -0.1162831 0.07414351
000270 f2 e7 89 be 10 0c 83 3e cb 94 98 be 56 9f 8d 3e
       -0.26934773 0.2559514 -0.2980102 0.27660626
000280 84 7a 98 3d f8 ef 6c be ee c2 1f 3d b9 ce 57 be
       0.07445243 -0.23138416 0.03900426 -0.21074952
000290 ac 92 0b be cd fe 04 3d 15 d5 19 3e 0a 66 24 3d
       -0.1363017 0.03246956 0.1502269 0.040136375
0002a0 38 e1 06 be 5f 38 20 3c de 06 95 3b 06 2d 0a be
       -0.13171852 0.009779065 0.004547938 -0.13493738
0002b0 b6 71 0e 3e 3d 54 b5 bd ce 48 be 3d 24 2e 57 3d
       0.13910565 -0.08853958 0.0929123 0.052534238
0002c0 39 6c 83 bd 05 76 9e bb c5 b6 3a 3e 3c ba be bd
       -0.06417126 -0.0048358464 0.18233784 -0.09312865
0002d0 0a 25 1d 3e 98 2c fc bd 06 92 cc bd f4 3a f6 3d
       0.1534616 -0.12313193 -0.09988789 0.12022963
0002e0 46 87 11 be d7 0f 09 3e 49 e0 4a be 45 2b 10 be
       -0.14211759 0.13384949 -0.1981212 -0.14079006
0002f0 1c 6b aa 3d 19 33 27 be 9b 15 81 be 23 0b 63 be
       0.08321211 -0.16328086 -0.25211796 -0.22172217
000300 f4 7d 21 bd 47 fc 9c 3d e6 2f 3f 3e 65 21 06 3d
       -0.03942676 0.076653056 0.18670616 0.03274669
000310 45 73 95 3e 05 9b 12 be 0f 58 51 be 9d d6 db 3d
       0.29189506 -0.14316948 -0.20443748 0.107342936
000320 1e 21 63 be 1c bd 7f be 08 89 ac bc 9e f9 4b be
       -0.22180602 -0.24974483 -0.021061435 -0.1991944
000330 90 b5 a0 3d 92 a4 d1 3c 73 bd 43 3e 27 e6 8b bc
       0.0784713 0.025591169 0.19115238 -0.017077519
000340 f7 d1 2b be b6 bb df 3d 6f 39 a5 3d d3 77 d1 3d
       -0.16779314 0.10924475 0.08067595 0.10227933
000350 c8 f2 c7 bd 2d 01 28 3e ba 13 2f be 5e d2 a4 bc
       -0.09763104 0.16406699 -0.17097369 -0.020119842
000360 f1 c5 87 be 4e 7e 38 3e 17 19 25 3e 42 38 8d bd
       -0.26518205 0.18016931 0.16122852 -0.06895496
000370 58 1a 36 bd 5b cf a1 bd 16 f1 00 3d ad 03 99 3e
       -0.044458717 -0.07900878 0.031479917 0.29885617
000380 d0 45 26 be 70 f2 c4 3d f3 9b 8c bb b9 a3 02 be
       -0.16237569 0.09616554 -0.0042910515 -0.12757768
000390 30 30 6e 3e 30 d0 45 be 34 cc 12 be c1 87 84 3c
       0.2326057 -0.19317698 -0.1433571 0.016178014
0003a0 0f a2 21 be f0 4f 79 3e 16 7e 0d be 47 8c 91 3d
       -0.15784477 0.243469 -0.13817629 0.07106834
0003b0 f0 41 3e 3e d8 98 8f be 04 8c df 3d 61 bc 04 bc
       0.1857984 -0.28046298 0.10915378 -0.008101554
0003c0 a2 e5 6a be a8 de d9 bd f6 fc 1f 3b eb 62 86 bd
       -0.2293916 -0.106381714 0.002441225 -0.06561836
0003d0 ec 61 d0 3e 5b 6c 92 3c 44 7b 4a be c6 d7 66 be
       0.40699708 0.017873934 -0.19773585 -0.22543249
0003e0 2a 3d 3f be 0d 14 d8 3c 75 d6 96 3e e2 f8 0b 3e
       -0.18675676 0.026376748 0.29460493 0.1366916
0003f0 d4 54 f7 3e d7 93 8b be 7b ee ab bc 3b 51 6d be
       0.48306906 -0.2726123 -0.02098774 -0.23175518

bias_ih_l0 f4 [80]
000000 49 e5 c5 3d 2d 61 41 3d 09 19 e2 bd d2 1c ad 3e
       0.09662873 0.047211815 -0.11039931 0.3381105
000010 08 d3 1b be 01 cd d7 bd 46 65 14 3d 30 a7 80 3e
       -0.15217221 -0.10537148 0.036229394 0.25127554
000020 6c ea fc bd 52 c1 c1 3d 5b c6 4d 3e 28 11 ad 3d
       -0.123494 0.09460701 0.20095198 0.08450538
000030 2d 47 30 bd 5d ea ae 3e e7 22 96 be 66 df 6a bd
       -0.04303663 0.3416318 -0.29323503 -0.057341956
000040 24 36 28 be 84 58 ae 3d 50 8a eb 3e 77 41 8b 3e
       -0.16426903 0.08512977 0.46003962 0.27198383
000050 a8 af 0f be cd 73 52 be 9e e7 03 be 07 7c 8a bc
       -0.14031851 -0.20551987 -0.12881324 -0.016904844
000060 51 60 08 3e a4 83 a1 be a5 84 01 3e 04 58 60 3d
       0.13317992 -0.31545746 0.12648256 0.05477144
000070 44 11 52 3e ca 1c 43 be ca b3 0c be 4b 94 e0 3d
       0.20514399 -0.19053951 -0.13740459 0.10965785
000080 c0 64 81 3e 1f c5 3b bd cc 2b eb bd a9 7b 65 bd
       0.2527218 -0.045842286 -0.11482963 -0.056026135
000090 bd 78 3a bd 6d 64 8b bd b4 d8 61 be 21 53 52 be
       -0.0455253 -0.06806264 -0.22055322 -0.20539524
0000a0 76 b9 8e bd dd a0 4e bd 66 4e fd bd ee d7 02 bd
       -0.069689676 -0.05044638 -0.12368469 -0.031944208
0000b0 fd 3b 85 3d 22 0c 98 bb 03 fd 33 3d c6 c4 97 bd
       0.065055825 -0.004640118 0.043942463 -0.074105784
0000c0 5e 0b 72 bd a2 19 12 3e b1 5e 42 bc 46 88 7c bd
       -0.05909287 0.1426759 -0.0118633965 -0.061653398
0000d0 03 11 bc bd 12 3c 59 3d f0 94 18 3e 42 b3 41 3e
       -0.09182932 0.053035803 0.14900565 0.18916038
0000e0 a5 90 16 be 6e 84 b2 3a 83 73 5c 3e d0 7b 41 be
       -0.14703615 0.0013619789 0.21528439 -0.18894887
0000f0 90 8c bc 3d a7 89 58 bd 20 b4 26 3d 5d b8 da 3e
       0.09206498 -0.05286565 0.040699124 0.42718783
000100 5b 8a 51 be 3a 62 15 3e d4 af 9a 3e 52 99 af bd
       -0.20462935 0.14588252 0.3021227 -0.085741654
000110 ef f1 00 3e c3 77 29 be f9 7d 88 bd f1 93 94 3d
       0.1259229 -0.16549592 -0.066646524 0.0725478
000120 11 1f 24 3e 6f 2a b4 3e 41 26 73 be e9 25 a8 bd
       0.16027476 0.35188624 -0.23745061 -0.08210356
000130 d1 7c 00 be 48 0e 6f 3d e2 50 de 3e 4c 4c 94 bd
       -0.12547614 0.05836323 0.43421084 -0.07241115

bias_hh_l0 f4 [80]
000000 56 a5 4a 3a 84 b4 15 be 76 ab 12 bd 36 30 17 3e
       0.00077303255 -0.14619642 -0.03580805 0.14764485
000010 20 e4 06 3e 51 eb eb 3d 18 ef 2c bd 2d ab 09 bd
       0.1317296 0.115194924 -0.042220205 -0.03361051
000020 ec 12 86 3d 4e 28 c4 3d ba 64 32 bd 0d 91 3b bd
       0.06546578 0.09578 -0.04355309 -0.045792628
000030 49 ac ab 3e 8b ec 54 3e 7a c1 28 bb 78 34 e9 bb
       0.3352988 0.20793359 -0.0025750087 -0.0071168505
000040 38 cf 1d 3e dc de 46 3e 22 35 9a 3e b8 9a 2d 3e
       0.15411079 0.19420952 0.30118662 0.16953552
000050 12 21 3e 3e 6a d2 16 3d 20 a5 f5 3d 19 e7 61 be
       0.18567303 0.03682176 0.11994386 -0.22060813
000060 0b 52 2a be e8 fb 04 bd 7b 28 80 3d 15 bd 02 be
       -0.1663286 -0.0324668 0.06257721 -0.12767442
000070 3a 43 29 be fe 3e 6c be 2d fe c8 bd 51 e4 69 be
       -0.16529551 -0.23070905 -0.09814105 -0.22841002
000080 99 1a f2 3d 27 d9 a8 3c 36 4f e2 3d 0d c3 20 bd
       0.11821479 0.020611359 0.110502645 -0.039248515
000090 58 4b 08 be ee 86 c5 bd cc 65 13 3d 11 a1 53 3d
       -0.13309991 -0.096448764 0.035985753 0.051667277
0000a0 4c a3 83 bd 49 8a 7a 3d df 4c 37 be c5 10 00 3e
       -0.06427631 0.061167035 -0.17900418 0.12506397
0000b0 70 34 25 be 25 56 23 3e 6c 81 40 3c 17 57 0e 3e
       -0.16133285 0.1595083 0.011749607 0.1390041
0000c0 62 37 0b 3c fa 4e 48 be 34 d1 22 3e b6 44 14 3d
       0.008497091 -0.19561377 0.15900117 0.03619834
0000d0 d9 d3 d9 3c 85 9c 69 3d dd b3 98 bd 36 ec 0f be
       0.026590275 0.057034034 -0.07456181 -0.14054951
0000e0 0f 06 a8 3d 98 6a 0b 3e 57 fb bf bc 6b ac a8 3d
       0.082042806 0.13614881 -0.023435278 0.08236011
0000f0 c4 3a b5 bd bc 90 17 be 05 f4 59 3e 56 52 0e 3f
       -0.08849099 -0.14801306 0.21284492 0.55594385
000100 04 5e 7e 3d 64 1a 01 be f2 59 9a 3e 86 b3 1f be
       0.06210138 -0.12607723 0.30146748 -0.15595827
000110 0f 6c 02 be 5e e8 20 bd 5a 8a 43 3e b8 db 02 be
       -0.12736534 -0.039284103 0.19095746 -0.12779129
000120 c9 93 b0 3e d3 f9 ad 3e 04 37 00 be 98 ab 44 3d
       0.3448775 0.33979663 -0.12520987 0.048015207
000130 49 ed 8e 3d 74 fd 7a bd e9 bf a6 3e 59 80 0a be
       0.06978852 -0.061276868 0.3256829 -0.13525523

weight f4 [1, 20]
000000 cf 3b 07 be 71 1b 3b be da 04 8b be b9 82 cf be
       -0.13206409 -0.18272187 -0.2715214 -0.4052942
000010 55 1c 99 3d 40 b5 51 be 89 03 17 be 49 3d fa 3d
       0.07476107 -0.20479298 -0.14747442 0.122187205
000020 23 5d aa be a5 5a 1e bd 2d f3 a8 3e a7 b0 40 bd
       -0.33274183 -0.038660664 0.32998028 -0.04704347
000030 76 49 88 3e 9d b4 6f be fe 4e 5f bb 3a 1f 10 3b
       0.26618546 -0.23408742 -0.0034074183 0.0021991269
000040 2b 58 b2 bd 50 b8 a6 3d 04 10 10 bf ea c1 04 3e
       -0.08708223 0.081406236 -0.5627444 0.12964597

hidden_cell f4 [1, 1, 20]
000000 a0 ae 04 be 33 ca 09 bd 4b ff 4f be c6 77 e3 bb
       -0.12957239 -0.033640098 -0.2031223 -0.0069417683
000010 e9 7f d4 bc bc 61 e2 3c 64 32 63 3d 96 e1 cd 3b
       -0.025939899 0.027634494 0.055467978 0.0062829955
000020 87 ff a0 bd cf 44 1f bc be 4a 18 3e e7 c2 4a bc
       -0.07861238 -0.009720995 0.14872262 -0.01237557
000030 6e ed e0 bc 2a 66 fc 3c 7c ce 2c 3b a3 4b cc 3c
       -0.027456965 0.030810434 0.0026368191 0.02493841
000040 dc be 87 bd 48 24 08 3e d5 53 17 3a 5b 39 ca bc
       -0.066282004 0.1329509 0.0005772685 -0.024685552

hidden_cell f4 [1, 1, 20]
000000 5e f4 86 be e8 57 92 bd a5 e0 b1 be 39 af 10 bc
       -0.26358312 -0.07145673 -0.34741703 -0.008830839
000010 a3 f9 6d bd fc bc 53 3d 09 1f a9 3d 02 fb 62 3c
       -0.0580994 0.0516939 0.082578726 0.01385379
000020 fd 4e 19 be 58 e0 aa bc dc 13 91 3e f3 9e d2 bc
       -0.14971538 -0.020858929 0.28335464 -0.025710559
000030 5e 7e 29 bd 90 ef 34 3d fe 3c e1 3b 33 fa 4a 3d
       -0.04138028 0.044173777 0.006873726 0.049555015
000040 56 d3 0c be 86 e0 85 3e eb de 47 3a e4 7d 62 bd
       -0.13752493 0.2614786 0.0007624465 -0.05529584
