mlruns/0/2b91111ad1a6446f84404771e4101719/artifacts/model/data/model.pth (torch, 14120 bytes, 7 tensors)

weight_ih_l0 f4 [80, 1]
0.036320142 0.3641237 0.13218643 -0.07030626 0.16488825 0.18551065 -0.1277347 0.3650507
0.18294229 -0.08163821 0.029000212 -0.16255562 0.19115749 0.1755489 0.056791224 0.16732687
0.31326383 0.26861402 0.102675445 -0.10946668 0.14703502 -0.0034848952 0.10638859 0.198613
0.30513468 -0.06894559 0.031287648 0.12781169 0.3080285 -0.036088284 0.033102673 -0.13063781
0.013540693 0.21891937 0.2589852 -0.18555155 0.25948867 0.16786411 0.05970147 -0.14838128
0.12659588 0.42931098 0.3326425 -0.08894292 0.3387892 -0.27968863 0.2987606 -0.37204033
-0.21136157 0.008358497 -0.016663067 -0.11387754 0.0038654986 0.26726288 0.34995565 -0.2646854
-0.00648074 -0.20896706 -0.061199065 -0.29461396 0.20557164 0.2812639 -0.035816394 0.26434168
0.10642611 0.24317962 0.22337158 0.13426298 0.3985132 -0.12688358 0.2100408 -0.16214168
0.022920752 0.37639815 0.36919394 0.2622117 0.22144109 0.11393944 -0.10599704 -0.08844134
00000000: 6ec4 143d 6c6e ba3e e15b 073e bafc 8fbd
00000010: 77d8 283e 81f6 3d3e e3cc 02be ede7 ba3e
00000020: 3955 3b3e ef31 a7bd da91 ed3c fb74 26be
00000030: cabe 433e 17c3 333e ea9d 683d bc57 2b3e
00000040: 1e64 a03e c787 893e 8147 d23d 1130 e0bd
00000050: 5990 163e d762 64bb 43e2 d93d 3561 4b3e
00000060: 9d3a 9c3e 5833 8dbd 7a27 003d 11e1 023e
00000070: e9b5 9d3e 4fd1 13bd ab96 073d ebc5 05be
00000080: c8d9 5d3c 662c 603e b599 843e 3a01 3ebe
00000090: b3db 843e 92e4 2b3e 8789 743d 43f1 17be
000000a0: 5aa2 013e a6ce db3e 1e50 aa3e b527 b6bd
000000b0: c775 ad3e 5933 8fbe 26f7 983e 127c bebe
000000c0: 2b6f 58be 14f2 083c fc80 88bc a138 e9bd
000000d0: 4e54 7d3b aed6 883e 632d b33e d884 87be
000000e0: 635c d4bb 76fb 55be dfab 7abd a4d7 96be
000000f0: 5f81 523e d201 903e 36b4 12bd cb57 873e
00000100: eff5 d93d 1404 793e 85bb 643e 3c7c 093e
00000110: ec09 cc3e c5ed 01be ef14 573e 7808 26be
00000120: 4dc4 bb3c 42b7 c03e fd06 bd3e 9d40 863e
00000130: 74c1 623e 1559 e93d fa14 d9bd bc20 b5bd

weight_hh_l0 f4 [80, 20]
-0.17450084 -0.18783039 -0.23155226 0.07296874 0.08510589 0.15719323 0.060404133 0.2674924
-0.10973065 0.18234184 -0.0034294778 -0.1889669 0.05701312 -0.13435991 -0.22770119 0.37869895
-0.11936046 0.12914172 0.2942941 0.16437727 0.07268487 0.07819277 0.032429773 -0.05718371
0.24011278 0.06270936 -0.1874722 -0.18042567 0.23119631 -0.14269198 -0.16370633 0.24159902
-0.16467117 0.10264236 -0.11487366 0.23218526 -0.031440955 -0.14365652 0.16307794 0.012706384
0.14247012 -0.15829483 0.04150463 0.16265796 0.015517748 -0.12294573 -0.15828337 -0.12625015
-0.001532235 -0.007400368 -0.10404484 0.0835584 0.21415272 0.034656312 -0.15678388 0.32906422
0.2294977 0.034119368 0.10014658 -0.059429713 0.05419141 0.03523881 -0.03822885 -0.17401308
-0.20893991 -0.056607068 -0.11069293 0.21276873 0.23911905 -0.12818393 -0.08119367 -0.071332775
0.12458374 -0.13429391 0.015058839 0.15708406 -0.04021194 0.1954989 -0.006475187 -0.09098924
-0.013795497 0.08737806 0.0049356725 0.2545176 0.072816364 0.14400885 -0.027341729 -0.10548085
-0.016783074 -0.1591799 -0.27035257 0.16711971 -0.120663114 -0.03075834 -0.13705969 -0.063745424
-0.14507386 -0.028914955 0.3302621 -0.088611215 -0.009620954 0.078710556 -0.21099214 0.2409523
-0.083244786 0.17968471 -0.23213014 -0.116052225 0.2794133 -0.10063683 0.0056035607 -0.07108121
0.22507048 0.12754457 -0.034198847 0.18405132 0.1679221 0.07548258 0.30099252 0.20738974
0.11947772 -0.017313661 0.19133969 0.26702267 0.16533606 -0.0678942 0.08238307 -0.13929458
0.037165713 -0.1881883 0.07479186 -0.15143766 -0.10816386 -0.12939505 -0.02818865 0.018982308
0.21363816 -0.02248 0.11699295 0.048047926 0.062468514 -0.05245318 -0.008508205 0.1989968
0.11916911 -0.14979354 0.2159219 0.097318545 -0.04069382 -0.22170535 -0.13511643 0.22573932
-0.06456924 0.11329022 -0.020685093 0.059587926 0.06086447 -0.098006964 -0.028121158 -0.036736444
-0.0100479 -0.19665156 -0.032532353 0.1154919 0.024300864 0.13370658 -0.020339223 -0.024933672
0.15008283 -0.0025947872 -0.051608764 0.07823271 0.15935282 0.03777642 -0.24265003 -0.036731772
-0.059566822 -0.10298626 0.22447222 -0.06517646 -0.17446174 0.118391834 -0.14180338 -0.17812507
0.007483637 0.20790091 -0.061721645 0.22687186 0.24816453 0.17641646 -0.0404162 -0.009073753
-0.039434217 -0.07066129 0.06842295 -0.0851307 0.26293746 0.006303079 0.13778643 0.1587998
-0.13469774 0.029100439 0.1304265 0.012255577 -0.014966995 -0.11398672 -0.22934057 -0.0947769
-0.09630114 0.010655314 -0.19249225 0.052540973 0.21135946 -0.18346177 -0.2774161 -0.016780091
0.10142671 0.16131799 0.26587784 0.14672215 0.16917394 -0.14109188 0.009329165 0.325199
-0.0901901 0.032729194 0.14195845 -0.0578459 0.10051529 -0.1504391 0.08070317 0.090001106
-0.038154677 -0.11123056 -0.18907046 0.1710197 0.18241125 0.24966042 0.23205437 0.0333355
-0.14859913 -0.15663879 0.06178944 0.4292601 0.07449301 0.2505908 -0.07709863 0.11408318
0.17138194 0.02300177 -0.064166784 0.035617515 0.010818945 -0.17982616 -0.028682832 0.3447475
00000000: 59b0 32be 9c56 40be 091c 6dbe a270 953d
00000010: ff4b ae3d 43f7 203e 536a 773d c4f4 883e
00000020: 77ba e0bd d2b7 3a3e 17c1 60bb 8a80 41be
00000030: 9786 693d a595 09be 802a 69be d4e4 c13e
00000040: 4273 f4bd ba3d 043e b7ad 963e 8452 283e
00000050: cedb 943d 8823 a03d 15d5 043d 7739 6abd
00000060: 20e0 753e c46d 803d b6f8 3fbe 82c1 38be
00000070: babe 6c3e d91d 12be a2a2 27be bc65 773e
00000080: 8f9f 28be 2836 d23d e242 ebbd f9c1 6d3e
00000090: 3bc8 00bd b21a 13be e7fd 263e 702e 503c
000000a0: b0e3 113e 0a18 22be c200 2a3d cf8f 263e
000000b0: 273e 7e3c f9ca fbbd 0915 22be b847 01be
000000c0: 46d5 c8ba c97e f2bb 7615 d5bd ab20 ab3d
000000d0: da4a 5b3e c7f3 0d3d f48b 20be 1b7b a83e
000000e0: 7201 6b3e c0c0 0b3d a619 cd3d 926c 73bd
000000f0: d0f7 5d3d 9256 103d db95 1cbd 7c30 32be
00000100: 58f4 55be d0dc 67bd fab2 e2bd 0ce0 593e
00000110: a0db 743e a642 03be de48 a6bd eb16 92bd
00000120: c325 ff3d 5884 09be 59b9 763c a5da 203e
00000130: 46b5 24bd dd30 483e ce2d d4bb 9158 babd
00000140: 8206 62bc 45f3 b23d 6cbb a13b 2250 823e
00000150: bf20 953d 0e77 133e c3fb dfbc 5806 d8bd
00000160: a87c 89bc 0e00 23be a76b 8abe 6e21 2b3e
00000170: 391e f7bd eaf8 fbbc 6059 0cbe f68c 82bd
00000180: 3e8e 14be 0edf ecbc 1d18 a93e cc79 b5bd
00000190: 35a1 1dbc 0033 a13d 530e 58be 33bc 763e
000001a0: 3e7c aabd 45ff 373e 86b3 6dbe caac edbd
000001b0: 430f 8f3e af1a cebd 139e b73b 0793 91bd
000001c0: e078 663e 0b9b 023e 1714 0cbd f377 3c3e
000001d0: c5f3 2b3e 9c96 9a3d b11b 9a3e fa5d 543e
000001e0: bcb0 f43d 61d5 8dbc 8dee 433e 32b7 883e
000001f0: db4d 293e 1d0c 8bbd 74b8 a83d 3da3 0ebe
00000200: 133b 183d 6fb4 40be 7a2c 993d 7912 1bbe
00000210: 0485 ddbd 2380 04be e2eb e6bc c980 9b3c
00000220: f6c3 5a3e fa27 b8bc 009a ef3d e7cd 443d
00000230: fcde 7f3d 25d9 56bd 0066 0bbc d1c5 4b3e
00000240: ef0e f43d 7a63 19be a11a 5d3e f24e c73d
00000250: 90ae 26bd ba06 63be f65b 0abe 3528 673e
00000260: e13c 84bd b404 e83d c973 a9bc 7812 743d
00000270: 064d 793d e0b7 c8bd 585e e6bc f478 16bd
00000280: f29f 24bc 075f 49be a540 05bd 0487 ec3d
00000290: 9b12 c73c 61ea 083e 719e a6bc b341 ccbc
000002a0: 50af 193e 4e0d 2abb b663 53bd 7938 a03d
000002b0: 632d 233e 73bb 1a3d 4079 78be 0e74 16bd
000002c0: 57fc 73bd 76ea d2bd 0cdc 653e 3c7b 85bd
000002d0: 19a6 32be 6b77 f23d e834 11be 6b66 36be
000002e0: 4c39 f53b fae3 543e d6cf 7cbd 1951 683e
000002f0: d81e 7e3e 84a6 343e 758b 25bd 14aa 14bc
00000300: c685 21bd deb6 90bd 5521 8c3d 0159 aebd
00000310: bd9f 863e 0f8a ce3b e317 0d3e 6a9c 223e
00000320: 34ee 09be 0b64 ee3c 868e 053e 9ecb 483c
00000330: 2138 75bc df71 e9bd 41d8 6abe 641a c2bd
00000340: 8839 c5bd a093 2e3c b01c 45be 3435 573d
00000350: 9d6e 583e 67dd 3bbe 7c09 8ebe 6776 89bc
00000360: cfb8 cf3d 8b30 253e 2421 883e 553e 163e
00000370: ef3b 2d3e 647a 10be 5bd9 183c 7c80 a63e
00000380: 96b5 b8bd 0c0f 063d 8e5d 113e d3ef 6cbd
00000390: f6da cd3d b50c 1abe b447 a53d 8052 b83d
000003a0: 1448 1cbd d9cc e3bd b09b 41be ca1f 2f3e
000003b0: 04ca 3a3e fba6 7f3e a99f 6d3e ce8a 083d
000003c0: 5f2a 18be eb65 20be ed16 7d3d fbc7 db3e
000003d0: cb8f 983d 704d 803e e3e5 9dbd 71a4 e93d
000003e0: bf7e 2f3e 356e bc3c e069 83bd ace3 113d
000003f0: f241 313c 5924 38be 42f8 eabc bf82 b03e

bias_ih_l0 f4 [80]
0.07371947 0.23088403 -0.1334848 0.057275567 0.013021249 -0.023720546 0.23643434 0.15328695
0.21195506 -0.27414542 -0.07688307 -0.15788457 0.17684303 -0.0052091163 -0.026843565 -0.19389115
0.16036034 -0.013017223 0.09662497 -0.09865373 -0.01809474 0.17453067 0.1263123 -0.07906309
-0.075454004 -0.031892743 0.1714693 -0.0147058815 -0.10507296 0.16238289 0.10591217 -0.18425757
-0.19398427 0.27376777 -0.13974907 -0.11955482 -0.08115826 0.09829405 -0.1325122 -0.05611775
0.20909426 0.13848205 0.17653449 -0.14368038 0.19051489 0.023242895 -0.1195573 -0.12038124
-0.2576382 -0.13361685 0.12983678 0.048969965 0.07009254 0.017599843 -0.043915447 0.022932777
-0.22493571 -0.19585006 0.09725228 0.08425127 0.14211181 -0.2016291 0.0038963277 0.1532579
-0.21209417 -0.18962517 -0.16447344 0.17922388 -0.18258855 -0.22972086 -0.29798657 -0.27448246
-0.24101973 0.1005423 0.057051204 0.10687389 -0.18621065 -0.04786872 -0.19447821 -0.120486245
00000000: 3cfa 963d dd6c 6c3e 3db0 08be c999 6a3d
00000010: 1457 553c 9751 c2bc d81b 723e 41f7 1c3e
00000020: bf0a 593e ca5c 8cbe df74 9dbd 7eac 21be
00000030: 5716 353e 3cb1 aabb 09e7 dbbc 678b 46be
00000040: 8035 243e 3146 55bc 50e3 c53d f70a cabd
00000050: 6c3b 94bc 2bb8 323e 0358 013e d4eb a1bd
00000060: a187 9abd f7a1 02bd a695 2f3e f0f0 70bc
00000070: 7e30 d7bd b347 263e 7be8 d83d 04ae 3cbe
00000080: d0a3 46be 4a2b 8c3e 611a 0fbe 28d9 f4bd
00000090: 4d36 a6bd 644e c93d 47b1 07be badb 65bd
000000a0: ce1c 563e 3dce 0d3e 75c5 343e f320 13be
000000b0: 5616 433e e267 be3c 75da f4bd 718a f6bd
000000c0: 27e9 83be dbd2 08be eff3 043e bb94 483d
000000d0: ad8c 8f3d 8c2d 903c afe0 33bd 85dd bb3c
000000e0: 8c55 66be eb8c 48be 342c c73d ee8b ac3d
000000f0: c285 113e dc77 4ebe 8859 7f3b a4ef 1c3e
00000100: 372f 59be 1a2d 42be ba6b 28be 7786 373e
00000110: 7ef8 3abe f23b 6bbe b291 98be f788 8cbe
00000120: e0cd 76be 1fe9 cd3d 86ae 693d b3e0 da3d
00000130: 01ae 3ebe fe11 44bd 4c25 47be 7ec1 f6bd

bias_hh_l0 f4 [80]
0.073685795 0.052909188 -0.22223006 -0.2011059 0.2207626 -0.016735282 0.19047023 -0.16448419
-0.17427576 -0.19127743 -0.28910077 0.025820684 -0.19479086 0.23647816 0.273489 -0.010646484
-0.06776283 0.22102696 -0.113973 0.02163327 -0.028572232 -0.10271617 -0.12731965 0.039574813
0.14160791 0.1966002 -0.05946309 0.14946753 -0.11036184 0.07558618 0.10369579 0.08280313
-0.19502833 0.20383164 -0.053925164 -0.05829397 -0.040658753 -0.015231109 0.05209864 -0.2413217
0.10296031 -0.122971594 -0.19666715 0.16456313 0.24946566 -0.18064976 0.091197975 0.02425008
-0.076784655 -0.12033136 -0.1798539 0.05729019 -0.1290375 0.17360814 -0.10528204 0.023756294
0.009916422 -0.024839776 0.055511285 0.10609433 -0.13936433 -0.20880675 -0.25404853 -0.24834174
-0.037717335 0.06131895 -0.122979395 -0.20504142 -0.1533539 0.0821163 -0.19644366 0.0066350983
-0.13866039 -0.09649074 -0.07419982 -0.13441998 0.080653496 0.08783563 -0.17782903 -0.13763702
00000000: 94e8 963d 4eb7 583d 4790 63be b4ee 4dbe
00000010: 970f 623e 6e18 89bc a10a 433e 8b6e 28be
00000020: 5875 32be 3bde 43be 0405 94be e685 d33c
00000030: 4177 47be 5527 723e c006 8c3e 976e 2ebc
00000040: 3dc7 8abd e454 623e ad6a e9bd 4138 b13c
00000050: 5010 eabc db5c d2bd 1560 02be 3319 223d
00000060: aa01 113e 9051 493e 928f 73bd 040e 193e
00000070: 6305 e2bd edcc 9a3d 755e d43d b094 a93d
00000080: 82b5 47be 3eb9 503e a2e0 5cbd a8c5 6ebd
00000090: cb89 26bd e78b 79bc 6265 553d 091d 77be
000000a0: dbdc d23d 88d8 fbbd 1d63 49be 3d83 283e
000000b0: ed73 7f3e 40fc 38be 01c6 ba3d 1ba8 c63c
000000c0: 4641 9dbd 4a70 f6bd 9f2b 38be 1ea9 6a3d
000000d0: 6822 04be 55c6 313e 1c9e d7bd 8f9c c23c
000000e0: 7d78 223c c97c cbbc cd5f 633d fc47 d93d
000000f0: 86b5 0ebe 70d1 55be a612 82be 4c4d 7ebe
00000100: 7e7d 1abd 9429 7b3d 9fdc fbbd 61f6 51be
00000110: ce08 1dbe 972c a83d 8728 49be 3d6b d93b
00000120: fdfc 0dbe f09c c5bd 13f6 97bd 64a5 09be
00000130: a92d a53d 2be3 b33d d018 36be b8f0 0cbe

weight f4 [1, 20]
0.059326276 0.18305221 0.08225102 -0.15296534 0.085832804 -0.08470464 0.1403795 -0.11192183
-0.23434299 0.061309252 0.067546755 -0.045228638 0.01706017 0.26600346 0.09790949 -0.16234139
-0.18612997 -0.08097951 -0.12005944 -0.16827384
00000000: 1c00 733d 0a72 3b3e 3973 a83d f2a2 1cbe
00000010: 1cc9 af3d a079 adbd a5bf 0f3e 4637 e5bd
00000020: 9cf7 6fbe 691f 7b3d f455 8a3d aa41 39bd
00000030: c5c1 8b3c 9b31 883e c584 c83d d23c 26be
00000040: db98 3ebe 96d8 a5bd b9e1 f5bd fa4f 2cbe

hidden_cell f4 [1, 1, 20]
0.09553434 0.05409994 0.026498197 -0.018300405 0.23138289 -0.06089948 -0.0129643185 -0.13031372
-0.1575778 -0.0194696 0.020593809 0.020188838 -0.04174765 0.28865114 -0.05435109 0.01867805
-0.1262274 -0.17510566 -0.0024072863 0.027972069
00000000: 82a7 c33d e697 5d3d bf12 d93c bbea 95bc
00000010: a3ef 6c3e bc71 79bd 4b68 54bc f670 05be
00000020: 135c 21be b67e 9fbc 59b4 a83c 1063 a53c
00000030: 95ff 2abd 15ca 933e 409f 5ebd b602 993c
00000040: c141 01be e64e 33be 90c3 1dbb ae25 e53c

hidden_cell f4 [1, 1, 20]
0.21495755 0.14069343 0.06614636 -0.038341913 0.5612575 -0.13703053 -0.029155128 -0.26455504
-0.3661133 -0.046661735 0.06458436 0.050982688 -0.105951466 0.6642503 -0.10748856 0.039004043
-0.29512626 -0.38748536 -0.005848426 0.070779905
00000000: d51d 5c3e f011 103e be77 873d 690c 1dbd
00000010: 92ae 0f3f bb51 0cbe bcd6 eebc c273 87be
00000020: 3473 bbbe 6020 3fbd ce44 843d 39d3 503d
00000030: 15fd d8bd 4f0c 2a3f f622 dcbd b4c2 1f3d
00000040: ca1a 97be 7b64 c6be 27a4 bfbb 0ef5 903d
