mlruns/0/976f49c99a6b47d2b640c0f9805db22b/artifacts/model/data/model.pth (torch, 14120 bytes, 7 tensors)

weight_ih_l0 f4 [80, 1]
000000 10 60 bd 3e 0f 83 14 be 77 d7 8a 3e c8 fd 6a 3d
       0.36987352 -0.1450312 0.27117512 0.05737093
000010 78 6d 60 3e 34 69 6f 3e 02 2d 6b 3d 68 a0 16 3e
       0.21916759 0.23379976 0.05741597 0.14709628
000020 ac d4 49 3e 6c d0 ad 3e b3 4f e4 3c 6f 86 39 bd
       0.19710034 0.33948076 0.027870035 -0.04529422
000030 ad e7 d9 3e 36 46 23 3e aa 27 9f 3e 9a ba 0c 3f
       0.42559567 0.15944752 0.3108495 0.5497223
000040 d2 e1 d5 3d a9 b3 0a be c7 bd cd 3e 5f a8 18 3f
       0.104434624 -0.13545097 0.4018385 0.59631914
000050 5b 30 86 3e 96 a1 a7 bd 0f 01 7e 3e 2a 89 9f 3d
       0.26208767 -0.08185117 0.24805091 0.07789834
000060 98 f5 a3 3c 12 b2 34 3e 55 fa e6 3d 64 fc 6a 3e
       0.02001457 0.17646053 0.11278216 0.22947842
000070 44 ac 9a bd dc a3 c1 bd d1 a4 a9 be d4 fa 14 be
       -0.07552388 -0.09455082 -0.33133557 -0.14548808
000080 30 13 00 3e 9c 21 58 3c 3e 7d 9b 3e 7c b7 7d 3e
       0.1250732 0.013191607 0.3036899 0.24777025
000090 e5 bf f4 3d 9e 26 b9 3d f7 03 03 bd d7 b6 8e 3e
       0.119506635 0.09040569 -0.031986203 0.2787387
0000a0 54 fb 1c be 60 d1 2a bd 65 b4 bb be fc 06 79 3e
       -0.15330249 -0.04170358 -0.36661068 0.2431907
0000b0 92 f2 9c be 12 18 d1 be 45 5f 53 be 7b b9 8f be
       -0.30653816 -0.40838677 -0.20641811 -0.28071198
0000c0 20 4a fc 3d 7d 71 c4 be fd 3c d1 3e 2e 50 10 3e
       0.12318826 -0.38367835 0.40866843 0.14093086
0000d0 d1 43 27 bf de 43 eb be a4 b6 9e 3e 12 68 17 bf
       -0.65337855 -0.45950216 0.3099872 -0.59143174
0000e0 65 87 b3 bd 4d 75 30 bd d3 45 16 3f ac fa 17 bf
       -0.08766059 -0.043080617 0.58700293 -0.5936687
0000f0 d3 78 04 3f 7e b6 6f 3e 66 e8 e7 3d 1f 6f 76 3d
       0.51746863 0.23409459 0.11323623 0.060164567
000100 94 33 d0 3e ff d6 c1 3e 26 92 dc 3e 48 3a 00 3f
       0.4066435 0.37859342 0.43080252 0.5008893
000110 5d de b1 3b ef 58 03 3e aa 7b b6 3d af 86 24 bd
       0.005428119 0.12826894 0.08910306 -0.040167507
000120 57 7b 29 3e 18 73 11 3f ac e8 fb 3e d5 96 13 3f
       0.16550957 0.56816244 0.49200952 0.57652026
000130 95 b1 e6 3e 7d d5 18 be fb a9 9c 3e 81 cf 0e 3f
       0.4505736 -0.1492519 0.30598435 0.55785376

weight_hh_l0 f4 [80, 20]
000000 2f a2 32 be 1d b3 09 3d 6e 60 9c bd e7 1e 39 3e
       -0.1744468 0.03361808 -0.0763558 0.18078195
000010 94 3d c2 bd b0 d9 44 3e d3 b9 3e be ca e1 4e be
       -0.09484401 0.19223666 -0.18625574 -0.20203319
000020 d7 00 d7 3d 59 59 23 3c 0d 37 72 be 3e c2 9e 3d
       0.10498207 0.009970033 -0.23653813 0.077518925
000030 c0 17 4b bb e7 60 f9 bd 57 d3 72 3d ad 11 10 3c
       -0.0030989498 -0.12176686 0.05928358 0.008793277
000040 6e c8 61 3d 51 83 d3 bd 5e 3d 88 bc 79 35 89 3d
       0.055122785 -0.10327781 -0.016630825 0.06699652
000050 1c 8b 3f 3e 29 76 e0 3c 6f 9e 2c be 0c 2f 08 be
       0.1870541 0.027400093 -0.16857313 -0.13299197
000060 34 1e f4 3d 9d 78 68 3e 7f 5c 4b 3c 8f 49 84 bd
       0.11919823 0.2270226 0.0124121895 -0.06459343
000070 4b 17 24 bd 2d 08 87 3e 7b 03 49 3d 18 0f 6b 3e
       -0.040061276 0.26373425 0.049075585 0.22954977
000080 4d 1e 2c 3e 15 66 5d 3b d0 24 b1 bd 85 71 9b 3e
       0.16808434 0.003378277 -0.086495996 0.30360046
000090 a0 a7 e4 bd 0d c8 78 3d 8e 0f 5e 3d 4d 1d a0 3e
       -0.111647844 0.06073766 0.054214053 0.31272355
0000a0 ba a8 a8 3c 44 25 6a be ad ea 39 3e cf 8c 51 3e
       0.020588268 -0.22865778 0.18155928 0.2046387
0000b0 4b 34 95 bd ad b2 3e bd 52 3e a3 bc 67 20 78 be
       -0.07285365 -0.046557117 -0.019927178 -0.2423111
0000c0 44 01 88 3d 4f a1 1c 3e ff 29 5a be 54 96 f7 3d
       0.066408664 0.1529591 -0.21305083 0.1208922
0000d0 1d 24 f7 3d 8e d5 4f 3e fa be 08 3e ee cc 6f bc
       0.12067435 0.20296308 0.13354102 -0.014636261
0000e0 6c 54 b7 3b e5 14 71 be 5b b1 e6 3c 00 1a 1d 3e
       0.0055947807 -0.23543127 0.028160742 0.1534195
0000f0 5e 4d 28 bd 2b 68 b6 bd a6 cf f2 bd c4 da 74 3e
       -0.041089408 -0.08906587 -0.11856012 0.23911577
000100 75 9f 1c 3e 00 a4 bf 3c a7 bf de bc 9d 73 bb 3d
       0.15295203 0.023393631 -0.027190996 0.09152911
000110 1a f7 30 be ae 1b 45 3e c6 ac 46 be 4f b1 73 be
       -0.17281762 0.1924884 -0.19401845 -0.23798107
000120 c6 60 7e bd 26 4a 8d bd 4b 91 81 3d ce 9b 57 3e
       -0.06210401 -0.06898908 0.063265406 0.21055529
000130 cf 7e 1f 3e 73 e6 2d 3d 61 56 cd 3d 93 04 37 3e
       0.15575717 0.0424561 0.10026241 0.17872839
000140 8e 36 a9 3d c4 33 1b bc f0 c9 4b 3e d8 90 00 be
       0.082623586 -0.009472791 0.19901252 -0.12555254
000150 76 77 14 3e 5e f3 95 3e 77 bd 22 be 82 b8 37 be
       0.14498696 0.29287237 -0.15892588 -0.17941478
000160 a1 fb 25 3e c6 a7 12 3e a4 0b 90 be 44 0b 43 3d
       0.1620927 0.14321813 -0.2813388 0.047618166
000170 15 77 d6 3d 56 a3 2e 3e a5 65 66 be 71 45 5d 3e
       0.10471932 0.17054495 -0.22499712 0.21608521
000180 1e b7 53 3e a7 2f 4e be f5 e3 18 be 22 40 dc 3d
       0.20675322 -0.20135365 -0.14930709 0.1075442
000190 70 9f 22 be d9 54 23 be 08 c6 18 3d 57 22 48 3e
       -0.15881133 -0.15950336 0.037298232 0.1954435
0001a0 37 cb 06 be e7 4a 9f 3d c6 de 82 be 74 7b 4a bd
       -0.13163458 0.07777958 -0.25560588 -0.04943414
0001b0 b7 34 9f 3e 15 fc 35 be 8a fc b3 bd ab f8 29 3c
       0.31094906 -0.17771943 -0.087884024 0.0103742285
0001c0 e4 d5 ba 3c 09 d8 e0 bd 2f a1 38 3e 44 bc 23 be
       0.02280707 -0.109787054 0.18030237 -0.15989786
0001d0 10 96 76 be d6 14 6a 3d 74 76 2e 3c bc d5 6d bc
       -0.24080682 0.057148777 0.010648359 -0.01451629
0001e0 d2 3f 20 3d ef b1 a1 bd 0e a6 0d 3e ed 4b 37 be
       0.039123364 -0.07895266 0.13832876 -0.17900057
0001f0 31 f7 c1 3b 27 c1 d2 39 a8 e6 1e 3e 39 0d 9e 3d
       0.00591936 0.0004019823 0.15517676 0.07717366
000200 20 25 42 bd 37 9a 21 3e 35 d5 5c be 16 88 81 bd
       -0.047398686 0.15781485 -0.21565707 -0.063247845
000210 e5 da 17 3e a4 e7 a3 3d 17 57 8f bc dc 84 41 3e
       0.14829595 0.08003166 -0.017497582 0.18898338
000220 6b b7 1e bd 72 d0 01 3e 7a 49 d0 bc 68 03 4a 3e
       -0.03874914 0.12677172 -0.025425661 0.19727862
000230 84 a4 6f be 7b c8 0e bb 39 c7 69 be 03 21 1b be
       -0.23402601 -0.0021786976 -0.22829904 -0.15149312
000240 57 bd 14 3e 67 a6 12 3e c9 d1 36 3e 07 ec 0c 3e
       0.14525352 0.1432129 0.17853464 0.13761912
000250 39 7f 14 bc d6 d9 90 bc dd 3e 02 bd 88 ac 4e be
       -0.009063535 -0.017681997 -0.031798232 -0.20183003
000260 b5 7c aa bd 89 ae 08 3a ac c7 39 3e 82 f8 da 3b
       -0.08324567 0.0005213996 0.18142575 0.0066824565
000270 60 15 5a be 72 3f f3 3d 26 d0 9d be 24 d1 74 3e
       -0.21297216 0.118773356 -0.30822867 0.23907906
000280 2c c8 5a 3e e3 81 11 3e 22 8c 37 be a8 68 a1 3d
       0.21365422 0.14209704 -0.1792455 0.0788129
000290 48 28 11 3d 8e c6 be 3d 2f 25 ad bc 03 61 fb 3d
       0.035438806 0.09315215 -0.021135895 0.12274363
0002a0 32 b1 14 3e 29 9c fe ba 45 25 5b 3d 88 db 05 3e
       0.1452072 -0.0019425201 0.05350234 0.13072026
0002b0 8c 6e 22 3e 66 27 89 3e 50 ce df bd 10 fb ca 3e
       0.15862483 0.2678787 -0.10928023 0.3964467
0002c0 64 65 f2 bc b0 da 8b be 6b 6e d7 bd 3a 71 20 3d
       -0.029589362 -0.27315283 -0.105191074 0.03917048
0002d0 7b 2a 84 be cf b4 db bc 21 1a 5a be d8 bb 88 3d
       -0.2581366 -0.026819615 -0.2129903 0.06676453
0002e0 77 02 1a be c4 af a8 be e3 0f 8b be 34 bb 47 be
       -0.15040003 -0.329466 -0.27160558 -0.19505006
0002f0 19 0f b2 3e da 65 cb bd 45 42 96 3e 5d f6 57 3d
       0.34777144 -0.09931536 0.29347435 0.052725185
000300 72 9c 6b be fe d8 58 be 68 91 f8 3e 86 15 b4 bd
       -0.23008898 -0.21176526 0.48548436 -0.08793168
000310 71 75 c0 be 2b 9d ab 3d 2c 4f 5b 3e 14 a9 8c be
       -0.375896 0.08379587 0.2141692 -0.27472746
000320 5f a9 cd be de 36 07 be e9 a9 b5 bd ff 39 32 3d
       -0.40168282 -0.13204524 -0.088702984 0.04351234
000330 07 7a b0 be 35 50 a3 bd a1 92 81 be e7 7d 68 be
       -0.344681 -0.07974283 -0.2530718 -0.22704278
000340 ed f9 4e 3e 5e 86 53 3e bf b2 f8 3d 60 e2 79 be
       0.20212527 0.20656726 0.12143468 -0.24402761
000350 79 cb a8 3d 23 f1 bb bd aa 82 e4 3e e4 70 94 be
       0.08241934 -0.091768526 0.4463094 -0.2899238
000360 27 e0 c9 be cb 3e 6e 3e d0 cc 11 be 5e 8d e2 be
       -0.39428827 0.23266141 -0.14238286 -0.4424848
000370 9e 10 af 3c 1f 53 2d 3e 3f 20 20 3e 1d 55 c1 3d
       0.021370228 0.1692624 0.15637301 0.09440062
000380 13 56 f0 3d a3 a8 88 3e 4a 5b 52 3d 0e fe 0d 3e
       0.11735167 0.2669116 0.05135659 0.13866445
000390 2d c1 10 3b 39 74 23 be 2e 1c b4 3d 65 47 16 be
       0.0022087798 -0.15962304 0.08794437 -0.14675672
0003a0 28 3c ce 3d 76 97 3a 3e 41 bf f0 3d 76 08 82 3e
       0.10070068 0.1822184 0.11755229 0.2539708
0003b0 17 20 8b 3e 3f 17 bd bd 15 5f 24 be 9d 1e 9c bd
       0.2717292 -0.092329495 -0.16051896 -0.076230265
0003c0 69 4f 09 bf 61 e3 c1 be 35 0f c7 be f6 42 c7 3e
       -0.53636795 -0.3786879 -0.3887879 0.38918275
0003d0 a1 59 4c be 86 1b 8f bd 0b 45 cc be 15 4d 93 be
       -0.19956066 -0.069876716 -0.39896426 -0.28769746
0003e0 9a d1 ac 3e bd 4a f8 bd cd 54 a6 3e 67 09 2c be
       0.33753663 -0.1212363 0.32486573 -0.16800462
0003f0 1c c0 80 3d 75 07 11 bf c0 4f 03 3f f0 f4 c8 be
       0.06286642 -0.56652004 0.51293564 -0.39249372

bias_ih_l0 f4 [80]
000000 02 48 07 be ec 5c a9 bd 34 36 35 3e 7f 79 b4 3d
       -0.13211063 -0.082696766 0.17696458 0.08812236
000010 84 8d c8 3d 20 83 5c bc be ba 99 3c f8 32 9f bd
       0.09792617 -0.013458997 0.018765803 -0.077733934
000020 0d e9 8a 3d 0d ae 2b 3e 00 78 0f 3e a1 ca af 3d
       0.06782732 0.16765614 0.1401062 0.0858357
000030 e1 c1 4a 3e b8 45 87 3e d2 33 1a 3e 56 bb e9 3e
       0.19800521 0.2642038 0.1505883 0.45650738
000040 b8 65 dc ba aa 64 c9 bd 44 ee c4 3e 0b b7 9a 3e
       -0.0016814983 -0.09833653 0.38463032 0.30217776
000050 ce 6b 4e be fc a4 31 3e 6e 6f ee bc 8c 0b ac 3d
       -0.20158312 0.17348093 -0.029105868 0.0840064
000060 fb b6 b3 3d 4f 11 e8 3d d7 93 39 3d 7e c8 f5 3d
       0.08775135 0.11331426 0.045307007 0.120011315
000070 12 ce 3b 3c b7 1b 73 be a5 38 cc be 18 91 7b be
       0.011462705 -0.23741041 -0.39886966 -0.24567068
000080 55 40 58 bd b5 f7 fe bc 93 01 55 be ce 83 df bd
       -0.052795727 -0.031123975 -0.20801382 -0.109138116
000090 3d cd 72 3d aa 96 60 3d 4a 82 5d bd 72 97 9e be
       0.05927776 0.054831184 -0.05407933 -0.3097492
0000a0 b7 99 45 3d fb 65 49 bd 92 c0 be bd 04 53 21 be
       0.048242297 -0.04916952 -0.093140736 -0.15754324
0000b0 a8 b3 9d bc 8a 07 77 bc 89 a7 72 bd d8 30 60 be
       -0.019250706 -0.015077481 -0.059241805 -0.21893632
0000c0 5b d3 6d 3e ba fc 8d bd 21 33 9e bd 40 06 13 bd
       0.23225157 -0.069329694 -0.07724596 -0.035894632
0000d0 58 84 8f bd 7c 95 12 bc 65 1a 33 3e ce de 5f 3d
       -0.070076644 -0.008946773 0.17490537 0.054655842
0000e0 ee 8c f9 bd 11 0a 53 3e 85 52 7e be a5 c7 12 be
       -0.12185083 0.20609309 -0.24836166 -0.14333971
0000f0 58 43 53 be 0a 97 bb 3d 25 0f 7b 3e f8 7b 85 3d
       -0.20631158 0.09159668 0.24517496 0.06517786
000100 d7 df 64 3e 20 26 c8 bd 3b 52 88 bd ab 2c c0 bd
       0.22351013 -0.09772897 -0.06656309 -0.0938352
000110 f2 bd c0 3a d0 90 ef 3d 22 72 76 3e bf 75 d9 bc
       0.0014705046 0.11697543 0.24066976 -0.026545404
000120 76 40 6b 3e 82 50 60 3e 2e f2 00 bd 2f 09 3c 3e
       0.22973809 0.21905711 -0.03148096 0.18362878
000130 49 b5 ca 3d e8 b3 38 bc 08 5d db 3e cd e2 0d 3f
       0.09897859 -0.011273362 0.42844415 0.55424196

bias_hh_l0 f4 [80]
000000 82 d7 05 be 17 ca 31 3d 60 68 18 be 2e ea 16 be
       -0.13070491 0.04340562 -0.14883566 -0.1473777
000010 43 e2 27 3d c7 a1 00 3e 77 b4 d2 bd 76 94 20 3e
       0.040987264 0.12561713 -0.10288327 0.15681633
000020 2b 8e 1d 3e 0f fc 06 3f 5e 28 8f 3e 92 68 09 3c
       0.15386264 0.5272836 0.27960485 0.008386748
000030 76 a5 ab 3e 58 ef 65 3e bd 2b a4 3d 6a b8 9f 3e
       0.33524674 0.22454584 0.08016155 0.31195384
000040 0f fa 1d bd 92 a0 f4 bd 72 4c c2 3e cb 27 2b 3f
       -0.038568553 -0.11944689 0.37948948 0.66857594
000050 d0 00 18 bd 52 4e cb bd eb 7d a9 3d 95 59 2f 3d
       -0.03711015 -0.09927048 0.0827597 0.04281004
000060 fa 82 12 bd dc ee a9 3d f7 6a 8e 3d ea 90 29 bc
       -0.03576944 0.08297512 0.06953996 -0.010349492
000070 85 ee 26 3e 10 21 ca bd cf 48 d8 3c 4a fc 40 be
       0.16301925 -0.098695874 0.026401905 -0.1884624
000080 ce 55 b0 bd ef 10 4d be 94 27 0d be 3f 05 95 be
       -0.08610116 -0.20025991 -0.13784629 -0.29105565
000090 f9 80 40 be 7b 2b 63 3d d6 78 3b bc ec 6b 8d be
       -0.18799199 0.055461388 -0.011442384 -0.276214
0000a0 51 1d cf bd 4d 21 8b bd 8e 45 c8 bc 91 59 97 3d
       -0.101130135 -0.06793461 -0.024447229 0.0739013
0000b0 ff 7a 49 be af 98 de 3d c4 71 31 3d ee 0a 1a 3e
       -0.19675826 0.10868966 0.043321386 0.15043232
0000c0 ab c4 c8 bd 81 46 71 3d 4f 79 10 3d bc c1 e6 bd
       -0.098031364 0.05890513 0.03527194 -0.11267421
0000d0 38 00 5a 3e 8c 11 9f 3c 51 2e 3f 3e 77 fd bf 3d
       0.21289146 0.019417547 0.18670012 0.093745165
0000e0 cb bd ca bc f1 ac 20 be 46 77 59 bc bf 81 70 3e
       -0.024748703 -0.15690972 -0.013273066 0.23486994
0000f0 42 24 32 3e ee 32 32 3e a5 0f f9 bd 76 42 ca bc
       0.17396644 0.1740224 -0.12161187 -0.024689894
000100 c9 b1 ea bd b8 04 a0 3e 5b d6 9e 3c cb 46 03 be
       -0.11459691 0.312536 0.019389322 -0.12819974
000110 c0 c8 c8 3d af f0 b0 3e d8 9c 5d 3e 7b 32 5f be
       0.09803915 0.34558627 0.21641862 -0.217966
000120 ed f4 0c 3f 20 82 12 bc d1 db 32 3e b4 cf a9 3e
       0.5506123 -0.008942157 0.17466666 0.33166277
000130 ee ae 56 be 37 a0 a3 be 78 63 32 3e 2a f3 2c 3f
       -0.20965168 -0.31958172 0.17420757 0.6755854

weight f4 [1, 20]
000000 35 31 23 be 22 f3 e9 bc b2 5f 9d be b9 9b 30 3e
       -0.1593674 -0.028558318 -0.30737072 0.17246903
000010 da 7d f6 bd cb 46 18 be 51 b8 bd bd 84 f5 6e be
       -0.12035723 -0.14870755 -0.09263671 -0.23335844
000020 0f 70 f3 3c 10 c8 cb be 9a 4c 69 3e f3 b6 a1 3c
       0.02971652 -0.39801073 0.22783127 0.019740557
000030 bc c4 9e be 91 64 a8 be 7d 0e fe 3d 03 3e d9 be
       -0.3100947 -0.32889226 0.12405107 -0.42430124
000040 a6 9b 51 be ec 81 29 3d bd 1d 8d 3e 65 e3 97 be
       -0.20469531 0.04138367 0.2756175 -0.29665676

hidden_cell f4 [1, 1, 20]
000000 5f b1 ea bd a7 92 0e be 80 18 ab bd a9 bf 24 3d
       -0.11459612 -0.13923131 -0.083542824 0.040221844
000010 1d 11 38 be 64 12 c0 3c 39 9f a6 bd 16 1e c8 bd
       -0.17975278 0.02344627 -0.08135838 -0.097713634
000020 1b c3 bc 3d 5f 53 33 3d d1 13 33 bd d4 46 1a bd
       0.09216901 0.04378068 -0.04372007 -0.037665203
000030 39 c4 20 3e 73 6e 9c bc 1f c7 5a 3e 3e 3f 62 3d
       0.15699853 -0.019095635 0.21365021 0.055236094
000040 d0 41 dd bd ac f3 ee 3a 65 8a 06 be 2f 20 7d 3d
       -0.10803568 0.0018230579 -0.13138731 0.06179827

hidden_cell f4 [1, 1, 20]
000000 d0 c7 6a be 3e 83 7f be 73 cd 19 be 9e b0 9e 3d
       -0.22927785 -0.24952409 -0.15019779 0.07748531
000010 8b 17 ae be 8b d1 25 3d 64 45 39 be 56 4a 5e be
       -0.34002337 0.04048304 -0.18092877 -0.21708044
000020 b8 e0 34 3e 0e 1f 84 3d 84 58 81 bd f6 85 b9 bd
       0.17663848 0.06451236 -0.06315711 -0.09058754
000030 2e 4d 59 3e 73 11 09 bd c2 27 d5 3e 1e 49 aa 3d
       0.21220848 -0.033463906 0.41631895 0.08314727
000040 c9 88 7a be 2f 7e ab 3b ff f6 39 be fc e0 94 3d
       -0.24466242 0.005233548 -0.18160628 0.07269475
