mlruns/0/48b4c76988264e97a6d0d0401c9cb072/artifacts/model/data/model.pth (torch, 14120 bytes, 7 tensors)

weight_ih_l0 f4 [80, 1]
0.37497938 0.028300863 0.17697696 0.2927838 0.018628199 0.3914667 0.20820947 0.1796518
-0.035856936 0.18925576 -0.06627112 -0.051509637 0.14050958 -0.015993243 0.191349 0.23369214
0.052095506 0.10755809 0.21248515 0.23007858 0.35143626 -0.17279775 0.3009122 0.28036767
-0.28104645 0.23829243 -0.07569151 0.049030807 -0.27429488 0.09161308 0.11227308 -0.30336928
-0.07631599 -0.04852842 -0.03363422 0.14711523 0.028257322 0.39684796 -0.13305594 0.06744268
-0.21579301 -0.1458381 0.28726706 0.7325374 -0.21305202 0.30413258 0.3742668 -0.54534924
0.20367894 -0.1571272 -0.03044836 0.07611091 -0.17535329 -0.006674178 -0.211281 0.49568197
0.19750154 -0.17221214 0.1302461 0.3092889 0.2720839 0.120059125 0.12975197 0.15230764
-0.12298181 0.034040134 0.010679734 0.18437658 -0.021361873 0.1939187 0.14150319 -0.28414708
0.21630962 0.2525165 0.12504055 0.07189184 -0.058515355 0.45634696 0.17731872 0.33005968
00000000: 4cfd bf3e 36d7 e73c 7339 353e c2e7 953e
00000010: 2a9a 983c 536e c83e dd34 553e a4f6 373e
00000020: b9de 12bd 43cc 413e 27b9 87bd c5fb 52bd
00000030: bee1 0f3e 4304 83bc fef0 433e fe4c 6f3e
00000040: 1962 553d 6a47 dc3d b595 593e b899 6b3e
00000050: 74ef b33e e5f1 30be 2a11 9a3e 5a8c 8f3e
00000060: 52e5 8fbe ee02 743e 2704 9bbd 87d4 483d
00000070: 6170 8cbe a39f bb3d 6eef e53d 3853 9bbe
00000080: 8f4b 9cbd bdc5 46bd 09c4 09bd 60a5 163e
00000090: e67b e73c a82f cb3e d13f 08be 631f 8a3d
000000a0: d8f8 5cbe 9556 15be ab14 933e 9287 3b3f
000000b0: 4f2a 5abe 44b7 9b3e e69f bf3e 029c 0bbf
000000c0: 3691 503e f4e5 20be d76e f9bc 09e0 9b3d
000000d0: d08f 33be 10b3 dabb 0c5a 58be 07ca fd3e
000000e0: d83d 4a3e 6158 30be 3c5f 053e 1d5b 9e3e
000000f0: 954e 8b3e 8fe1 f53d b3dd 043e 89f6 1b3e
00000100: e3dd fbbd ab6d 0b3d 0dfa 2e3c 37cd 3c3e
00000110: 18ff aebc a092 463e 36e6 103e ba7b 91be
00000120: 4580 5d3e d849 813e a10a 003e 073c 933d
00000130: ccad 6fbd 4fa6 e93e 0a93 353e 95fd a83e

weight_hh_l0 f4 [80, 20]
-0.108360365 0.117587596 -0.15565777 -0.09474821 0.17810117 0.041002244 0.12152175 0.17381659
0.044720735 0.03358765 -0.10904363 0.061311267 -0.1004231 -0.1438417 0.024370847 -0.33439207
-0.037173584 0.00967448 -0.17323647 -0.18331847 0.1175098 -0.24046572 0.18024196 -0.19521396
0.16957445 -0.118433155 0.14676483 0.08866446 -0.12911983 0.1613268 -0.13984293 -0.21736343
-0.11284843 0.017546497 -0.10686655 -0.09518475 0.12794079 0.071689114 0.11292601 -0.021280285
0.16525109 0.137442 0.2844031 -0.3930216 -0.020452557 0.16980444 -0.15934661 0.17459199
-0.27383196 -0.24510354 0.07828512 0.15360422 0.053182982 -0.00991359 -0.15286246 -0.06947664
0.07787343 0.10065004 0.06427093 0.123525694 -0.47006184 0.009890505 0.57571775 0.13186699
0.21622786 0.5540572 -0.057313763 -0.034366783 0.1631314 -0.3843091 0.28994876 -0.2517937
-0.20400739 0.35288736 -0.3709275 0.033120997 -0.34742382 -0.53800344 0.40564927 0.5814419
0.1340472 -0.08631767 -0.12103584 -0.16931507 -0.07151504 -0.18678445 -0.2732294 -0.006202517
0.14891495 0.19378938 0.1871954 0.027372967 0.16196394 -0.07130658 0.015813665 0.06715146
-0.22446436 -0.007594721 -0.055431116 0.15799545 -0.080603965 0.11228845 0.08263795 -0.06536188
0.2638941 -0.07394127 -0.15294595 -0.05993198 -0.0035168559 0.09563815 0.044659704 -0.21667954
-0.15124625 -0.09557595 -0.12646522 -0.0049178503 -0.1095182 -0.033055402 -0.17038405 0.2362846
0.0092683695 -0.05254004 0.33040082 0.20644712 0.25609368 -0.07021206 0.17729846 0.07474278
0.20491594 0.0635184 -0.082032494 0.022975873 -0.2871394 -0.044911742 -0.17023991 -0.08717189
0.064108096 -0.041081037 0.10712902 0.113955684 -0.13727842 -0.019901099 0.13841529 0.12654106
0.020722656 0.30909988 -0.15725546 -0.21425559 0.18830521 -0.3476571 0.32231334 0.03355474
-0.44417405 0.12425501 -0.37336615 0.18991412 -0.2372934 -0.38805372 0.34212142 0.20730814
0.19171605 -0.19857462 -0.017830126 -0.16617854 0.10224545 0.11268178 0.16157039 0.006768966
0.14266557 0.21326211 -0.18407562 0.046779137 0.13345155 -0.12657797 -0.11593218 -0.044892132
-0.25373706 0.008631847 -0.06241382 0.001431464 -0.24571295 0.09167168 -0.089739054 -0.42956674
0.229988 0.15573798 -0.15311228 0.27792603 0.052072544 -0.22461395 0.0071407375 -0.2041795
0.00062591914 0.20551157 0.04194121 -0.42586002 0.050506145 -0.114705585 0.039543662 0.114813656
0.029485863 0.15392435 0.12202304 0.051696926 -0.11656375 -0.12540483 0.27618212 0.17330275
-0.16721731 0.108825155 -0.22304569 -0.10265322 0.24179952 0.03302384 0.040364236 0.026254047
-0.18172173 0.18662043 -0.076253 -0.23344798 0.29488182 -0.107658476 0.049458764 0.27383238
-0.054712545 -0.21336909 0.020116262 0.041881274 0.17028625 0.21277799 -0.024356844 -0.07333527
0.3041109 -0.33135614 0.27656615 0.16992858 0.055866297 0.26984107 0.07046907 -0.25276995
0.19860029 0.040348984 -0.05351235 -0.12171482 0.06336324 0.10553182 0.06549079 0.24201022
0.093843624 0.10541201 0.02927392 -0.1901348 -0.20536698 -0.005445425 0.100888945 -0.019549945
00000000: 0aec ddbd c4d1 f03d c064 1fbe 590b c2bd
00000010: 2760 363e f8f1 273d 65e0 f83d fafc 313e
00000020: 172d 373d 3493 093d 4452 dfbd 8621 7b3d
00000030: a0aa cdbd 3d4b 13be 5fa5 c73c 7035 abbe
00000040: 5443 18bd b681 1e3c e764 31be d6b7 3bbe
00000050: faa8 f03d a53c 76be 5991 383e 2be6 47be
00000060: eda4 2d3e 158d f2bd 8549 163e b695 b53d
00000070: fd37 04be da32 253e fc32 0fbe 8594 5ebe
00000080: 141d e7bd acbd 8f3c dadc dabd 39f0 c2bd
00000090: e902 033e bed1 923d c045 e73d fe53 aebc
000000a0: 9537 293e 98bd 0c3e 489d 913e 213a c9be
000000b0: 1f8c a7bc 37e1 2d3e c22b 23be 3ec8 323e
000000c0: b433 8cbe 6cfc 7abe f353 a03d 6d4a 1d3e
000000d0: 66d6 593d 9c6c 22bc fa87 1cbe c549 8ebd
000000e0: 1b7c 9f3d 9c21 ce3d 7aa0 833d 0afb fc3d
000000f0: f2ab f0be c90b 223c 3d62 133f 2408 073e
00000100: d66a 5d3e b1d6 0d3f d6c1 6abd 2fc4 0cbd
00000110: eb0b 273e 2ac4 c4be 2a74 943e 1beb 80be
00000120: 50e7 50be a7ad b43e 36ea bdbe e2a9 073d
00000130: 89e1 b1be 98ba 09bf 43b1 cf3e 60d9 143f
00000140: ab43 093e 52c7 b0bd a3e1 f7bd ee60 2dbe
00000150: 7a76 92bd 6c44 3fbe b9e4 8bbe 7c3e cbbb
00000160: 297d 183e b970 463e 27b0 3f3e 463d e03c
00000170: e0d9 253e 2f09 92bd a98b 813c b486 893d
00000180: fcd9 65be 23dd f8bb bd0b 63bd 8fc9 213e
00000190: b113 a5bd 7df7 e53d 163e a93d 73dc 85bd
000001a0: 211d 873e 856e 97bd dd9d 1cbe 3c7b 75bd
000001b0: 0d7b 66bb efdd c33d 18ed 363d 3ee1 5dbe
000001c0: 4ce0 1abe 53bd c3bd 1980 01be eb25 a1bb
000001d0: 144b e0bd 1a65 07bd 2879 2ebe 97f4 713e
000001e0: 5cda 173c 3a34 57bd 4c2a a93e e066 533e
000001f0: b61e 833e 57cb 8fbd ba8d 353e be12 993d
00000200: 7cd5 513e ef15 823d a700 a8bd e637 bc3c
00000210: ef03 93be 60f5 37bd 5f53 2ebe 2d87 b2bd
00000220: 1b4b 833d 9744 28bd 7666 db3d 9961 e93d
00000230: b792 0cbe a107 a3bc bdbc 0d3e fb93 013e
00000240: 8fc2 a93c 5742 9e3e 9307 21be d165 5bbe
00000250: 15d3 403e 1d00 b2be 4106 a53e b270 093d
00000260: c86a e3be 6979 fe3d d929 bfbe d978 423e
00000270: 0bfd 72be faae c6be 8a2a af3e 9648 543e
00000280: 3651 443e 2557 4bbe 7c10 92bc b52a 2abe
00000290: 1066 d13d b4c5 e63d b572 253e 34ce dd3b
000002a0: ec16 123e 6261 5a3e 527e 3cbe 7b9b 3f3d
000002b0: 86a7 083e a89d 01be da6d edbd d0e0 37bd
000002c0: d3e9 81be 976c 0d3c a2a5 7fbd f69f bb3a
000002d0: 2d9c 7bbe 5dbe bb3d 1cc9 b7bd 2cf0 dbbe
000002e0: f981 6b3e c779 1f3e 77c9 1cbe 524c 8e3e
000002f0: 054a 553d 3301 66be d9fc e93b 6e14 51be
00000300: b914 243a a071 523e 8cca 2b3d 530a dabe
00000310: 88df 4e3d c3ea eabd 89f8 213d 6c23 eb3d
00000320: 568c f13c 589e 1d3e 37e7 f93d 28c0 533d
00000330: fab8 eebd 206a 00be be67 8d3e 4776 313e
00000340: 043b 2bbe b9df de3d 1766 64be da3b d2bd
00000350: 4b9a 773e 0244 073d f854 253d ba12 d73c
00000360: 4315 3abe 6d19 3f3e 882a 9cbd fd0c 6fbe
00000370: c0fa 963e 0c7c dcbd 4695 4a3d c233 8c3e
00000380: 431a 60bd 6d7d 5abe dcca a43c b38b 2b3d
00000390: 855f 2e3e 79e2 593e 0188 c7bc cd30 96bd
000003a0: 6db4 9b3e 83a7 a9be 149a 8d3e c201 2e3e
000003b0: 0fd4 643d 9c28 8a3e 1652 903d 106b 81be
000003c0: e05d 4b3e fa44 253d c42f 5bbd 9f45 f9bd
000003d0: 96c4 813d 1121 d83d 0920 863d 87d1 773e
000003e0: 1631 c03d 40e2 d73d dccf ef3c b2b2 42be
000003f0: b94b 52be 896f b2bb dd9e ce3d 3527 a0bc

bias_ih_l0 f4 [80]
-0.046602104 0.09387446 -0.11362175 0.33318856 -0.051363602 -0.14311813 0.018858878 0.30986655
0.18560942 0.13504279 0.19164373 -0.15017338 0.14008136 -0.09763053 0.015408627 0.045663066
-0.15536277 0.18048878 -0.19616602 0.008858167 -0.030565543 -0.22362165 -0.15233909 0.16248308
0.22637165 -0.075150445 -0.054495122 -0.12840214 0.065921366 0.12229669 -0.07249512 -0.041301824
0.14665233 -0.078852385 -0.033992022 0.22408876 0.13197218 -0.013785996 -0.09068094 0.089956366
-0.038216945 0.16633877 0.090994954 -0.15866394 0.14836642 -0.017659677 0.14791627 0.07590447
0.042498406 -0.24708635 0.11116035 0.03490523 -0.22911482 0.2559803 -0.20040017 -0.042046927
-0.20790121 -0.19287534 -0.023179205 0.24850336 -0.17520139 0.108779095 0.07857234 0.44967693
-0.018034035 0.15263297 0.08392599 0.08965447 0.08583844 -0.03483764 -0.13972779 -0.09557729
0.020672828 0.22096366 0.16792808 0.11790592 0.13896649 -0.013904327 0.022858761 0.14319612
00000000: d9e1 3ebd 4141 c03d 85b2 e8bd b197 aa3e
00000010: a462 52bd 8f8d 12be ef7d 9a3c d4a6 9e3e
00000020: 6510 3e3e a848 0a3e 413e 443e 0dc7 19be
00000030: 7d71 0f3e 84f2 c7bd 7774 7c3c 3209 3b3d
00000040: 6b17 1fbe 0dd2 383e bfdf 48be d821 113c
00000050: 9764 fabc 13fd 64be c7fe 1bbe f761 263e
00000060: f8cd 673e 7ae8 99bd 4736 5fbd da7b 03be
00000070: c801 873d b076 fa3d 5278 94bd 1a2c 29bd
00000080: 072c 163e 5c7d a1bd 383b 0bbd 8677 653e
00000090: b723 073e a8de 61bc eeb6 b9bd 0b3b b83d
000000a0: 5f89 1cbd b654 2a3e 905b ba3d cd78 22be
000000b0: 5eed 173e 07ab 90bc 5d77 173e ce73 9b3d
000000c0: cf12 2e3d 3404 7dbe 0aa8 e33d c9f8 0e3d
000000d0: 139d 6abe da0f 833e b435 4dbe 6639 2cbd
000000e0: 0ee4 54be 1d81 45be 51e2 bdbc aa77 7e3e
000000f0: fe67 33be 93c7 de3d 89ea a03d 0e3c e63e
00000100: 1dbc 93bc d14b 1c3e 64e1 ab3d c39c b73d
00000110: 10cc af3d eab1 0ebd cd14 0fbe 07be c3bd
00000120: 105a a93c 4c44 623e 57f5 2b3e a978 f13d
00000130: 3b4d 0e3e f9ce 63bc 4c42 bb3c 01a2 123e

bias_hh_l0 f4 [80]
0.1339562 -0.1584619 0.055395022 0.33817053 0.18754049 0.10456223 0.0417738 0.21744137
0.050483793 0.004872664 -0.045900792 -0.049085524 -0.022038989 -0.16746984 0.054429147 0.061766375
0.11866035 -0.14916171 -0.17719258 0.13330527 0.16142727 -0.22773953 -0.06625291 0.11362251
0.053419296 0.0062416666 -0.25132528 0.10631424 -0.11446077 0.2310224 -0.2009952 -0.1430404
0.15626429 -0.15204531 0.03880256 0.094689175 0.105349906 0.012739553 -0.25082025 0.15058658
-0.09925848 -0.02310598 0.06477636 -0.13229798 0.1465694 0.17124465 -0.17698504 0.1813858
-0.14596157 0.14399403 -0.07688877 0.014215223 0.1635116 0.22628798 -0.22291213 -0.09429481
0.07029023 -0.26512432 -0.06922036 0.10339132 -0.02434415 0.038680058 0.057824235 0.1858822
-0.08329756 -0.15337138 0.2850332 0.039238386 0.097970314 -0.14646876 0.08158915 -0.08613882
-0.17661789 0.0046680053 -0.08913972 0.059591345 -0.061050095 0.16709064 -0.15186936 0.03537156
00000000: d02b 093e d643 22be e4e5 623d b024 ad3e
00000010: 9d0a 403e b924 d63d 011b 2b3d f3a8 5e3e
00000020: 18c8 4e3d deaa 9f3b 7802 3cbd e70d 49bd
00000030: 1c8b b4bc 377d 2bbe 19f1 5e3d bdfe 7c3d
00000040: 3304 f33d d9bd 18be f971 35be 2d81 083e
00000050: 314d 253e 8d34 69be 9baf 87bd ebb2 e83d
00000060: 31ce 5a3d e586 cc3b b5ad 80be 48bb d93d
00000070: 686a eabd 2391 6c3e b0d1 4dbe 2f79 12be
00000080: bf03 203e c4b1 1bbe 6fef 1e3d 66ec c13d
00000090: b1c1 d73d 8fb9 503c 836b 80be 5e33 1a3e
000000a0: 0848 cbbd c148 bdbc 78a9 843d 1f79 07be
000000b0: 4a16 163e c25a 2f3e 913b 35be 33bd 393e
000000c0: f376 15be 2c73 133e dc77 9dbd f7e6 683c
000000d0: 966f 273e 09b8 673e 1443 64be a31d c1bd
000000e0: 53f4 8f3d 60be 87be 67c3 8dbd d4be d33d
000000f0: 626d c7bc fb6e 1e3d 1bd9 6c3d e757 3e3e
00000100: e997 aabd 630d 1dbe dfef 913e 6eb8 203d
00000110: a9a4 c83d e8fb 15be 3618 a73d 8d69 b0bd
00000120: 52db 34be 11f6 983b e38e b6bd 0e16 743d
00000130: aa0f 7abd cf19 2b3e a483 1bbe c5e1 103d

weight f4 [1, 20]
-0.17610736 -0.14720546 0.15415464 0.30401227 -0.12365445 0.20117697 0.14634308 -0.21047568
0.18205066 -0.2275024 0.027374387 -0.0053384537 -0.09200461 0.099618636 -0.243274 0.28900737
0.08461086 -0.28279573 0.109370336 0.20408349
00000000: 7d55 34be 07bd 16be b7da 1d3e 7fa7 9b3e
00000010: 8b3e fdbd 5601 4e3e f6da 153e f086 57be
00000020: 7d6b 3a3e 64f6 68be 4040 e03c 32ee aebb
00000030: ea6c bcbd db04 cc3d d21c 79be c6f8 933e
00000040: 7548 ad3d 9aca 90be 8efd df3d 43fb 503e

hidden_cell f4 [1, 1, 20]
-0.20792437 0.027108043 0.16447952 -0.28839836 0.078737944 0.1950525 -0.032454908 0.21988581
-0.0358 -0.23711568 0.083745025 -0.00648501 -0.122126326 0.2015752 -0.32342696 -0.10182411
-0.024876751 -0.23564936 0.0036730226 0.38522765
00000000: 20ea 54be b011 de3c 526d 283e f3a8 93be
00000010: 5c41 a13d d8bb 473e 70ef 04bd bf29 613e
00000020: 05a3 12bd 74ce 72be 8382 ab3d 3580 d4bb
00000030: 5e1d fabd bb69 4e3e 3898 a5be 2989 d0bd
00000040: 54ca cbbc 114e 71be 18b7 703b 8f3c c53e

hidden_cell f4 [1, 1, 20]
-0.4588175 0.050443288 0.26196304 -0.39262417 0.15347119 0.39999247 -0.05160587 0.34564686
-0.06612504 -0.5661305 0.17157733 -0.01909141 -0.25783113 0.40584394 -0.7216991 -0.15754399
-0.05032518 -0.45692933 0.0080449665 0.77111095
00000000: 21ea eabe 9f9d 4e3d 0520 863e 0906 c9be
00000010: 8d27 1d3e d0cb cc3e ad60 53bd a0f8 b03e
00000020: 916c 87bd eeed 10bf f8b1 2f3e 9765 9cbc
00000030: 7102 84be c7ca cf3e 46c1 38bf 3653 21be
00000040: c721 4ebd a4f2 e9be 09cf 033c 8767 453f
