mlruns/0/f1b4d927d10544828440feaa45915ea4/artifacts/model/data/model.pth (torch, 14120 bytes, 7 tensors)

weight_ih_l0 f4 [80, 1]
0.19648361 -0.19789086 0.17603321 0.24777701 -0.24638672 -0.04073112 -0.090194516 0.07919009
0.15527807 -0.2365834 0.04801725 0.07371671 0.08709333 0.09172887 0.037734855 -0.13590539
-0.019770771 0.35808346 0.1240811 -0.00028161946 0.23995449 0.026891978 0.14755408 0.23950018
-0.07984543 0.09261673 0.07797408 0.22640513 -0.15368532 -0.23511852 -0.030469945 0.0958473
-0.031062752 -0.074879244 0.12097903 0.09295749 0.32174805 0.05163005 -0.08648369 -0.03641912
0.065578386 -0.03544663 -0.07687076 -0.09937373 0.05084204 -0.28144687 -0.1767628 -0.24409316
-0.06560887 -0.12554629 0.07001291 -0.19703528 -0.066639245 0.009296699 0.013078577 -0.10252495
0.16594271 0.30788285 -0.120580055 0.26548997 -0.012379417 0.21219553 -0.15008327 0.21833372
0.08546016 -0.04088204 0.0060815094 0.25466534 0.02174566 0.028393216 -0.19825879 0.12521319
0.18560977 -0.05989272 -0.0917638 0.2747246 0.3157012 0.2999681 0.11168268 0.055403184
00000000: 0033 493e e7a3 4abe 0d42 343e 42b9 7d3e
00000010: cd4c 7cbe add5 26bd e7b7 b8bd 6a2e a23d
00000020: 3701 1f3e eb42 72be bcad 443d c9f8 963d
00000030: fd5d b23d 59dc bb3d dd8f 1a3d c82a 0bbe
00000040: 50f6 a1bc b756 b73e 3b1e fe3d 53a6 93b9
00000050: a1b6 753e 914c dc3c 6b18 173e 893f 753e
00000060: 0086 a3bd d7ad bd3d e0b0 9f3d bfd6 673e
00000070: af5f 1dbe e9c2 70be 1b9c f9bc 974b c43d
00000080: 5077 febc 4a5a 99bd dbc3 f73d 7f60 be3d
00000090: 29bc a43e 087a 533d 5c1e b1bd 372c 15bd
000000a0: f64d 863d 7c30 11bd 6b6e 9dbd 7484 cbbd
000000b0: be3f 503d ce19 90be 4f01 35be 8ff3 79be
000000c0: f15d 86bd 358f 00be ee62 8f3d 9ec3 49be
000000d0: 287a 88bd 2f51 183c 8747 563c 9af8 d1bd
000000e0: e3ec 293e d2a2 9d3e adf2 f6bd 4dee 873e
000000f0: 0ad3 4abc c949 593e 6eaf 19be e092 5f3e
00000100: bd05 af3d ed73 27bd 6647 c73b 7f63 823e
00000110: f423 b23c e498 e83c 5a04 4bbe e337 003e
00000120: 7d10 3e3e 1252 75bd a9ee bbbd b4a8 8c3e
00000130: 96a3 a13e 6b95 993e e4b9 e43d 73ee 623d

weight_hh_l0 f4 [80, 20]
-0.19152509 0.062087573 -0.13384992 -0.1357511 -0.068114564 0.15853663 -0.0025875892 -0.18932037
-0.0068613966 0.008598041 -0.19488561 0.13689087 -0.061750498 0.12719312 -0.14962044 0.17666699
-0.015832454 -0.22916698 -0.033374432 0.028922686 -0.21909079 -0.060300402 0.2311114 0.09310929
0.20417218 0.12957086 0.023952123 0.16727158 0.098113015 -0.12291179 0.22381781 0.20711742
0.025580462 -0.043852814 0.15438697 -0.1578451 0.123377874 -0.022127341 0.027769307 -0.13887528
0.028798366 0.16595207 -0.18121989 0.1044684 -0.14195204 0.27342835 0.096398674 0.20610167
0.018650394 0.18230526 0.011260065 -0.12003569 0.30870748 -0.0050946507 -0.03306058 -0.10466376
0.10232297 -0.097945005 -0.17139633 -0.2140288 -0.14501822 -0.028290752 -0.019897647 -0.050391153
0.13151956 0.07028047 -0.113037735 0.1510419 -0.068661325 -0.09175092 -0.23229675 -0.13516569
0.12483111 -0.107239105 0.008583782 0.03995021 0.1429253 0.25309122 0.07467501 0.26465863
0.15197895 -0.058689427 0.18638185 0.24077047 0.24100801 0.08691224 0.21883197 -0.0052213445
-0.043793485 -0.0724458 0.07275967 0.19411677 0.14069235 -0.16982353 -0.06983468 0.20660222
-0.12685275 -0.119493015 0.21627997 0.146278 0.22621927 -0.20110403 -0.22499894 -0.17195092
-0.24924788 -0.028293638 -0.09045607 -0.1824287 0.041188717 0.11483247 0.10377561 -0.22480382
-0.06603797 -0.19991052 0.011770515 0.14432603 -0.0046281884 -0.08589587 -0.06585183 0.08081242
-0.027554912 -0.20373967 0.1548568 0.16981633 0.034905113 -0.03347067 0.13601726 0.24001774
-0.1582879 -0.1310998 -0.13477063 0.05888249 0.2327629 -0.15774761 0.08842958 -0.049553398
-0.0352904 -0.035465315 -0.11984521 0.044661917 0.040457185 -0.12905873 -0.048403516 0.040921092
-0.20030597 -0.07557016 0.024551468 0.05924051 -0.15003043 -0.24902222 -0.2343428 0.15700892
-0.21566927 0.048515927 0.0023055943 0.15789601 0.19587791 -0.16433923 0.03699547 -0.08794548
0.022911025 -0.060905878 -0.11759681 0.24061967 -0.14716843 0.024687132 -0.15497065 0.059294026
-0.045533754 0.2212231 -0.1944126 -0.04321955 0.012624539 0.22456677 0.16480543 -0.1468285
0.012574343 -0.26718315 0.23956145 -0.20694372 -0.057126008 0.025115028 -0.15041876 0.27302325
-0.06450812 0.15766074 0.05199187 0.08360231 -0.122375146 -0.1954906 0.091073856 0.16201872
0.14528202 0.06004247 0.15621729 0.19808547 -0.06592784 0.03420391 0.052675296 -0.13295671
-0.0672799 -0.17013858 0.112903446 -0.1142013 0.16547117 0.20320906 0.11228013 -0.13537873
-0.17407304 0.05214339 -0.16989604 0.11657835 -0.09115394 -0.05748023 0.0054463884 0.07477577
-0.12298931 0.20677501 0.15748991 0.097963564 -0.0075523686 0.09956947 -0.14820528 -0.18373486
-0.16808482 -0.20386855 0.0026425014 -0.20107444 -0.33552742 -0.06889637 -0.23238291 -0.035285987
0.080801345 -0.16361439 -0.28534782 0.26298398 0.013058315 -0.1557043 0.04015813 0.2359553
-0.022903504 -0.1221971 0.014163081 -0.08832605 0.16774929 -0.11952715 -0.022234961 0.066454105
-0.34003764 -0.34829125 0.020095635 0.18730763 0.10979796 -0.015619441 -0.117793225 0.10512047
00000000: 271f 44be 8a4f 7e3d f40f 09be 5602 0bbe
00000010: a67f 8bbd 6d57 223e 8b94 29bb 33dd 41be
00000020: 91d5 e0bb ccde 0c3c 1890 47be 1f2d 0c3e
00000030: 17ee 7cbd ea3e 023e 1a36 19be 31e8 343e
00000040: 10b3 81bc c0aa 6abe a1b3 08bd 45ef ec3c
00000050: 5659 60be 8efd 76bd 78a8 6c3e 15b0 be3d
00000060: 8312 513e 39ae 043e 3e37 c43c 3e49 2b3e
00000070: 7aef c83d 2db9 fbbd 7f30 653e 9716 543e
00000080: 1e8e d13c 029f 33bd 9e17 1e3e 25a2 21be
00000090: 8aad fc3d 6644 b5bc 757c e33c 5235 0ebe
000000a0: 8dea eb3c 57ef 293e b591 39be 87f3 d53d
000000b0: e05b 11be cdfe 8b3e ab6c c53d 510c 533e
000000c0: b6c8 983c 3bae 3a3e 237c 383c 46d5 f5bd
000000d0: e80e 9e3e 07f1 a6bb 886a 07bd f459 d6bd
000000e0: b58e d13d 6497 c8bd 8582 2fbe 5e2a 5bbe
000000f0: a87f 14be 02c2 e7bc 6400 a3bc f466 4ebd
00000100: 10ad 063e 35ef 8f3d 5480 e7bd baaa 1a3e
00000110: 4f9e 8cbd e8e7 bbbd 33df 6dbe e068 0abe
00000120: 74a7 ff3d 2da0 dbbd fea2 0c3c d5a2 233d
00000130: 035b 123e 2c95 813e 36ef 983d 5681 873e
00000140: 5fa0 1b3e 5364 70bd e2da 3e3e 898c 763e
00000150: ceca 763e 0bff b13d 7d15 603e d017 abbb
00000160: cc60 33bd 775e 94bd 0603 953d 8cc6 463e
00000170: a811 103e 38e6 2dbe 7c05 8fbd 888f 533e
00000180: b0e5 01be c1b8 f4bd 7f78 5d3e e6c9 153e
00000190: 06a6 673e 37ee 4dbe 1f66 66be e713 30be
000001a0: d63a 7fbe 0fc8 e7bc 0841 b9bd 97ce 3abe
000001b0: 80b5 283d 492d eb3d 4f88 d43d f932 66be
000001c0: ea3e 87bd 58b5 4cbe 1ed9 403c 34ca 133e
000001d0: 0fa8 97bb 2dea afbd 53dd 86bd fb80 a53d
000001e0: d7ba e1bc 22a1 50be c892 1e3e 55e4 2d3e
000001f0: aaf8 0e3d 8b18 09bd 1c48 0b3e 36c7 753e
00000200: 3916 22be 073f 06be 5001 0abe c42e 713d
00000210: 6659 6e3e 9788 21be 911a b53d 81f8 4abd
00000220: ab8c 10bd 1444 11bd 6871 f5bd 6aef 363d
00000230: 6fb6 253d f927 04be c442 46bd e09c 273d
00000240: 021d 4dbe 87c4 9abd 2920 c93c 2da6 723d
00000250: 94a1 19be aeff 7ebe 8ff7 6fbe f2c6 203e
00000260: 68d8 5cbe a3b8 463d 7419 173b 7eaf 213e
00000270: 3894 483e 8b48 28be 9088 173d c31c b4bd
00000280: e7af bb3c 7178 79bd 99d6 f0bd 0165 763e
00000290: 52b3 16be ab3c ca3c a0b0 1ebe 4bde 723d
000002a0: 9a81 3abd 4f88 623e 1914 47be fc06 31bd
000002b0: 28d7 4e3c d5f4 653e c1c2 283e 365a 16be
000002c0: 9e04 4e3c 3bcc 88be 994f 753e 0ee9 53be
000002d0: f6fc 69bd 08be cd3c 6007 1abe b4c9 8b3e
000002e0: d51c 84bd d171 213e 6df5 543d b037 ab3d
000002f0: d29f fabd b02e 48be ee84 ba3d 3ce8 253e
00000300: cfc4 143e 18ef 753d 6df7 1f3e ebd6 4a3e
00000310: 2d05 87bd 6619 0c3d 0dc2 573d ce25 08be
00000320: 0bca 89bd cf38 2ebe ec39 e73d 5fe2 e9bd
00000330: 4671 293e 0916 503e 20f3 e53d b9a0 0abe
00000340: 3440 32be 4f94 553d 3af9 2dbe a1c0 ee3d
00000350: ebae babd 6470 6bbd 9e77 b23b 0a24 993d
00000360: d2e1 fbbd d4bc 533e 0945 213e 1fa1 c83d
00000370: dc79 f7bb 14eb cb3d 20c3 17be fe24 3cbe
00000380: 6d1e 2cbe ebc2 50be d12d 2d3b 75e6 4dbe
00000390: 40ca abbe 8a19 8dbd c9f5 6dbe 0a88 10bd
000003a0: 2d7b a53d 888a 27be 1c19 92be d6a5 863e
000003b0: 8bf2 553c f370 1fbe da7c 243d 449e 713e
000003c0: 21a0 bbbc 7942 fabd 440c 683c 4ae4 b4bd
000003d0: 78c6 2b3e a7ca f4bd 1826 b6bc 1719 883d
000003e0: 6a19 aebe 3b53 b2be 9a9f a43c 92cd 3f3e
000003f0: c1dd e03d afe8 7fbc 933d f1bd 6749 d73d

bias_ih_l0 f4 [80]
-0.18223214 0.0133075295 -0.013263378 -0.14737816 0.067821994 -0.042656045 -0.010412961 0.0317152
-0.14560279 -0.065238826 -0.07602514 -0.12917972 -0.06976291 0.13141978 0.16527481 -0.010370241
-0.038901355 0.18965569 0.11585108 -0.11578183 -0.12534082 0.036102545 -0.074584685 -0.057409555
0.0956272 0.12811425 0.15328439 -0.038605154 -0.03270477 -0.19745977 0.13188294 -0.023469493
-0.03137396 -0.15678169 -0.25840998 -0.1228278 -0.059678722 0.15685624 0.073481016 0.08786537
-0.084881544 0.13481714 -0.07264803 -0.18693575 -0.007482632 -0.026530338 0.007965281 -0.24025784
0.21107474 -0.03690076 0.13896172 -0.21426049 0.17764227 0.041058414 0.085301206 -0.10529857
-0.0043906798 -0.00084600516 0.12640403 -0.052505057 -0.065416925 0.008941289 -0.1618561 -0.12190749
-0.08766666 -0.0067840894 0.015287087 0.13456735 -0.2195337 0.017095372 -0.19188644 -0.17884752
0.22932553 -0.09012117 0.09401665 0.06575552 0.0129705835 -0.08446515 -0.20750672 -0.0690941
00000000: 109b 3abe d307 5a3c a44e 59bc 4dea 16be
00000010: 42e6 8a3d 1bb8 2ebd 209b 2abc cce7 013d
00000020: e618 15be ef9b 85bd 12b3 9bbd b047 04be
00000030: dbdf 8ebd e892 063e cd3d 293e f1e7 29bc
00000040: 0757 1fbd 1a35 423e 5543 ed3d 061f edbd
00000050: 5859 00be 43e0 133d dbbf 98bd 4826 6bbd
00000060: 32d8 c33d 6230 033e 95f6 1c3e 7020 1ebd
00000070: 70f5 05bd e532 4abe 520c 073e 1843 c0bc
00000080: fb81 00bd 618b 20be 504e 84be 248d fbbd
00000090: ad71 74bd ec9e 203e 377d 963d c2f2 b33d
000000a0: 60d6 adbd 810d 0a3e 7ec8 94bd 166c 3fbe
000000b0: de30 f5bb 2756 d9bc cf80 023c 2706 76be
000000c0: fa23 583e 4025 17bd fb4b 0e3e 1a67 5bbe
000000d0: dbe7 353e de2c 283d 66b2 ae3d c7a6 d7bd
000000e0: b1df 8fbb 72c6 5dba 0f70 013e 8b0f 57bd
000000f0: 4ff9 85bd 7c7e 123c 9bbd 25be a2aa f9bd
00000100: 948a b3bd 114d debb b176 7a3c 06cc 093e
00000110: 71cd 60be 980b 8c3c e17d 44be ce23 37be
00000120: 50d4 6a3e 7391 b8bd cd8b c03d d4aa 863d
00000130: 9282 543c 11fc acbd a47c 54be 3581 8dbd

bias_hh_l0 f4 [80]
-0.16855443 0.05758178 0.16082655 -0.028317692 -0.14914447 0.14961763 0.17424238 0.08197707
-0.109980635 0.04731268 0.008635176 -0.024192821 -0.14756234 -0.17863292 -0.09998467 -0.189216
0.16715416 -0.081688374 -0.023110112 0.29218215 -0.16545112 -0.23986012 -0.2472523 -0.15227899
0.014572614 -0.112676755 0.07500909 -0.12541498 -0.20962293 -0.19217668 -0.18424428 0.17553763
0.0075770267 -0.17606126 -0.01960862 0.092567265 0.06521546 0.00060815504 0.096562244 0.13901371
0.13413802 -0.16389264 -0.046018723 -0.086657874 -0.029891375 0.0800017 -0.05212419 -0.12760232
-0.16808568 0.08519504 -0.17451024 -0.16364145 -0.24885842 -0.19313507 -0.10818379 0.097298
0.072535776 0.09989869 -0.11147389 -0.04334865 -0.1502869 0.076443814 -0.121636994 0.055286635
-0.19804399 -0.019479625 0.008794226 0.09263204 0.0017866382 -0.108076036 0.08628926 -0.08929911
-0.1713512 -0.1385601 0.05132013 -0.012271003 0.2444025 -0.11084766 -0.034817535 0.07789462
00000000: 8899 2cbe dfda 6b3d b7af 243e 81fa e7bc
00000010: 54b9 18be 5d35 193e 986c 323e 98e3 a73d
00000020: 873d e1bd f1ca 413d 8e7a 0d3c 0630 c6bc
00000030: 951a 17be 8ceb 36be c3c4 ccbd d7c1 41be
00000040: 762a 2b3e 3c4c a7bd 6b51 bdbc e698 953e
00000050: 056c 29be e49d 75be b52f 7dbe 06ef 1bbe
00000060: f9c1 6e3c 12c3 e6bd 5e9e 993d c96c 00be
00000070: 65a7 56be f7c9 44be 88aa 3cbe 23c0 333e
00000080: b548 f83b 6749 34be 42a2 a0bc e893 bd3d
00000090: af8f 853d 986c 1f3a 6dc2 c53d 9c59 0e3e
000000a0: 7a5b 093e 79d3 27be 217e 3cbd af79 b1bd
000000b0: c2de f4bc eed7 a33d 2d80 55bd 2faa 02be
000000c0: a71e 2cbe bd7a ae3d d0b2 32be a091 27be
000000d0: bed4 7ebe 33c5 45be 778f ddbd 2c44 c73d
000000e0: a38d 943d af97 cc3d 6c4c e4bd 5b8e 31bd
000000f0: cfe4 19be 938e 9c3d d11c f9bd 3d74 623d
00000100: 0bcc 4abe bc93 9fbc a815 103c deb5 bd3d
00000110: a12d ea3a f856 ddbd 6cb8 b03d 74e2 b6bd
00000120: b076 2fbe b3e2 0dbe 0e35 523d 510c 49bc
00000130: a644 7a3e 1904 e3bd d59c 0ebd 3787 9f3d

weight f4 [1, 20]
-0.11995365 0.12777852 0.059641548 -0.12761344 0.021321254 -0.110058494 0.0150010465 -0.27925822
0.0792443 0.05688732 0.06788671 -0.03737372 -0.10728401 -0.057355918 0.09169479 -0.17871107
0.10698636 0.30389562 -0.008370661 0.15664452
00000000: 42aa f5bd 5fd8 023e b24a 743d 19ad 02be
00000010: e9a9 ae3c 5966 e1bd f3c6 753c effa 8ebe
00000020: d64a a23d ae02 693d 3008 8b3d 3015 19bd
00000030: b8b7 dbbd 0aee 6abd 7aca bb3d 0900 37be
00000040: aa1b db3d 3598 9b3e 1925 09bc 6c67 203e

hidden_cell f4 [1, 1, 20]
-0.024582114 0.031940103 -0.006221478 -0.1677396 -0.008660749 -0.01864735 -0.010108494 -0.22634667
0.010618192 0.020876769 -0.00082541833 -0.1809906 -0.06944653 -0.052482475 0.018745758 -0.038812142
0.08915372 0.1600587 -0.026567467 -0.0052977083
00000000: 6e60 c9bc a0d3 023d 8add cbbb eec3 2bbe
00000010: d0e5 0dbc 54c2 98bc 199e 25bc 6cc7 67be
00000020: edf7 2d3c c205 ab3c e360 58ba 9a55 39be
00000030: fb39 8ebd ddf7 56bd b490 993c 7bf9 1ebd
00000040: 3a96 b63d 6ee6 233e 04a4 d9bc 6698 adbb

hidden_cell f4 [1, 1, 20]
-0.056163322 0.059200734 -0.0156961 -0.35343134 -0.02008785 -0.036741573 -0.020399017 -0.41113636
0.025972124 0.046537187 -0.0018160328 -0.44170114 -0.13089225 -0.12180524 0.035918515 -0.07238141
0.14764775 0.32852173 -0.060473133 -0.01053926
00000000: 830b 66bd 787c 723d 1c95 80bc f4f4 b4be
00000010: 468f a4bc 557e 16bd d71b a7bc 7780 d2be
00000020: 7ec3 d43c c79d 3e3d f307 eeba a726 e2be
00000030: 9e08 06be 0775 f9bd 4b1f 133d b43c 94bd
00000040: f930 173e 0034 a83e adb2 77bd dcac 2cbc
